Model: "model"
__________________________________________________________________________________________________
Layer (type)                    Output Shape         Param #     Connected to                     
==================================================================================================
input_1 (InputLayer)            [(None, 32, 32, 3)]  0                                            
__________________________________________________________________________________________________
conv2d (Conv2D)                 (None, 32, 32, 16)   432         input_1[0][0]                    
__________________________________________________________________________________________________
batch_normalization (BatchNorma (None, 32, 32, 16)   64          conv2d[0][0]                     
__________________________________________________________________________________________________
re_lu (ReLU)                    (None, 32, 32, 16)   0           batch_normalization[0][0]        
__________________________________________________________________________________________________
conv2d_1 (Conv2D)               (None, 32, 32, 16)   256         re_lu[0][0]                      
__________________________________________________________________________________________________
batch_normalization_1 (BatchNor (None, 32, 32, 16)   64          conv2d_1[0][0]                   
__________________________________________________________________________________________________
re_lu_1 (ReLU)                  (None, 32, 32, 16)   0           batch_normalization_1[0][0]      
__________________________________________________________________________________________________
conv2d_2 (Conv2D)               (None, 32, 32, 16)   2304        re_lu_1[0][0]                    
__________________________________________________________________________________________________
batch_normalization_2 (BatchNor (None, 32, 32, 16)   64          conv2d_2[0][0]                   
__________________________________________________________________________________________________
re_lu_2 (ReLU)                  (None, 32, 32, 16)   0           batch_normalization_2[0][0]      
__________________________________________________________________________________________________
conv2d_3 (Conv2D)               (None, 32, 32, 64)   1024        re_lu_2[0][0]                    
__________________________________________________________________________________________________
conv2d_4 (Conv2D)               (None, 32, 32, 64)   1024        re_lu[0][0]                      
__________________________________________________________________________________________________
add (Add)                       (None, 32, 32, 64)   0           conv2d_3[0][0]                   
                                                                 conv2d_4[0][0]                   
__________________________________________________________________________________________________
batch_normalization_3 (BatchNor (None, 32, 32, 64)   256         add[0][0]                        
__________________________________________________________________________________________________
re_lu_3 (ReLU)                  (None, 32, 32, 64)   0           batch_normalization_3[0][0]      
__________________________________________________________________________________________________
conv2d_5 (Conv2D)               (None, 32, 32, 16)   1024        re_lu_3[0][0]                    
__________________________________________________________________________________________________
batch_normalization_4 (BatchNor (None, 32, 32, 16)   64          conv2d_5[0][0]                   
__________________________________________________________________________________________________
re_lu_4 (ReLU)                  (None, 32, 32, 16)   0           batch_normalization_4[0][0]      
__________________________________________________________________________________________________
conv2d_6 (Conv2D)               (None, 32, 32, 16)   2304        re_lu_4[0][0]                    
__________________________________________________________________________________________________
batch_normalization_5 (BatchNor (None, 32, 32, 16)   64          conv2d_6[0][0]                   
__________________________________________________________________________________________________
re_lu_5 (ReLU)                  (None, 32, 32, 16)   0           batch_normalization_5[0][0]      
__________________________________________________________________________________________________
conv2d_7 (Conv2D)               (None, 32, 32, 64)   1024        re_lu_5[0][0]                    
__________________________________________________________________________________________________
add_1 (Add)                     (None, 32, 32, 64)   0           conv2d_7[0][0]                   
                                                                 add[0][0]                        
__________________________________________________________________________________________________
batch_normalization_6 (BatchNor (None, 32, 32, 64)   256         add_1[0][0]                      
__________________________________________________________________________________________________
re_lu_6 (ReLU)                  (None, 32, 32, 64)   0           batch_normalization_6[0][0]      
__________________________________________________________________________________________________
conv2d_8 (Conv2D)               (None, 32, 32, 16)   1024        re_lu_6[0][0]                    
__________________________________________________________________________________________________
batch_normalization_7 (BatchNor (None, 32, 32, 16)   64          conv2d_8[0][0]                   
__________________________________________________________________________________________________
re_lu_7 (ReLU)                  (None, 32, 32, 16)   0           batch_normalization_7[0][0]      
__________________________________________________________________________________________________
conv2d_9 (Conv2D)               (None, 32, 32, 16)   2304        re_lu_7[0][0]                    
__________________________________________________________________________________________________
batch_normalization_8 (BatchNor (None, 32, 32, 16)   64          conv2d_9[0][0]                   
__________________________________________________________________________________________________
re_lu_8 (ReLU)                  (None, 32, 32, 16)   0           batch_normalization_8[0][0]      
__________________________________________________________________________________________________
conv2d_10 (Conv2D)              (None, 32, 32, 64)   1024        re_lu_8[0][0]                    
__________________________________________________________________________________________________
add_2 (Add)                     (None, 32, 32, 64)   0           conv2d_10[0][0]                  
                                                                 add_1[0][0]                      
__________________________________________________________________________________________________
batch_normalization_9 (BatchNor (None, 32, 32, 64)   256         add_2[0][0]                      
__________________________________________________________________________________________________
re_lu_9 (ReLU)                  (None, 32, 32, 64)   0           batch_normalization_9[0][0]      
__________________________________________________________________________________________________
conv2d_11 (Conv2D)              (None, 32, 32, 16)   1024        re_lu_9[0][0]                    
__________________________________________________________________________________________________
batch_normalization_10 (BatchNo (None, 32, 32, 16)   64          conv2d_11[0][0]                  
__________________________________________________________________________________________________
re_lu_10 (ReLU)                 (None, 32, 32, 16)   0           batch_normalization_10[0][0]     
__________________________________________________________________________________________________
conv2d_12 (Conv2D)              (None, 32, 32, 16)   2304        re_lu_10[0][0]                   
__________________________________________________________________________________________________
batch_normalization_11 (BatchNo (None, 32, 32, 16)   64          conv2d_12[0][0]                  
__________________________________________________________________________________________________
re_lu_11 (ReLU)                 (None, 32, 32, 16)   0           batch_normalization_11[0][0]     
__________________________________________________________________________________________________
conv2d_13 (Conv2D)              (None, 32, 32, 64)   1024        re_lu_11[0][0]                   
__________________________________________________________________________________________________
add_3 (Add)                     (None, 32, 32, 64)   0           conv2d_13[0][0]                  
                                                                 add_2[0][0]                      
__________________________________________________________________________________________________
batch_normalization_12 (BatchNo (None, 32, 32, 64)   256         add_3[0][0]                      
__________________________________________________________________________________________________
re_lu_12 (ReLU)                 (None, 32, 32, 64)   0           batch_normalization_12[0][0]     
__________________________________________________________________________________________________
conv2d_14 (Conv2D)              (None, 32, 32, 16)   1024        re_lu_12[0][0]                   
__________________________________________________________________________________________________
batch_normalization_13 (BatchNo (None, 32, 32, 16)   64          conv2d_14[0][0]                  
__________________________________________________________________________________________________
re_lu_13 (ReLU)                 (None, 32, 32, 16)   0           batch_normalization_13[0][0]     
__________________________________________________________________________________________________
conv2d_15 (Conv2D)              (None, 32, 32, 16)   2304        re_lu_13[0][0]                   
__________________________________________________________________________________________________
batch_normalization_14 (BatchNo (None, 32, 32, 16)   64          conv2d_15[0][0]                  
__________________________________________________________________________________________________
re_lu_14 (ReLU)                 (None, 32, 32, 16)   0           batch_normalization_14[0][0]     
__________________________________________________________________________________________________
conv2d_16 (Conv2D)              (None, 32, 32, 64)   1024        re_lu_14[0][0]                   
__________________________________________________________________________________________________
add_4 (Add)                     (None, 32, 32, 64)   0           conv2d_16[0][0]                  
                                                                 add_3[0][0]                      
__________________________________________________________________________________________________
batch_normalization_15 (BatchNo (None, 32, 32, 64)   256         add_4[0][0]                      
__________________________________________________________________________________________________
re_lu_15 (ReLU)                 (None, 32, 32, 64)   0           batch_normalization_15[0][0]     
__________________________________________________________________________________________________
conv2d_17 (Conv2D)              (None, 32, 32, 16)   1024        re_lu_15[0][0]                   
__________________________________________________________________________________________________
batch_normalization_16 (BatchNo (None, 32, 32, 16)   64          conv2d_17[0][0]                  
__________________________________________________________________________________________________
re_lu_16 (ReLU)                 (None, 32, 32, 16)   0           batch_normalization_16[0][0]     
__________________________________________________________________________________________________
conv2d_18 (Conv2D)              (None, 32, 32, 16)   2304        re_lu_16[0][0]                   
__________________________________________________________________________________________________
batch_normalization_17 (BatchNo (None, 32, 32, 16)   64          conv2d_18[0][0]                  
__________________________________________________________________________________________________
re_lu_17 (ReLU)                 (None, 32, 32, 16)   0           batch_normalization_17[0][0]     
__________________________________________________________________________________________________
conv2d_19 (Conv2D)              (None, 32, 32, 64)   1024        re_lu_17[0][0]                   
__________________________________________________________________________________________________
add_5 (Add)                     (None, 32, 32, 64)   0           conv2d_19[0][0]                  
                                                                 add_4[0][0]                      
__________________________________________________________________________________________________
batch_normalization_18 (BatchNo (None, 32, 32, 64)   256         add_5[0][0]                      
__________________________________________________________________________________________________
re_lu_18 (ReLU)                 (None, 32, 32, 64)   0           batch_normalization_18[0][0]     
__________________________________________________________________________________________________
conv2d_20 (Conv2D)              (None, 32, 32, 16)   1024        re_lu_18[0][0]                   
__________________________________________________________________________________________________
batch_normalization_19 (BatchNo (None, 32, 32, 16)   64          conv2d_20[0][0]                  
__________________________________________________________________________________________________
re_lu_19 (ReLU)                 (None, 32, 32, 16)   0           batch_normalization_19[0][0]     
__________________________________________________________________________________________________
conv2d_21 (Conv2D)              (None, 32, 32, 16)   2304        re_lu_19[0][0]                   
__________________________________________________________________________________________________
batch_normalization_20 (BatchNo (None, 32, 32, 16)   64          conv2d_21[0][0]                  
__________________________________________________________________________________________________
re_lu_20 (ReLU)                 (None, 32, 32, 16)   0           batch_normalization_20[0][0]     
__________________________________________________________________________________________________
conv2d_22 (Conv2D)              (None, 32, 32, 64)   1024        re_lu_20[0][0]                   
__________________________________________________________________________________________________
add_6 (Add)                     (None, 32, 32, 64)   0           conv2d_22[0][0]                  
                                                                 add_5[0][0]                      
__________________________________________________________________________________________________
batch_normalization_21 (BatchNo (None, 32, 32, 64)   256         add_6[0][0]                      
__________________________________________________________________________________________________
re_lu_21 (ReLU)                 (None, 32, 32, 64)   0           batch_normalization_21[0][0]     
__________________________________________________________________________________________________
conv2d_23 (Conv2D)              (None, 32, 32, 16)   1024        re_lu_21[0][0]                   
__________________________________________________________________________________________________
batch_normalization_22 (BatchNo (None, 32, 32, 16)   64          conv2d_23[0][0]                  
__________________________________________________________________________________________________
re_lu_22 (ReLU)                 (None, 32, 32, 16)   0           batch_normalization_22[0][0]     
__________________________________________________________________________________________________
conv2d_24 (Conv2D)              (None, 32, 32, 16)   2304        re_lu_22[0][0]                   
__________________________________________________________________________________________________
batch_normalization_23 (BatchNo (None, 32, 32, 16)   64          conv2d_24[0][0]                  
__________________________________________________________________________________________________
re_lu_23 (ReLU)                 (None, 32, 32, 16)   0           batch_normalization_23[0][0]     
__________________________________________________________________________________________________
conv2d_25 (Conv2D)              (None, 32, 32, 64)   1024        re_lu_23[0][0]                   
__________________________________________________________________________________________________
add_7 (Add)                     (None, 32, 32, 64)   0           conv2d_25[0][0]                  
                                                                 add_6[0][0]                      
__________________________________________________________________________________________________
batch_normalization_24 (BatchNo (None, 32, 32, 64)   256         add_7[0][0]                      
__________________________________________________________________________________________________
re_lu_24 (ReLU)                 (None, 32, 32, 64)   0           batch_normalization_24[0][0]     
__________________________________________________________________________________________________
conv2d_26 (Conv2D)              (None, 32, 32, 16)   1024        re_lu_24[0][0]                   
__________________________________________________________________________________________________
batch_normalization_25 (BatchNo (None, 32, 32, 16)   64          conv2d_26[0][0]                  
__________________________________________________________________________________________________
re_lu_25 (ReLU)                 (None, 32, 32, 16)   0           batch_normalization_25[0][0]     
__________________________________________________________________________________________________
conv2d_27 (Conv2D)              (None, 32, 32, 16)   2304        re_lu_25[0][0]                   
__________________________________________________________________________________________________
batch_normalization_26 (BatchNo (None, 32, 32, 16)   64          conv2d_27[0][0]                  
__________________________________________________________________________________________________
re_lu_26 (ReLU)                 (None, 32, 32, 16)   0           batch_normalization_26[0][0]     
__________________________________________________________________________________________________
conv2d_28 (Conv2D)              (None, 32, 32, 64)   1024        re_lu_26[0][0]                   
__________________________________________________________________________________________________
add_8 (Add)                     (None, 32, 32, 64)   0           conv2d_28[0][0]                  
                                                                 add_7[0][0]                      
__________________________________________________________________________________________________
batch_normalization_27 (BatchNo (None, 32, 32, 64)   256         add_8[0][0]                      
__________________________________________________________________________________________________
re_lu_27 (ReLU)                 (None, 32, 32, 64)   0           batch_normalization_27[0][0]     
__________________________________________________________________________________________________
conv2d_29 (Conv2D)              (None, 32, 32, 16)   1024        re_lu_27[0][0]                   
__________________________________________________________________________________________________
batch_normalization_28 (BatchNo (None, 32, 32, 16)   64          conv2d_29[0][0]                  
__________________________________________________________________________________________________
re_lu_28 (ReLU)                 (None, 32, 32, 16)   0           batch_normalization_28[0][0]     
__________________________________________________________________________________________________
conv2d_30 (Conv2D)              (None, 32, 32, 16)   2304        re_lu_28[0][0]                   
__________________________________________________________________________________________________
batch_normalization_29 (BatchNo (None, 32, 32, 16)   64          conv2d_30[0][0]                  
__________________________________________________________________________________________________
re_lu_29 (ReLU)                 (None, 32, 32, 16)   0           batch_normalization_29[0][0]     
__________________________________________________________________________________________________
conv2d_31 (Conv2D)              (None, 32, 32, 64)   1024        re_lu_29[0][0]                   
__________________________________________________________________________________________________
add_9 (Add)                     (None, 32, 32, 64)   0           conv2d_31[0][0]                  
                                                                 add_8[0][0]                      
__________________________________________________________________________________________________
batch_normalization_30 (BatchNo (None, 32, 32, 64)   256         add_9[0][0]                      
__________________________________________________________________________________________________
re_lu_30 (ReLU)                 (None, 32, 32, 64)   0           batch_normalization_30[0][0]     
__________________________________________________________________________________________________
conv2d_32 (Conv2D)              (None, 32, 32, 16)   1024        re_lu_30[0][0]                   
__________________________________________________________________________________________________
batch_normalization_31 (BatchNo (None, 32, 32, 16)   64          conv2d_32[0][0]                  
__________________________________________________________________________________________________
re_lu_31 (ReLU)                 (None, 32, 32, 16)   0           batch_normalization_31[0][0]     
__________________________________________________________________________________________________
conv2d_33 (Conv2D)              (None, 32, 32, 16)   2304        re_lu_31[0][0]                   
__________________________________________________________________________________________________
batch_normalization_32 (BatchNo (None, 32, 32, 16)   64          conv2d_33[0][0]                  
__________________________________________________________________________________________________
re_lu_32 (ReLU)                 (None, 32, 32, 16)   0           batch_normalization_32[0][0]     
__________________________________________________________________________________________________
conv2d_34 (Conv2D)              (None, 32, 32, 64)   1024        re_lu_32[0][0]                   
__________________________________________________________________________________________________
add_10 (Add)                    (None, 32, 32, 64)   0           conv2d_34[0][0]                  
                                                                 add_9[0][0]                      
__________________________________________________________________________________________________
batch_normalization_33 (BatchNo (None, 32, 32, 64)   256         add_10[0][0]                     
__________________________________________________________________________________________________
re_lu_33 (ReLU)                 (None, 32, 32, 64)   0           batch_normalization_33[0][0]     
__________________________________________________________________________________________________
conv2d_35 (Conv2D)              (None, 32, 32, 16)   1024        re_lu_33[0][0]                   
__________________________________________________________________________________________________
batch_normalization_34 (BatchNo (None, 32, 32, 16)   64          conv2d_35[0][0]                  
__________________________________________________________________________________________________
re_lu_34 (ReLU)                 (None, 32, 32, 16)   0           batch_normalization_34[0][0]     
__________________________________________________________________________________________________
conv2d_36 (Conv2D)              (None, 32, 32, 16)   2304        re_lu_34[0][0]                   
__________________________________________________________________________________________________
batch_normalization_35 (BatchNo (None, 32, 32, 16)   64          conv2d_36[0][0]                  
__________________________________________________________________________________________________
re_lu_35 (ReLU)                 (None, 32, 32, 16)   0           batch_normalization_35[0][0]     
__________________________________________________________________________________________________
conv2d_37 (Conv2D)              (None, 32, 32, 64)   1024        re_lu_35[0][0]                   
__________________________________________________________________________________________________
add_11 (Add)                    (None, 32, 32, 64)   0           conv2d_37[0][0]                  
                                                                 add_10[0][0]                     
__________________________________________________________________________________________________
batch_normalization_36 (BatchNo (None, 32, 32, 64)   256         add_11[0][0]                     
__________________________________________________________________________________________________
re_lu_36 (ReLU)                 (None, 32, 32, 64)   0           batch_normalization_36[0][0]     
__________________________________________________________________________________________________
conv2d_38 (Conv2D)              (None, 32, 32, 16)   1024        re_lu_36[0][0]                   
__________________________________________________________________________________________________
batch_normalization_37 (BatchNo (None, 32, 32, 16)   64          conv2d_38[0][0]                  
__________________________________________________________________________________________________
re_lu_37 (ReLU)                 (None, 32, 32, 16)   0           batch_normalization_37[0][0]     
__________________________________________________________________________________________________
conv2d_39 (Conv2D)              (None, 32, 32, 16)   2304        re_lu_37[0][0]                   
__________________________________________________________________________________________________
batch_normalization_38 (BatchNo (None, 32, 32, 16)   64          conv2d_39[0][0]                  
__________________________________________________________________________________________________
re_lu_38 (ReLU)                 (None, 32, 32, 16)   0           batch_normalization_38[0][0]     
__________________________________________________________________________________________________
conv2d_40 (Conv2D)              (None, 32, 32, 64)   1024        re_lu_38[0][0]                   
__________________________________________________________________________________________________
add_12 (Add)                    (None, 32, 32, 64)   0           conv2d_40[0][0]                  
                                                                 add_11[0][0]                     
__________________________________________________________________________________________________
batch_normalization_39 (BatchNo (None, 32, 32, 64)   256         add_12[0][0]                     
__________________________________________________________________________________________________
re_lu_39 (ReLU)                 (None, 32, 32, 64)   0           batch_normalization_39[0][0]     
__________________________________________________________________________________________________
conv2d_41 (Conv2D)              (None, 32, 32, 16)   1024        re_lu_39[0][0]                   
__________________________________________________________________________________________________
batch_normalization_40 (BatchNo (None, 32, 32, 16)   64          conv2d_41[0][0]                  
__________________________________________________________________________________________________
re_lu_40 (ReLU)                 (None, 32, 32, 16)   0           batch_normalization_40[0][0]     
__________________________________________________________________________________________________
conv2d_42 (Conv2D)              (None, 32, 32, 16)   2304        re_lu_40[0][0]                   
__________________________________________________________________________________________________
batch_normalization_41 (BatchNo (None, 32, 32, 16)   64          conv2d_42[0][0]                  
__________________________________________________________________________________________________
re_lu_41 (ReLU)                 (None, 32, 32, 16)   0           batch_normalization_41[0][0]     
__________________________________________________________________________________________________
conv2d_43 (Conv2D)              (None, 32, 32, 64)   1024        re_lu_41[0][0]                   
__________________________________________________________________________________________________
add_13 (Add)                    (None, 32, 32, 64)   0           conv2d_43[0][0]                  
                                                                 add_12[0][0]                     
__________________________________________________________________________________________________
batch_normalization_42 (BatchNo (None, 32, 32, 64)   256         add_13[0][0]                     
__________________________________________________________________________________________________
re_lu_42 (ReLU)                 (None, 32, 32, 64)   0           batch_normalization_42[0][0]     
__________________________________________________________________________________________________
conv2d_44 (Conv2D)              (None, 32, 32, 16)   1024        re_lu_42[0][0]                   
__________________________________________________________________________________________________
batch_normalization_43 (BatchNo (None, 32, 32, 16)   64          conv2d_44[0][0]                  
__________________________________________________________________________________________________
re_lu_43 (ReLU)                 (None, 32, 32, 16)   0           batch_normalization_43[0][0]     
__________________________________________________________________________________________________
conv2d_45 (Conv2D)              (None, 32, 32, 16)   2304        re_lu_43[0][0]                   
__________________________________________________________________________________________________
batch_normalization_44 (BatchNo (None, 32, 32, 16)   64          conv2d_45[0][0]                  
__________________________________________________________________________________________________
re_lu_44 (ReLU)                 (None, 32, 32, 16)   0           batch_normalization_44[0][0]     
__________________________________________________________________________________________________
conv2d_46 (Conv2D)              (None, 32, 32, 64)   1024        re_lu_44[0][0]                   
__________________________________________________________________________________________________
add_14 (Add)                    (None, 32, 32, 64)   0           conv2d_46[0][0]                  
                                                                 add_13[0][0]                     
__________________________________________________________________________________________________
batch_normalization_45 (BatchNo (None, 32, 32, 64)   256         add_14[0][0]                     
__________________________________________________________________________________________________
re_lu_45 (ReLU)                 (None, 32, 32, 64)   0           batch_normalization_45[0][0]     
__________________________________________________________________________________________________
conv2d_47 (Conv2D)              (None, 32, 32, 16)   1024        re_lu_45[0][0]                   
__________________________________________________________________________________________________
batch_normalization_46 (BatchNo (None, 32, 32, 16)   64          conv2d_47[0][0]                  
__________________________________________________________________________________________________
re_lu_46 (ReLU)                 (None, 32, 32, 16)   0           batch_normalization_46[0][0]     
__________________________________________________________________________________________________
conv2d_48 (Conv2D)              (None, 32, 32, 16)   2304        re_lu_46[0][0]                   
__________________________________________________________________________________________________
batch_normalization_47 (BatchNo (None, 32, 32, 16)   64          conv2d_48[0][0]                  
__________________________________________________________________________________________________
re_lu_47 (ReLU)                 (None, 32, 32, 16)   0           batch_normalization_47[0][0]     
__________________________________________________________________________________________________
conv2d_49 (Conv2D)              (None, 32, 32, 64)   1024        re_lu_47[0][0]                   
__________________________________________________________________________________________________
add_15 (Add)                    (None, 32, 32, 64)   0           conv2d_49[0][0]                  
                                                                 add_14[0][0]                     
__________________________________________________________________________________________________
batch_normalization_48 (BatchNo (None, 32, 32, 64)   256         add_15[0][0]                     
__________________________________________________________________________________________________
re_lu_48 (ReLU)                 (None, 32, 32, 64)   0           batch_normalization_48[0][0]     
__________________________________________________________________________________________________
conv2d_50 (Conv2D)              (None, 32, 32, 16)   1024        re_lu_48[0][0]                   
__________________________________________________________________________________________________
batch_normalization_49 (BatchNo (None, 32, 32, 16)   64          conv2d_50[0][0]                  
__________________________________________________________________________________________________
re_lu_49 (ReLU)                 (None, 32, 32, 16)   0           batch_normalization_49[0][0]     
__________________________________________________________________________________________________
conv2d_51 (Conv2D)              (None, 32, 32, 16)   2304        re_lu_49[0][0]                   
__________________________________________________________________________________________________
batch_normalization_50 (BatchNo (None, 32, 32, 16)   64          conv2d_51[0][0]                  
__________________________________________________________________________________________________
re_lu_50 (ReLU)                 (None, 32, 32, 16)   0           batch_normalization_50[0][0]     
__________________________________________________________________________________________________
conv2d_52 (Conv2D)              (None, 32, 32, 64)   1024        re_lu_50[0][0]                   
__________________________________________________________________________________________________
add_16 (Add)                    (None, 32, 32, 64)   0           conv2d_52[0][0]                  
                                                                 add_15[0][0]                     
__________________________________________________________________________________________________
batch_normalization_51 (BatchNo (None, 32, 32, 64)   256         add_16[0][0]                     
__________________________________________________________________________________________________
re_lu_51 (ReLU)                 (None, 32, 32, 64)   0           batch_normalization_51[0][0]     
__________________________________________________________________________________________________
conv2d_53 (Conv2D)              (None, 32, 32, 16)   1024        re_lu_51[0][0]                   
__________________________________________________________________________________________________
batch_normalization_52 (BatchNo (None, 32, 32, 16)   64          conv2d_53[0][0]                  
__________________________________________________________________________________________________
re_lu_52 (ReLU)                 (None, 32, 32, 16)   0           batch_normalization_52[0][0]     
__________________________________________________________________________________________________
conv2d_54 (Conv2D)              (None, 32, 32, 16)   2304        re_lu_52[0][0]                   
__________________________________________________________________________________________________
batch_normalization_53 (BatchNo (None, 32, 32, 16)   64          conv2d_54[0][0]                  
__________________________________________________________________________________________________
re_lu_53 (ReLU)                 (None, 32, 32, 16)   0           batch_normalization_53[0][0]     
__________________________________________________________________________________________________
conv2d_55 (Conv2D)              (None, 32, 32, 64)   1024        re_lu_53[0][0]                   
__________________________________________________________________________________________________
add_17 (Add)                    (None, 32, 32, 64)   0           conv2d_55[0][0]                  
                                                                 add_16[0][0]                     
__________________________________________________________________________________________________
batch_normalization_54 (BatchNo (None, 32, 32, 64)   256         add_17[0][0]                     
__________________________________________________________________________________________________
re_lu_54 (ReLU)                 (None, 32, 32, 64)   0           batch_normalization_54[0][0]     
__________________________________________________________________________________________________
conv2d_56 (Conv2D)              (None, 32, 32, 32)   2048        re_lu_54[0][0]                   
__________________________________________________________________________________________________
batch_normalization_55 (BatchNo (None, 32, 32, 32)   128         conv2d_56[0][0]                  
__________________________________________________________________________________________________
re_lu_55 (ReLU)                 (None, 32, 32, 32)   0           batch_normalization_55[0][0]     
__________________________________________________________________________________________________
conv2d_57 (Conv2D)              (None, 16, 16, 32)   9216        re_lu_55[0][0]                   
__________________________________________________________________________________________________
batch_normalization_56 (BatchNo (None, 16, 16, 32)   128         conv2d_57[0][0]                  
__________________________________________________________________________________________________
re_lu_56 (ReLU)                 (None, 16, 16, 32)   0           batch_normalization_56[0][0]     
__________________________________________________________________________________________________
conv2d_58 (Conv2D)              (None, 16, 16, 128)  4096        re_lu_56[0][0]                   
__________________________________________________________________________________________________
conv2d_59 (Conv2D)              (None, 16, 16, 128)  8192        re_lu_54[0][0]                   
__________________________________________________________________________________________________
add_18 (Add)                    (None, 16, 16, 128)  0           conv2d_58[0][0]                  
                                                                 conv2d_59[0][0]                  
__________________________________________________________________________________________________
batch_normalization_57 (BatchNo (None, 16, 16, 128)  512         add_18[0][0]                     
__________________________________________________________________________________________________
re_lu_57 (ReLU)                 (None, 16, 16, 128)  0           batch_normalization_57[0][0]     
__________________________________________________________________________________________________
conv2d_60 (Conv2D)              (None, 16, 16, 32)   4096        re_lu_57[0][0]                   
__________________________________________________________________________________________________
batch_normalization_58 (BatchNo (None, 16, 16, 32)   128         conv2d_60[0][0]                  
__________________________________________________________________________________________________
re_lu_58 (ReLU)                 (None, 16, 16, 32)   0           batch_normalization_58[0][0]     
__________________________________________________________________________________________________
conv2d_61 (Conv2D)              (None, 16, 16, 32)   9216        re_lu_58[0][0]                   
__________________________________________________________________________________________________
batch_normalization_59 (BatchNo (None, 16, 16, 32)   128         conv2d_61[0][0]                  
__________________________________________________________________________________________________
re_lu_59 (ReLU)                 (None, 16, 16, 32)   0           batch_normalization_59[0][0]     
__________________________________________________________________________________________________
conv2d_62 (Conv2D)              (None, 16, 16, 128)  4096        re_lu_59[0][0]                   
__________________________________________________________________________________________________
add_19 (Add)                    (None, 16, 16, 128)  0           conv2d_62[0][0]                  
                                                                 add_18[0][0]                     
__________________________________________________________________________________________________
batch_normalization_60 (BatchNo (None, 16, 16, 128)  512         add_19[0][0]                     
__________________________________________________________________________________________________
re_lu_60 (ReLU)                 (None, 16, 16, 128)  0           batch_normalization_60[0][0]     
__________________________________________________________________________________________________
conv2d_63 (Conv2D)              (None, 16, 16, 32)   4096        re_lu_60[0][0]                   
__________________________________________________________________________________________________
batch_normalization_61 (BatchNo (None, 16, 16, 32)   128         conv2d_63[0][0]                  
__________________________________________________________________________________________________
re_lu_61 (ReLU)                 (None, 16, 16, 32)   0           batch_normalization_61[0][0]     
__________________________________________________________________________________________________
conv2d_64 (Conv2D)              (None, 16, 16, 32)   9216        re_lu_61[0][0]                   
__________________________________________________________________________________________________
batch_normalization_62 (BatchNo (None, 16, 16, 32)   128         conv2d_64[0][0]                  
__________________________________________________________________________________________________
re_lu_62 (ReLU)                 (None, 16, 16, 32)   0           batch_normalization_62[0][0]     
__________________________________________________________________________________________________
conv2d_65 (Conv2D)              (None, 16, 16, 128)  4096        re_lu_62[0][0]                   
__________________________________________________________________________________________________
add_20 (Add)                    (None, 16, 16, 128)  0           conv2d_65[0][0]                  
                                                                 add_19[0][0]                     
__________________________________________________________________________________________________
batch_normalization_63 (BatchNo (None, 16, 16, 128)  512         add_20[0][0]                     
__________________________________________________________________________________________________
re_lu_63 (ReLU)                 (None, 16, 16, 128)  0           batch_normalization_63[0][0]     
__________________________________________________________________________________________________
conv2d_66 (Conv2D)              (None, 16, 16, 32)   4096        re_lu_63[0][0]                   
__________________________________________________________________________________________________
batch_normalization_64 (BatchNo (None, 16, 16, 32)   128         conv2d_66[0][0]                  
__________________________________________________________________________________________________
re_lu_64 (ReLU)                 (None, 16, 16, 32)   0           batch_normalization_64[0][0]     
__________________________________________________________________________________________________
conv2d_67 (Conv2D)              (None, 16, 16, 32)   9216        re_lu_64[0][0]                   
__________________________________________________________________________________________________
batch_normalization_65 (BatchNo (None, 16, 16, 32)   128         conv2d_67[0][0]                  
__________________________________________________________________________________________________
re_lu_65 (ReLU)                 (None, 16, 16, 32)   0           batch_normalization_65[0][0]     
__________________________________________________________________________________________________
conv2d_68 (Conv2D)              (None, 16, 16, 128)  4096        re_lu_65[0][0]                   
__________________________________________________________________________________________________
add_21 (Add)                    (None, 16, 16, 128)  0           conv2d_68[0][0]                  
                                                                 add_20[0][0]                     
__________________________________________________________________________________________________
batch_normalization_66 (BatchNo (None, 16, 16, 128)  512         add_21[0][0]                     
__________________________________________________________________________________________________
re_lu_66 (ReLU)                 (None, 16, 16, 128)  0           batch_normalization_66[0][0]     
__________________________________________________________________________________________________
conv2d_69 (Conv2D)              (None, 16, 16, 32)   4096        re_lu_66[0][0]                   
__________________________________________________________________________________________________
batch_normalization_67 (BatchNo (None, 16, 16, 32)   128         conv2d_69[0][0]                  
__________________________________________________________________________________________________
re_lu_67 (ReLU)                 (None, 16, 16, 32)   0           batch_normalization_67[0][0]     
__________________________________________________________________________________________________
conv2d_70 (Conv2D)              (None, 16, 16, 32)   9216        re_lu_67[0][0]                   
__________________________________________________________________________________________________
batch_normalization_68 (BatchNo (None, 16, 16, 32)   128         conv2d_70[0][0]                  
__________________________________________________________________________________________________
re_lu_68 (ReLU)                 (None, 16, 16, 32)   0           batch_normalization_68[0][0]     
__________________________________________________________________________________________________
conv2d_71 (Conv2D)              (None, 16, 16, 128)  4096        re_lu_68[0][0]                   
__________________________________________________________________________________________________
add_22 (Add)                    (None, 16, 16, 128)  0           conv2d_71[0][0]                  
                                                                 add_21[0][0]                     
__________________________________________________________________________________________________
batch_normalization_69 (BatchNo (None, 16, 16, 128)  512         add_22[0][0]                     
__________________________________________________________________________________________________
re_lu_69 (ReLU)                 (None, 16, 16, 128)  0           batch_normalization_69[0][0]     
__________________________________________________________________________________________________
conv2d_72 (Conv2D)              (None, 16, 16, 32)   4096        re_lu_69[0][0]                   
__________________________________________________________________________________________________
batch_normalization_70 (BatchNo (None, 16, 16, 32)   128         conv2d_72[0][0]                  
__________________________________________________________________________________________________
re_lu_70 (ReLU)                 (None, 16, 16, 32)   0           batch_normalization_70[0][0]     
__________________________________________________________________________________________________
conv2d_73 (Conv2D)              (None, 16, 16, 32)   9216        re_lu_70[0][0]                   
__________________________________________________________________________________________________
batch_normalization_71 (BatchNo (None, 16, 16, 32)   128         conv2d_73[0][0]                  
__________________________________________________________________________________________________
re_lu_71 (ReLU)                 (None, 16, 16, 32)   0           batch_normalization_71[0][0]     
__________________________________________________________________________________________________
conv2d_74 (Conv2D)              (None, 16, 16, 128)  4096        re_lu_71[0][0]                   
__________________________________________________________________________________________________
add_23 (Add)                    (None, 16, 16, 128)  0           conv2d_74[0][0]                  
                                                                 add_22[0][0]                     
__________________________________________________________________________________________________
batch_normalization_72 (BatchNo (None, 16, 16, 128)  512         add_23[0][0]                     
__________________________________________________________________________________________________
re_lu_72 (ReLU)                 (None, 16, 16, 128)  0           batch_normalization_72[0][0]     
__________________________________________________________________________________________________
conv2d_75 (Conv2D)              (None, 16, 16, 32)   4096        re_lu_72[0][0]                   
__________________________________________________________________________________________________
batch_normalization_73 (BatchNo (None, 16, 16, 32)   128         conv2d_75[0][0]                  
__________________________________________________________________________________________________
re_lu_73 (ReLU)                 (None, 16, 16, 32)   0           batch_normalization_73[0][0]     
__________________________________________________________________________________________________
conv2d_76 (Conv2D)              (None, 16, 16, 32)   9216        re_lu_73[0][0]                   
__________________________________________________________________________________________________
batch_normalization_74 (BatchNo (None, 16, 16, 32)   128         conv2d_76[0][0]                  
__________________________________________________________________________________________________
re_lu_74 (ReLU)                 (None, 16, 16, 32)   0           batch_normalization_74[0][0]     
__________________________________________________________________________________________________
conv2d_77 (Conv2D)              (None, 16, 16, 128)  4096        re_lu_74[0][0]                   
__________________________________________________________________________________________________
add_24 (Add)                    (None, 16, 16, 128)  0           conv2d_77[0][0]                  
                                                                 add_23[0][0]                     
__________________________________________________________________________________________________
batch_normalization_75 (BatchNo (None, 16, 16, 128)  512         add_24[0][0]                     
__________________________________________________________________________________________________
re_lu_75 (ReLU)                 (None, 16, 16, 128)  0           batch_normalization_75[0][0]     
__________________________________________________________________________________________________
conv2d_78 (Conv2D)              (None, 16, 16, 32)   4096        re_lu_75[0][0]                   
__________________________________________________________________________________________________
batch_normalization_76 (BatchNo (None, 16, 16, 32)   128         conv2d_78[0][0]                  
__________________________________________________________________________________________________
re_lu_76 (ReLU)                 (None, 16, 16, 32)   0           batch_normalization_76[0][0]     
__________________________________________________________________________________________________
conv2d_79 (Conv2D)              (None, 16, 16, 32)   9216        re_lu_76[0][0]                   
__________________________________________________________________________________________________
batch_normalization_77 (BatchNo (None, 16, 16, 32)   128         conv2d_79[0][0]                  
__________________________________________________________________________________________________
re_lu_77 (ReLU)                 (None, 16, 16, 32)   0           batch_normalization_77[0][0]     
__________________________________________________________________________________________________
conv2d_80 (Conv2D)              (None, 16, 16, 128)  4096        re_lu_77[0][0]                   
__________________________________________________________________________________________________
add_25 (Add)                    (None, 16, 16, 128)  0           conv2d_80[0][0]                  
                                                                 add_24[0][0]                     
__________________________________________________________________________________________________
batch_normalization_78 (BatchNo (None, 16, 16, 128)  512         add_25[0][0]                     
__________________________________________________________________________________________________
re_lu_78 (ReLU)                 (None, 16, 16, 128)  0           batch_normalization_78[0][0]     
__________________________________________________________________________________________________
conv2d_81 (Conv2D)              (None, 16, 16, 32)   4096        re_lu_78[0][0]                   
__________________________________________________________________________________________________
batch_normalization_79 (BatchNo (None, 16, 16, 32)   128         conv2d_81[0][0]                  
__________________________________________________________________________________________________
re_lu_79 (ReLU)                 (None, 16, 16, 32)   0           batch_normalization_79[0][0]     
__________________________________________________________________________________________________
conv2d_82 (Conv2D)              (None, 16, 16, 32)   9216        re_lu_79[0][0]                   
__________________________________________________________________________________________________
batch_normalization_80 (BatchNo (None, 16, 16, 32)   128         conv2d_82[0][0]                  
__________________________________________________________________________________________________
re_lu_80 (ReLU)                 (None, 16, 16, 32)   0           batch_normalization_80[0][0]     
__________________________________________________________________________________________________
conv2d_83 (Conv2D)              (None, 16, 16, 128)  4096        re_lu_80[0][0]                   
__________________________________________________________________________________________________
add_26 (Add)                    (None, 16, 16, 128)  0           conv2d_83[0][0]                  
                                                                 add_25[0][0]                     
__________________________________________________________________________________________________
batch_normalization_81 (BatchNo (None, 16, 16, 128)  512         add_26[0][0]                     
__________________________________________________________________________________________________
re_lu_81 (ReLU)                 (None, 16, 16, 128)  0           batch_normalization_81[0][0]     
__________________________________________________________________________________________________
conv2d_84 (Conv2D)              (None, 16, 16, 32)   4096        re_lu_81[0][0]                   
__________________________________________________________________________________________________
batch_normalization_82 (BatchNo (None, 16, 16, 32)   128         conv2d_84[0][0]                  
__________________________________________________________________________________________________
re_lu_82 (ReLU)                 (None, 16, 16, 32)   0           batch_normalization_82[0][0]     
__________________________________________________________________________________________________
conv2d_85 (Conv2D)              (None, 16, 16, 32)   9216        re_lu_82[0][0]                   
__________________________________________________________________________________________________
batch_normalization_83 (BatchNo (None, 16, 16, 32)   128         conv2d_85[0][0]                  
__________________________________________________________________________________________________
re_lu_83 (ReLU)                 (None, 16, 16, 32)   0           batch_normalization_83[0][0]     
__________________________________________________________________________________________________
conv2d_86 (Conv2D)              (None, 16, 16, 128)  4096        re_lu_83[0][0]                   
__________________________________________________________________________________________________
add_27 (Add)                    (None, 16, 16, 128)  0           conv2d_86[0][0]                  
                                                                 add_26[0][0]                     
__________________________________________________________________________________________________
batch_normalization_84 (BatchNo (None, 16, 16, 128)  512         add_27[0][0]                     
__________________________________________________________________________________________________
re_lu_84 (ReLU)                 (None, 16, 16, 128)  0           batch_normalization_84[0][0]     
__________________________________________________________________________________________________
conv2d_87 (Conv2D)              (None, 16, 16, 32)   4096        re_lu_84[0][0]                   
__________________________________________________________________________________________________
batch_normalization_85 (BatchNo (None, 16, 16, 32)   128         conv2d_87[0][0]                  
__________________________________________________________________________________________________
re_lu_85 (ReLU)                 (None, 16, 16, 32)   0           batch_normalization_85[0][0]     
__________________________________________________________________________________________________
conv2d_88 (Conv2D)              (None, 16, 16, 32)   9216        re_lu_85[0][0]                   
__________________________________________________________________________________________________
batch_normalization_86 (BatchNo (None, 16, 16, 32)   128         conv2d_88[0][0]                  
__________________________________________________________________________________________________
re_lu_86 (ReLU)                 (None, 16, 16, 32)   0           batch_normalization_86[0][0]     
__________________________________________________________________________________________________
conv2d_89 (Conv2D)              (None, 16, 16, 128)  4096        re_lu_86[0][0]                   
__________________________________________________________________________________________________
add_28 (Add)                    (None, 16, 16, 128)  0           conv2d_89[0][0]                  
                                                                 add_27[0][0]                     
__________________________________________________________________________________________________
batch_normalization_87 (BatchNo (None, 16, 16, 128)  512         add_28[0][0]                     
__________________________________________________________________________________________________
re_lu_87 (ReLU)                 (None, 16, 16, 128)  0           batch_normalization_87[0][0]     
__________________________________________________________________________________________________
conv2d_90 (Conv2D)              (None, 16, 16, 32)   4096        re_lu_87[0][0]                   
__________________________________________________________________________________________________
batch_normalization_88 (BatchNo (None, 16, 16, 32)   128         conv2d_90[0][0]                  
__________________________________________________________________________________________________
re_lu_88 (ReLU)                 (None, 16, 16, 32)   0           batch_normalization_88[0][0]     
__________________________________________________________________________________________________
conv2d_91 (Conv2D)              (None, 16, 16, 32)   9216        re_lu_88[0][0]                   
__________________________________________________________________________________________________
batch_normalization_89 (BatchNo (None, 16, 16, 32)   128         conv2d_91[0][0]                  
__________________________________________________________________________________________________
re_lu_89 (ReLU)                 (None, 16, 16, 32)   0           batch_normalization_89[0][0]     
__________________________________________________________________________________________________
conv2d_92 (Conv2D)              (None, 16, 16, 128)  4096        re_lu_89[0][0]                   
__________________________________________________________________________________________________
add_29 (Add)                    (None, 16, 16, 128)  0           conv2d_92[0][0]                  
                                                                 add_28[0][0]                     
__________________________________________________________________________________________________
batch_normalization_90 (BatchNo (None, 16, 16, 128)  512         add_29[0][0]                     
__________________________________________________________________________________________________
re_lu_90 (ReLU)                 (None, 16, 16, 128)  0           batch_normalization_90[0][0]     
__________________________________________________________________________________________________
conv2d_93 (Conv2D)              (None, 16, 16, 32)   4096        re_lu_90[0][0]                   
__________________________________________________________________________________________________
batch_normalization_91 (BatchNo (None, 16, 16, 32)   128         conv2d_93[0][0]                  
__________________________________________________________________________________________________
re_lu_91 (ReLU)                 (None, 16, 16, 32)   0           batch_normalization_91[0][0]     
__________________________________________________________________________________________________
conv2d_94 (Conv2D)              (None, 16, 16, 32)   9216        re_lu_91[0][0]                   
__________________________________________________________________________________________________
batch_normalization_92 (BatchNo (None, 16, 16, 32)   128         conv2d_94[0][0]                  
__________________________________________________________________________________________________
re_lu_92 (ReLU)                 (None, 16, 16, 32)   0           batch_normalization_92[0][0]     
__________________________________________________________________________________________________
conv2d_95 (Conv2D)              (None, 16, 16, 128)  4096        re_lu_92[0][0]                   
__________________________________________________________________________________________________
add_30 (Add)                    (None, 16, 16, 128)  0           conv2d_95[0][0]                  
                                                                 add_29[0][0]                     
__________________________________________________________________________________________________
batch_normalization_93 (BatchNo (None, 16, 16, 128)  512         add_30[0][0]                     
__________________________________________________________________________________________________
re_lu_93 (ReLU)                 (None, 16, 16, 128)  0           batch_normalization_93[0][0]     
__________________________________________________________________________________________________
conv2d_96 (Conv2D)              (None, 16, 16, 32)   4096        re_lu_93[0][0]                   
__________________________________________________________________________________________________
batch_normalization_94 (BatchNo (None, 16, 16, 32)   128         conv2d_96[0][0]                  
__________________________________________________________________________________________________
re_lu_94 (ReLU)                 (None, 16, 16, 32)   0           batch_normalization_94[0][0]     
__________________________________________________________________________________________________
conv2d_97 (Conv2D)              (None, 16, 16, 32)   9216        re_lu_94[0][0]                   
__________________________________________________________________________________________________
batch_normalization_95 (BatchNo (None, 16, 16, 32)   128         conv2d_97[0][0]                  
__________________________________________________________________________________________________
re_lu_95 (ReLU)                 (None, 16, 16, 32)   0           batch_normalization_95[0][0]     
__________________________________________________________________________________________________
conv2d_98 (Conv2D)              (None, 16, 16, 128)  4096        re_lu_95[0][0]                   
__________________________________________________________________________________________________
add_31 (Add)                    (None, 16, 16, 128)  0           conv2d_98[0][0]                  
                                                                 add_30[0][0]                     
__________________________________________________________________________________________________
batch_normalization_96 (BatchNo (None, 16, 16, 128)  512         add_31[0][0]                     
__________________________________________________________________________________________________
re_lu_96 (ReLU)                 (None, 16, 16, 128)  0           batch_normalization_96[0][0]     
__________________________________________________________________________________________________
conv2d_99 (Conv2D)              (None, 16, 16, 32)   4096        re_lu_96[0][0]                   
__________________________________________________________________________________________________
batch_normalization_97 (BatchNo (None, 16, 16, 32)   128         conv2d_99[0][0]                  
__________________________________________________________________________________________________
re_lu_97 (ReLU)                 (None, 16, 16, 32)   0           batch_normalization_97[0][0]     
__________________________________________________________________________________________________
conv2d_100 (Conv2D)             (None, 16, 16, 32)   9216        re_lu_97[0][0]                   
__________________________________________________________________________________________________
batch_normalization_98 (BatchNo (None, 16, 16, 32)   128         conv2d_100[0][0]                 
__________________________________________________________________________________________________
re_lu_98 (ReLU)                 (None, 16, 16, 32)   0           batch_normalization_98[0][0]     
__________________________________________________________________________________________________
conv2d_101 (Conv2D)             (None, 16, 16, 128)  4096        re_lu_98[0][0]                   
__________________________________________________________________________________________________
add_32 (Add)                    (None, 16, 16, 128)  0           conv2d_101[0][0]                 
                                                                 add_31[0][0]                     
__________________________________________________________________________________________________
batch_normalization_99 (BatchNo (None, 16, 16, 128)  512         add_32[0][0]                     
__________________________________________________________________________________________________
re_lu_99 (ReLU)                 (None, 16, 16, 128)  0           batch_normalization_99[0][0]     
__________________________________________________________________________________________________
conv2d_102 (Conv2D)             (None, 16, 16, 32)   4096        re_lu_99[0][0]                   
__________________________________________________________________________________________________
batch_normalization_100 (BatchN (None, 16, 16, 32)   128         conv2d_102[0][0]                 
__________________________________________________________________________________________________
re_lu_100 (ReLU)                (None, 16, 16, 32)   0           batch_normalization_100[0][0]    
__________________________________________________________________________________________________
conv2d_103 (Conv2D)             (None, 16, 16, 32)   9216        re_lu_100[0][0]                  
__________________________________________________________________________________________________
batch_normalization_101 (BatchN (None, 16, 16, 32)   128         conv2d_103[0][0]                 
__________________________________________________________________________________________________
re_lu_101 (ReLU)                (None, 16, 16, 32)   0           batch_normalization_101[0][0]    
__________________________________________________________________________________________________
conv2d_104 (Conv2D)             (None, 16, 16, 128)  4096        re_lu_101[0][0]                  
__________________________________________________________________________________________________
add_33 (Add)                    (None, 16, 16, 128)  0           conv2d_104[0][0]                 
                                                                 add_32[0][0]                     
__________________________________________________________________________________________________
batch_normalization_102 (BatchN (None, 16, 16, 128)  512         add_33[0][0]                     
__________________________________________________________________________________________________
re_lu_102 (ReLU)                (None, 16, 16, 128)  0           batch_normalization_102[0][0]    
__________________________________________________________________________________________________
conv2d_105 (Conv2D)             (None, 16, 16, 32)   4096        re_lu_102[0][0]                  
__________________________________________________________________________________________________
batch_normalization_103 (BatchN (None, 16, 16, 32)   128         conv2d_105[0][0]                 
__________________________________________________________________________________________________
re_lu_103 (ReLU)                (None, 16, 16, 32)   0           batch_normalization_103[0][0]    
__________________________________________________________________________________________________
conv2d_106 (Conv2D)             (None, 16, 16, 32)   9216        re_lu_103[0][0]                  
__________________________________________________________________________________________________
batch_normalization_104 (BatchN (None, 16, 16, 32)   128         conv2d_106[0][0]                 
__________________________________________________________________________________________________
re_lu_104 (ReLU)                (None, 16, 16, 32)   0           batch_normalization_104[0][0]    
__________________________________________________________________________________________________
conv2d_107 (Conv2D)             (None, 16, 16, 128)  4096        re_lu_104[0][0]                  
__________________________________________________________________________________________________
add_34 (Add)                    (None, 16, 16, 128)  0           conv2d_107[0][0]                 
                                                                 add_33[0][0]                     
__________________________________________________________________________________________________
batch_normalization_105 (BatchN (None, 16, 16, 128)  512         add_34[0][0]                     
__________________________________________________________________________________________________
re_lu_105 (ReLU)                (None, 16, 16, 128)  0           batch_normalization_105[0][0]    
__________________________________________________________________________________________________
conv2d_108 (Conv2D)             (None, 16, 16, 32)   4096        re_lu_105[0][0]                  
__________________________________________________________________________________________________
batch_normalization_106 (BatchN (None, 16, 16, 32)   128         conv2d_108[0][0]                 
__________________________________________________________________________________________________
re_lu_106 (ReLU)                (None, 16, 16, 32)   0           batch_normalization_106[0][0]    
__________________________________________________________________________________________________
conv2d_109 (Conv2D)             (None, 16, 16, 32)   9216        re_lu_106[0][0]                  
__________________________________________________________________________________________________
batch_normalization_107 (BatchN (None, 16, 16, 32)   128         conv2d_109[0][0]                 
__________________________________________________________________________________________________
re_lu_107 (ReLU)                (None, 16, 16, 32)   0           batch_normalization_107[0][0]    
__________________________________________________________________________________________________
conv2d_110 (Conv2D)             (None, 16, 16, 128)  4096        re_lu_107[0][0]                  
__________________________________________________________________________________________________
add_35 (Add)                    (None, 16, 16, 128)  0           conv2d_110[0][0]                 
                                                                 add_34[0][0]                     
__________________________________________________________________________________________________
batch_normalization_108 (BatchN (None, 16, 16, 128)  512         add_35[0][0]                     
__________________________________________________________________________________________________
re_lu_108 (ReLU)                (None, 16, 16, 128)  0           batch_normalization_108[0][0]    
__________________________________________________________________________________________________
conv2d_111 (Conv2D)             (None, 16, 16, 64)   8192        re_lu_108[0][0]                  
__________________________________________________________________________________________________
batch_normalization_109 (BatchN (None, 16, 16, 64)   256         conv2d_111[0][0]                 
__________________________________________________________________________________________________
re_lu_109 (ReLU)                (None, 16, 16, 64)   0           batch_normalization_109[0][0]    
__________________________________________________________________________________________________
conv2d_112 (Conv2D)             (None, 8, 8, 64)     36864       re_lu_109[0][0]                  
__________________________________________________________________________________________________
batch_normalization_110 (BatchN (None, 8, 8, 64)     256         conv2d_112[0][0]                 
__________________________________________________________________________________________________
re_lu_110 (ReLU)                (None, 8, 8, 64)     0           batch_normalization_110[0][0]    
__________________________________________________________________________________________________
conv2d_113 (Conv2D)             (None, 8, 8, 256)    16384       re_lu_110[0][0]                  
__________________________________________________________________________________________________
conv2d_114 (Conv2D)             (None, 8, 8, 256)    32768       re_lu_108[0][0]                  
__________________________________________________________________________________________________
add_36 (Add)                    (None, 8, 8, 256)    0           conv2d_113[0][0]                 
                                                                 conv2d_114[0][0]                 
__________________________________________________________________________________________________
batch_normalization_111 (BatchN (None, 8, 8, 256)    1024        add_36[0][0]                     
__________________________________________________________________________________________________
re_lu_111 (ReLU)                (None, 8, 8, 256)    0           batch_normalization_111[0][0]    
__________________________________________________________________________________________________
conv2d_115 (Conv2D)             (None, 8, 8, 64)     16384       re_lu_111[0][0]                  
__________________________________________________________________________________________________
batch_normalization_112 (BatchN (None, 8, 8, 64)     256         conv2d_115[0][0]                 
__________________________________________________________________________________________________
re_lu_112 (ReLU)                (None, 8, 8, 64)     0           batch_normalization_112[0][0]    
__________________________________________________________________________________________________
conv2d_116 (Conv2D)             (None, 8, 8, 64)     36864       re_lu_112[0][0]                  
__________________________________________________________________________________________________
batch_normalization_113 (BatchN (None, 8, 8, 64)     256         conv2d_116[0][0]                 
__________________________________________________________________________________________________
re_lu_113 (ReLU)                (None, 8, 8, 64)     0           batch_normalization_113[0][0]    
__________________________________________________________________________________________________
conv2d_117 (Conv2D)             (None, 8, 8, 256)    16384       re_lu_113[0][0]                  
__________________________________________________________________________________________________
add_37 (Add)                    (None, 8, 8, 256)    0           conv2d_117[0][0]                 
                                                                 add_36[0][0]                     
__________________________________________________________________________________________________
batch_normalization_114 (BatchN (None, 8, 8, 256)    1024        add_37[0][0]                     
__________________________________________________________________________________________________
re_lu_114 (ReLU)                (None, 8, 8, 256)    0           batch_normalization_114[0][0]    
__________________________________________________________________________________________________
conv2d_118 (Conv2D)             (None, 8, 8, 64)     16384       re_lu_114[0][0]                  
__________________________________________________________________________________________________
batch_normalization_115 (BatchN (None, 8, 8, 64)     256         conv2d_118[0][0]                 
__________________________________________________________________________________________________
re_lu_115 (ReLU)                (None, 8, 8, 64)     0           batch_normalization_115[0][0]    
__________________________________________________________________________________________________
conv2d_119 (Conv2D)             (None, 8, 8, 64)     36864       re_lu_115[0][0]                  
__________________________________________________________________________________________________
batch_normalization_116 (BatchN (None, 8, 8, 64)     256         conv2d_119[0][0]                 
__________________________________________________________________________________________________
re_lu_116 (ReLU)                (None, 8, 8, 64)     0           batch_normalization_116[0][0]    
__________________________________________________________________________________________________
conv2d_120 (Conv2D)             (None, 8, 8, 256)    16384       re_lu_116[0][0]                  
__________________________________________________________________________________________________
add_38 (Add)                    (None, 8, 8, 256)    0           conv2d_120[0][0]                 
                                                                 add_37[0][0]                     
__________________________________________________________________________________________________
batch_normalization_117 (BatchN (None, 8, 8, 256)    1024        add_38[0][0]                     
__________________________________________________________________________________________________
re_lu_117 (ReLU)                (None, 8, 8, 256)    0           batch_normalization_117[0][0]    
__________________________________________________________________________________________________
conv2d_121 (Conv2D)             (None, 8, 8, 64)     16384       re_lu_117[0][0]                  
__________________________________________________________________________________________________
batch_normalization_118 (BatchN (None, 8, 8, 64)     256         conv2d_121[0][0]                 
__________________________________________________________________________________________________
re_lu_118 (ReLU)                (None, 8, 8, 64)     0           batch_normalization_118[0][0]    
__________________________________________________________________________________________________
conv2d_122 (Conv2D)             (None, 8, 8, 64)     36864       re_lu_118[0][0]                  
__________________________________________________________________________________________________
batch_normalization_119 (BatchN (None, 8, 8, 64)     256         conv2d_122[0][0]                 
__________________________________________________________________________________________________
re_lu_119 (ReLU)                (None, 8, 8, 64)     0           batch_normalization_119[0][0]    
__________________________________________________________________________________________________
conv2d_123 (Conv2D)             (None, 8, 8, 256)    16384       re_lu_119[0][0]                  
__________________________________________________________________________________________________
add_39 (Add)                    (None, 8, 8, 256)    0           conv2d_123[0][0]                 
                                                                 add_38[0][0]                     
__________________________________________________________________________________________________
batch_normalization_120 (BatchN (None, 8, 8, 256)    1024        add_39[0][0]                     
__________________________________________________________________________________________________
re_lu_120 (ReLU)                (None, 8, 8, 256)    0           batch_normalization_120[0][0]    
__________________________________________________________________________________________________
conv2d_124 (Conv2D)             (None, 8, 8, 64)     16384       re_lu_120[0][0]                  
__________________________________________________________________________________________________
batch_normalization_121 (BatchN (None, 8, 8, 64)     256         conv2d_124[0][0]                 
__________________________________________________________________________________________________
re_lu_121 (ReLU)                (None, 8, 8, 64)     0           batch_normalization_121[0][0]    
__________________________________________________________________________________________________
conv2d_125 (Conv2D)             (None, 8, 8, 64)     36864       re_lu_121[0][0]                  
__________________________________________________________________________________________________
batch_normalization_122 (BatchN (None, 8, 8, 64)     256         conv2d_125[0][0]                 
__________________________________________________________________________________________________
re_lu_122 (ReLU)                (None, 8, 8, 64)     0           batch_normalization_122[0][0]    
__________________________________________________________________________________________________
conv2d_126 (Conv2D)             (None, 8, 8, 256)    16384       re_lu_122[0][0]                  
__________________________________________________________________________________________________
add_40 (Add)                    (None, 8, 8, 256)    0           conv2d_126[0][0]                 
                                                                 add_39[0][0]                     
__________________________________________________________________________________________________
batch_normalization_123 (BatchN (None, 8, 8, 256)    1024        add_40[0][0]                     
__________________________________________________________________________________________________
re_lu_123 (ReLU)                (None, 8, 8, 256)    0           batch_normalization_123[0][0]    
__________________________________________________________________________________________________
conv2d_127 (Conv2D)             (None, 8, 8, 64)     16384       re_lu_123[0][0]                  
__________________________________________________________________________________________________
batch_normalization_124 (BatchN (None, 8, 8, 64)     256         conv2d_127[0][0]                 
__________________________________________________________________________________________________
re_lu_124 (ReLU)                (None, 8, 8, 64)     0           batch_normalization_124[0][0]    
__________________________________________________________________________________________________
conv2d_128 (Conv2D)             (None, 8, 8, 64)     36864       re_lu_124[0][0]                  
__________________________________________________________________________________________________
batch_normalization_125 (BatchN (None, 8, 8, 64)     256         conv2d_128[0][0]                 
__________________________________________________________________________________________________
re_lu_125 (ReLU)                (None, 8, 8, 64)     0           batch_normalization_125[0][0]    
__________________________________________________________________________________________________
conv2d_129 (Conv2D)             (None, 8, 8, 256)    16384       re_lu_125[0][0]                  
__________________________________________________________________________________________________
add_41 (Add)                    (None, 8, 8, 256)    0           conv2d_129[0][0]                 
                                                                 add_40[0][0]                     
__________________________________________________________________________________________________
batch_normalization_126 (BatchN (None, 8, 8, 256)    1024        add_41[0][0]                     
__________________________________________________________________________________________________
re_lu_126 (ReLU)                (None, 8, 8, 256)    0           batch_normalization_126[0][0]    
__________________________________________________________________________________________________
conv2d_130 (Conv2D)             (None, 8, 8, 64)     16384       re_lu_126[0][0]                  
__________________________________________________________________________________________________
batch_normalization_127 (BatchN (None, 8, 8, 64)     256         conv2d_130[0][0]                 
__________________________________________________________________________________________________
re_lu_127 (ReLU)                (None, 8, 8, 64)     0           batch_normalization_127[0][0]    
__________________________________________________________________________________________________
conv2d_131 (Conv2D)             (None, 8, 8, 64)     36864       re_lu_127[0][0]                  
__________________________________________________________________________________________________
batch_normalization_128 (BatchN (None, 8, 8, 64)     256         conv2d_131[0][0]                 
__________________________________________________________________________________________________
re_lu_128 (ReLU)                (None, 8, 8, 64)     0           batch_normalization_128[0][0]    
__________________________________________________________________________________________________
conv2d_132 (Conv2D)             (None, 8, 8, 256)    16384       re_lu_128[0][0]                  
__________________________________________________________________________________________________
add_42 (Add)                    (None, 8, 8, 256)    0           conv2d_132[0][0]                 
                                                                 add_41[0][0]                     
__________________________________________________________________________________________________
batch_normalization_129 (BatchN (None, 8, 8, 256)    1024        add_42[0][0]                     
__________________________________________________________________________________________________
re_lu_129 (ReLU)                (None, 8, 8, 256)    0           batch_normalization_129[0][0]    
__________________________________________________________________________________________________
conv2d_133 (Conv2D)             (None, 8, 8, 64)     16384       re_lu_129[0][0]                  
__________________________________________________________________________________________________
batch_normalization_130 (BatchN (None, 8, 8, 64)     256         conv2d_133[0][0]                 
__________________________________________________________________________________________________
re_lu_130 (ReLU)                (None, 8, 8, 64)     0           batch_normalization_130[0][0]    
__________________________________________________________________________________________________
conv2d_134 (Conv2D)             (None, 8, 8, 64)     36864       re_lu_130[0][0]                  
__________________________________________________________________________________________________
batch_normalization_131 (BatchN (None, 8, 8, 64)     256         conv2d_134[0][0]                 
__________________________________________________________________________________________________
re_lu_131 (ReLU)                (None, 8, 8, 64)     0           batch_normalization_131[0][0]    
__________________________________________________________________________________________________
conv2d_135 (Conv2D)             (None, 8, 8, 256)    16384       re_lu_131[0][0]                  
__________________________________________________________________________________________________
add_43 (Add)                    (None, 8, 8, 256)    0           conv2d_135[0][0]                 
                                                                 add_42[0][0]                     
__________________________________________________________________________________________________
batch_normalization_132 (BatchN (None, 8, 8, 256)    1024        add_43[0][0]                     
__________________________________________________________________________________________________
re_lu_132 (ReLU)                (None, 8, 8, 256)    0           batch_normalization_132[0][0]    
__________________________________________________________________________________________________
conv2d_136 (Conv2D)             (None, 8, 8, 64)     16384       re_lu_132[0][0]                  
__________________________________________________________________________________________________
batch_normalization_133 (BatchN (None, 8, 8, 64)     256         conv2d_136[0][0]                 
__________________________________________________________________________________________________
re_lu_133 (ReLU)                (None, 8, 8, 64)     0           batch_normalization_133[0][0]    
__________________________________________________________________________________________________
conv2d_137 (Conv2D)             (None, 8, 8, 64)     36864       re_lu_133[0][0]                  
__________________________________________________________________________________________________
batch_normalization_134 (BatchN (None, 8, 8, 64)     256         conv2d_137[0][0]                 
__________________________________________________________________________________________________
re_lu_134 (ReLU)                (None, 8, 8, 64)     0           batch_normalization_134[0][0]    
__________________________________________________________________________________________________
conv2d_138 (Conv2D)             (None, 8, 8, 256)    16384       re_lu_134[0][0]                  
__________________________________________________________________________________________________
add_44 (Add)                    (None, 8, 8, 256)    0           conv2d_138[0][0]                 
                                                                 add_43[0][0]                     
__________________________________________________________________________________________________
batch_normalization_135 (BatchN (None, 8, 8, 256)    1024        add_44[0][0]                     
__________________________________________________________________________________________________
re_lu_135 (ReLU)                (None, 8, 8, 256)    0           batch_normalization_135[0][0]    
__________________________________________________________________________________________________
conv2d_139 (Conv2D)             (None, 8, 8, 64)     16384       re_lu_135[0][0]                  
__________________________________________________________________________________________________
batch_normalization_136 (BatchN (None, 8, 8, 64)     256         conv2d_139[0][0]                 
__________________________________________________________________________________________________
re_lu_136 (ReLU)                (None, 8, 8, 64)     0           batch_normalization_136[0][0]    
__________________________________________________________________________________________________
conv2d_140 (Conv2D)             (None, 8, 8, 64)     36864       re_lu_136[0][0]                  
__________________________________________________________________________________________________
batch_normalization_137 (BatchN (None, 8, 8, 64)     256         conv2d_140[0][0]                 
__________________________________________________________________________________________________
re_lu_137 (ReLU)                (None, 8, 8, 64)     0           batch_normalization_137[0][0]    
__________________________________________________________________________________________________
conv2d_141 (Conv2D)             (None, 8, 8, 256)    16384       re_lu_137[0][0]                  
__________________________________________________________________________________________________
add_45 (Add)                    (None, 8, 8, 256)    0           conv2d_141[0][0]                 
                                                                 add_44[0][0]                     
__________________________________________________________________________________________________
batch_normalization_138 (BatchN (None, 8, 8, 256)    1024        add_45[0][0]                     
__________________________________________________________________________________________________
re_lu_138 (ReLU)                (None, 8, 8, 256)    0           batch_normalization_138[0][0]    
__________________________________________________________________________________________________
conv2d_142 (Conv2D)             (None, 8, 8, 64)     16384       re_lu_138[0][0]                  
__________________________________________________________________________________________________
batch_normalization_139 (BatchN (None, 8, 8, 64)     256         conv2d_142[0][0]                 
__________________________________________________________________________________________________
re_lu_139 (ReLU)                (None, 8, 8, 64)     0           batch_normalization_139[0][0]    
__________________________________________________________________________________________________
conv2d_143 (Conv2D)             (None, 8, 8, 64)     36864       re_lu_139[0][0]                  
__________________________________________________________________________________________________
batch_normalization_140 (BatchN (None, 8, 8, 64)     256         conv2d_143[0][0]                 
__________________________________________________________________________________________________
re_lu_140 (ReLU)                (None, 8, 8, 64)     0           batch_normalization_140[0][0]    
__________________________________________________________________________________________________
conv2d_144 (Conv2D)             (None, 8, 8, 256)    16384       re_lu_140[0][0]                  
__________________________________________________________________________________________________
add_46 (Add)                    (None, 8, 8, 256)    0           conv2d_144[0][0]                 
                                                                 add_45[0][0]                     
__________________________________________________________________________________________________
batch_normalization_141 (BatchN (None, 8, 8, 256)    1024        add_46[0][0]                     
__________________________________________________________________________________________________
re_lu_141 (ReLU)                (None, 8, 8, 256)    0           batch_normalization_141[0][0]    
__________________________________________________________________________________________________
conv2d_145 (Conv2D)             (None, 8, 8, 64)     16384       re_lu_141[0][0]                  
__________________________________________________________________________________________________
batch_normalization_142 (BatchN (None, 8, 8, 64)     256         conv2d_145[0][0]                 
__________________________________________________________________________________________________
re_lu_142 (ReLU)                (None, 8, 8, 64)     0           batch_normalization_142[0][0]    
__________________________________________________________________________________________________
conv2d_146 (Conv2D)             (None, 8, 8, 64)     36864       re_lu_142[0][0]                  
__________________________________________________________________________________________________
batch_normalization_143 (BatchN (None, 8, 8, 64)     256         conv2d_146[0][0]                 
__________________________________________________________________________________________________
re_lu_143 (ReLU)                (None, 8, 8, 64)     0           batch_normalization_143[0][0]    
__________________________________________________________________________________________________
conv2d_147 (Conv2D)             (None, 8, 8, 256)    16384       re_lu_143[0][0]                  
__________________________________________________________________________________________________
add_47 (Add)                    (None, 8, 8, 256)    0           conv2d_147[0][0]                 
                                                                 add_46[0][0]                     
__________________________________________________________________________________________________
batch_normalization_144 (BatchN (None, 8, 8, 256)    1024        add_47[0][0]                     
__________________________________________________________________________________________________
re_lu_144 (ReLU)                (None, 8, 8, 256)    0           batch_normalization_144[0][0]    
__________________________________________________________________________________________________
conv2d_148 (Conv2D)             (None, 8, 8, 64)     16384       re_lu_144[0][0]                  
__________________________________________________________________________________________________
batch_normalization_145 (BatchN (None, 8, 8, 64)     256         conv2d_148[0][0]                 
__________________________________________________________________________________________________
re_lu_145 (ReLU)                (None, 8, 8, 64)     0           batch_normalization_145[0][0]    
__________________________________________________________________________________________________
conv2d_149 (Conv2D)             (None, 8, 8, 64)     36864       re_lu_145[0][0]                  
__________________________________________________________________________________________________
batch_normalization_146 (BatchN (None, 8, 8, 64)     256         conv2d_149[0][0]                 
__________________________________________________________________________________________________
re_lu_146 (ReLU)                (None, 8, 8, 64)     0           batch_normalization_146[0][0]    
__________________________________________________________________________________________________
conv2d_150 (Conv2D)             (None, 8, 8, 256)    16384       re_lu_146[0][0]                  
__________________________________________________________________________________________________
add_48 (Add)                    (None, 8, 8, 256)    0           conv2d_150[0][0]                 
                                                                 add_47[0][0]                     
__________________________________________________________________________________________________
batch_normalization_147 (BatchN (None, 8, 8, 256)    1024        add_48[0][0]                     
__________________________________________________________________________________________________
re_lu_147 (ReLU)                (None, 8, 8, 256)    0           batch_normalization_147[0][0]    
__________________________________________________________________________________________________
conv2d_151 (Conv2D)             (None, 8, 8, 64)     16384       re_lu_147[0][0]                  
__________________________________________________________________________________________________
batch_normalization_148 (BatchN (None, 8, 8, 64)     256         conv2d_151[0][0]                 
__________________________________________________________________________________________________
re_lu_148 (ReLU)                (None, 8, 8, 64)     0           batch_normalization_148[0][0]    
__________________________________________________________________________________________________
conv2d_152 (Conv2D)             (None, 8, 8, 64)     36864       re_lu_148[0][0]                  
__________________________________________________________________________________________________
batch_normalization_149 (BatchN (None, 8, 8, 64)     256         conv2d_152[0][0]                 
__________________________________________________________________________________________________
re_lu_149 (ReLU)                (None, 8, 8, 64)     0           batch_normalization_149[0][0]    
__________________________________________________________________________________________________
conv2d_153 (Conv2D)             (None, 8, 8, 256)    16384       re_lu_149[0][0]                  
__________________________________________________________________________________________________
add_49 (Add)                    (None, 8, 8, 256)    0           conv2d_153[0][0]                 
                                                                 add_48[0][0]                     
__________________________________________________________________________________________________
batch_normalization_150 (BatchN (None, 8, 8, 256)    1024        add_49[0][0]                     
__________________________________________________________________________________________________
re_lu_150 (ReLU)                (None, 8, 8, 256)    0           batch_normalization_150[0][0]    
__________________________________________________________________________________________________
conv2d_154 (Conv2D)             (None, 8, 8, 64)     16384       re_lu_150[0][0]                  
__________________________________________________________________________________________________
batch_normalization_151 (BatchN (None, 8, 8, 64)     256         conv2d_154[0][0]                 
__________________________________________________________________________________________________
re_lu_151 (ReLU)                (None, 8, 8, 64)     0           batch_normalization_151[0][0]    
__________________________________________________________________________________________________
conv2d_155 (Conv2D)             (None, 8, 8, 64)     36864       re_lu_151[0][0]                  
__________________________________________________________________________________________________
batch_normalization_152 (BatchN (None, 8, 8, 64)     256         conv2d_155[0][0]                 
__________________________________________________________________________________________________
re_lu_152 (ReLU)                (None, 8, 8, 64)     0           batch_normalization_152[0][0]    
__________________________________________________________________________________________________
conv2d_156 (Conv2D)             (None, 8, 8, 256)    16384       re_lu_152[0][0]                  
__________________________________________________________________________________________________
add_50 (Add)                    (None, 8, 8, 256)    0           conv2d_156[0][0]                 
                                                                 add_49[0][0]                     
__________________________________________________________________________________________________
batch_normalization_153 (BatchN (None, 8, 8, 256)    1024        add_50[0][0]                     
__________________________________________________________________________________________________
re_lu_153 (ReLU)                (None, 8, 8, 256)    0           batch_normalization_153[0][0]    
__________________________________________________________________________________________________
conv2d_157 (Conv2D)             (None, 8, 8, 64)     16384       re_lu_153[0][0]                  
__________________________________________________________________________________________________
batch_normalization_154 (BatchN (None, 8, 8, 64)     256         conv2d_157[0][0]                 
__________________________________________________________________________________________________
re_lu_154 (ReLU)                (None, 8, 8, 64)     0           batch_normalization_154[0][0]    
__________________________________________________________________________________________________
conv2d_158 (Conv2D)             (None, 8, 8, 64)     36864       re_lu_154[0][0]                  
__________________________________________________________________________________________________
batch_normalization_155 (BatchN (None, 8, 8, 64)     256         conv2d_158[0][0]                 
__________________________________________________________________________________________________
re_lu_155 (ReLU)                (None, 8, 8, 64)     0           batch_normalization_155[0][0]    
__________________________________________________________________________________________________
conv2d_159 (Conv2D)             (None, 8, 8, 256)    16384       re_lu_155[0][0]                  
__________________________________________________________________________________________________
add_51 (Add)                    (None, 8, 8, 256)    0           conv2d_159[0][0]                 
                                                                 add_50[0][0]                     
__________________________________________________________________________________________________
batch_normalization_156 (BatchN (None, 8, 8, 256)    1024        add_51[0][0]                     
__________________________________________________________________________________________________
re_lu_156 (ReLU)                (None, 8, 8, 256)    0           batch_normalization_156[0][0]    
__________________________________________________________________________________________________
conv2d_160 (Conv2D)             (None, 8, 8, 64)     16384       re_lu_156[0][0]                  
__________________________________________________________________________________________________
batch_normalization_157 (BatchN (None, 8, 8, 64)     256         conv2d_160[0][0]                 
__________________________________________________________________________________________________
re_lu_157 (ReLU)                (None, 8, 8, 64)     0           batch_normalization_157[0][0]    
__________________________________________________________________________________________________
conv2d_161 (Conv2D)             (None, 8, 8, 64)     36864       re_lu_157[0][0]                  
__________________________________________________________________________________________________
batch_normalization_158 (BatchN (None, 8, 8, 64)     256         conv2d_161[0][0]                 
__________________________________________________________________________________________________
re_lu_158 (ReLU)                (None, 8, 8, 64)     0           batch_normalization_158[0][0]    
__________________________________________________________________________________________________
conv2d_162 (Conv2D)             (None, 8, 8, 256)    16384       re_lu_158[0][0]                  
__________________________________________________________________________________________________
add_52 (Add)                    (None, 8, 8, 256)    0           conv2d_162[0][0]                 
                                                                 add_51[0][0]                     
__________________________________________________________________________________________________
batch_normalization_159 (BatchN (None, 8, 8, 256)    1024        add_52[0][0]                     
__________________________________________________________________________________________________
re_lu_159 (ReLU)                (None, 8, 8, 256)    0           batch_normalization_159[0][0]    
__________________________________________________________________________________________________
conv2d_163 (Conv2D)             (None, 8, 8, 64)     16384       re_lu_159[0][0]                  
__________________________________________________________________________________________________
batch_normalization_160 (BatchN (None, 8, 8, 64)     256         conv2d_163[0][0]                 
__________________________________________________________________________________________________
re_lu_160 (ReLU)                (None, 8, 8, 64)     0           batch_normalization_160[0][0]    
__________________________________________________________________________________________________
conv2d_164 (Conv2D)             (None, 8, 8, 64)     36864       re_lu_160[0][0]                  
__________________________________________________________________________________________________
batch_normalization_161 (BatchN (None, 8, 8, 64)     256         conv2d_164[0][0]                 
__________________________________________________________________________________________________
re_lu_161 (ReLU)                (None, 8, 8, 64)     0           batch_normalization_161[0][0]    
__________________________________________________________________________________________________
conv2d_165 (Conv2D)             (None, 8, 8, 256)    16384       re_lu_161[0][0]                  
__________________________________________________________________________________________________
add_53 (Add)                    (None, 8, 8, 256)    0           conv2d_165[0][0]                 
                                                                 add_52[0][0]                     
__________________________________________________________________________________________________
batch_normalization_162 (BatchN (None, 8, 8, 256)    1024        add_53[0][0]                     
__________________________________________________________________________________________________
re_lu_162 (ReLU)                (None, 8, 8, 256)    0           batch_normalization_162[0][0]    
__________________________________________________________________________________________________
global_average_pooling2d (Globa (None, 256)          0           re_lu_162[0][0]                  
__________________________________________________________________________________________________
dense (Dense)                   (None, 10)           2570        global_average_pooling2d[0][0]   
==================================================================================================
Total params: 1,727,482
Trainable params: 1,703,258
Non-trainable params: 24,224
__________________________________________________________________________________________________