__________________________________________________________________________________________________
Layer (type)                    Output Shape         Param #     Connected to                     
==================================================================================================
input_1 (InputLayer)            (None, 32, 32, 3)    0                                            
__________________________________________________________________________________________________
conv2d (Conv2D)                 (None, 32, 32, 16)   432         input_1[0][0]                    
__________________________________________________________________________________________________
batch_normalization_v1 (BatchNo (None, 32, 32, 16)   64          conv2d[0][0]                     
__________________________________________________________________________________________________
re_lu (ReLU)                    (None, 32, 32, 16)   0           batch_normalization_v1[0][0]     
__________________________________________________________________________________________________
conv2d_1 (Conv2D)               (None, 32, 32, 16)   2304        re_lu[0][0]                      
__________________________________________________________________________________________________
batch_normalization_v1_1 (Batch (None, 32, 32, 16)   64          conv2d_1[0][0]                   
__________________________________________________________________________________________________
re_lu_1 (ReLU)                  (None, 32, 32, 16)   0           batch_normalization_v1_1[0][0]   
__________________________________________________________________________________________________
conv2d_2 (Conv2D)               (None, 32, 32, 16)   2304        re_lu_1[0][0]                    
__________________________________________________________________________________________________
batch_normalization_v1_2 (Batch (None, 32, 32, 16)   64          conv2d_2[0][0]                   
__________________________________________________________________________________________________
re_lu_2 (ReLU)                  (None, 32, 32, 16)   0           batch_normalization_v1_2[0][0]   
__________________________________________________________________________________________________
add (Add)                       (None, 32, 32, 16)   0           re_lu_2[0][0]                    
                                                                 re_lu[0][0]                      
__________________________________________________________________________________________________
re_lu_3 (ReLU)                  (None, 32, 32, 16)   0           add[0][0]                        
__________________________________________________________________________________________________
conv2d_3 (Conv2D)               (None, 32, 32, 16)   2304        re_lu_3[0][0]                    
__________________________________________________________________________________________________
batch_normalization_v1_3 (Batch (None, 32, 32, 16)   64          conv2d_3[0][0]                   
__________________________________________________________________________________________________
re_lu_4 (ReLU)                  (None, 32, 32, 16)   0           batch_normalization_v1_3[0][0]   
__________________________________________________________________________________________________
conv2d_4 (Conv2D)               (None, 32, 32, 16)   2304        re_lu_4[0][0]                    
__________________________________________________________________________________________________
batch_normalization_v1_4 (Batch (None, 32, 32, 16)   64          conv2d_4[0][0]                   
__________________________________________________________________________________________________
re_lu_5 (ReLU)                  (None, 32, 32, 16)   0           batch_normalization_v1_4[0][0]   
__________________________________________________________________________________________________
add_1 (Add)                     (None, 32, 32, 16)   0           re_lu_5[0][0]                    
                                                                 re_lu_3[0][0]                    
__________________________________________________________________________________________________
re_lu_6 (ReLU)                  (None, 32, 32, 16)   0           add_1[0][0]                      
__________________________________________________________________________________________________
conv2d_5 (Conv2D)               (None, 32, 32, 16)   2304        re_lu_6[0][0]                    
__________________________________________________________________________________________________
batch_normalization_v1_5 (Batch (None, 32, 32, 16)   64          conv2d_5[0][0]                   
__________________________________________________________________________________________________
re_lu_7 (ReLU)                  (None, 32, 32, 16)   0           batch_normalization_v1_5[0][0]   
__________________________________________________________________________________________________
conv2d_6 (Conv2D)               (None, 32, 32, 16)   2304        re_lu_7[0][0]                    
__________________________________________________________________________________________________
batch_normalization_v1_6 (Batch (None, 32, 32, 16)   64          conv2d_6[0][0]                   
__________________________________________________________________________________________________
re_lu_8 (ReLU)                  (None, 32, 32, 16)   0           batch_normalization_v1_6[0][0]   
__________________________________________________________________________________________________
add_2 (Add)                     (None, 32, 32, 16)   0           re_lu_8[0][0]                    
                                                                 re_lu_6[0][0]                    
__________________________________________________________________________________________________
re_lu_9 (ReLU)                  (None, 32, 32, 16)   0           add_2[0][0]                      
__________________________________________________________________________________________________
conv2d_7 (Conv2D)               (None, 32, 32, 16)   2304        re_lu_9[0][0]                    
__________________________________________________________________________________________________
batch_normalization_v1_7 (Batch (None, 32, 32, 16)   64          conv2d_7[0][0]                   
__________________________________________________________________________________________________
re_lu_10 (ReLU)                 (None, 32, 32, 16)   0           batch_normalization_v1_7[0][0]   
__________________________________________________________________________________________________
conv2d_8 (Conv2D)               (None, 32, 32, 16)   2304        re_lu_10[0][0]                   
__________________________________________________________________________________________________
batch_normalization_v1_8 (Batch (None, 32, 32, 16)   64          conv2d_8[0][0]                   
__________________________________________________________________________________________________
re_lu_11 (ReLU)                 (None, 32, 32, 16)   0           batch_normalization_v1_8[0][0]   
__________________________________________________________________________________________________
add_3 (Add)                     (None, 32, 32, 16)   0           re_lu_11[0][0]                   
                                                                 re_lu_9[0][0]                    
__________________________________________________________________________________________________
re_lu_12 (ReLU)                 (None, 32, 32, 16)   0           add_3[0][0]                      
__________________________________________________________________________________________________
conv2d_9 (Conv2D)               (None, 32, 32, 16)   2304        re_lu_12[0][0]                   
__________________________________________________________________________________________________
batch_normalization_v1_9 (Batch (None, 32, 32, 16)   64          conv2d_9[0][0]                   
__________________________________________________________________________________________________
re_lu_13 (ReLU)                 (None, 32, 32, 16)   0           batch_normalization_v1_9[0][0]   
__________________________________________________________________________________________________
conv2d_10 (Conv2D)              (None, 32, 32, 16)   2304        re_lu_13[0][0]                   
__________________________________________________________________________________________________
batch_normalization_v1_10 (Batc (None, 32, 32, 16)   64          conv2d_10[0][0]                  
__________________________________________________________________________________________________
re_lu_14 (ReLU)                 (None, 32, 32, 16)   0           batch_normalization_v1_10[0][0]  
__________________________________________________________________________________________________
add_4 (Add)                     (None, 32, 32, 16)   0           re_lu_14[0][0]                   
                                                                 re_lu_12[0][0]                   
__________________________________________________________________________________________________
re_lu_15 (ReLU)                 (None, 32, 32, 16)   0           add_4[0][0]                      
__________________________________________________________________________________________________
conv2d_11 (Conv2D)              (None, 32, 32, 16)   2304        re_lu_15[0][0]                   
__________________________________________________________________________________________________
batch_normalization_v1_11 (Batc (None, 32, 32, 16)   64          conv2d_11[0][0]                  
__________________________________________________________________________________________________
re_lu_16 (ReLU)                 (None, 32, 32, 16)   0           batch_normalization_v1_11[0][0]  
__________________________________________________________________________________________________
conv2d_12 (Conv2D)              (None, 32, 32, 16)   2304        re_lu_16[0][0]                   
__________________________________________________________________________________________________
batch_normalization_v1_12 (Batc (None, 32, 32, 16)   64          conv2d_12[0][0]                  
__________________________________________________________________________________________________
re_lu_17 (ReLU)                 (None, 32, 32, 16)   0           batch_normalization_v1_12[0][0]  
__________________________________________________________________________________________________
add_5 (Add)                     (None, 32, 32, 16)   0           re_lu_17[0][0]                   
                                                                 re_lu_15[0][0]                   
__________________________________________________________________________________________________
re_lu_18 (ReLU)                 (None, 32, 32, 16)   0           add_5[0][0]                      
__________________________________________________________________________________________________
conv2d_13 (Conv2D)              (None, 32, 32, 16)   2304        re_lu_18[0][0]                   
__________________________________________________________________________________________________
batch_normalization_v1_13 (Batc (None, 32, 32, 16)   64          conv2d_13[0][0]                  
__________________________________________________________________________________________________
re_lu_19 (ReLU)                 (None, 32, 32, 16)   0           batch_normalization_v1_13[0][0]  
__________________________________________________________________________________________________
conv2d_14 (Conv2D)              (None, 32, 32, 16)   2304        re_lu_19[0][0]                   
__________________________________________________________________________________________________
batch_normalization_v1_14 (Batc (None, 32, 32, 16)   64          conv2d_14[0][0]                  
__________________________________________________________________________________________________
re_lu_20 (ReLU)                 (None, 32, 32, 16)   0           batch_normalization_v1_14[0][0]  
__________________________________________________________________________________________________
add_6 (Add)                     (None, 32, 32, 16)   0           re_lu_20[0][0]                   
                                                                 re_lu_18[0][0]                   
__________________________________________________________________________________________________
re_lu_21 (ReLU)                 (None, 32, 32, 16)   0           add_6[0][0]                      
__________________________________________________________________________________________________
conv2d_15 (Conv2D)              (None, 32, 32, 16)   2304        re_lu_21[0][0]                   
__________________________________________________________________________________________________
batch_normalization_v1_15 (Batc (None, 32, 32, 16)   64          conv2d_15[0][0]                  
__________________________________________________________________________________________________
re_lu_22 (ReLU)                 (None, 32, 32, 16)   0           batch_normalization_v1_15[0][0]  
__________________________________________________________________________________________________
conv2d_16 (Conv2D)              (None, 32, 32, 16)   2304        re_lu_22[0][0]                   
__________________________________________________________________________________________________
batch_normalization_v1_16 (Batc (None, 32, 32, 16)   64          conv2d_16[0][0]                  
__________________________________________________________________________________________________
re_lu_23 (ReLU)                 (None, 32, 32, 16)   0           batch_normalization_v1_16[0][0]  
__________________________________________________________________________________________________
add_7 (Add)                     (None, 32, 32, 16)   0           re_lu_23[0][0]                   
                                                                 re_lu_21[0][0]                   
__________________________________________________________________________________________________
re_lu_24 (ReLU)                 (None, 32, 32, 16)   0           add_7[0][0]                      
__________________________________________________________________________________________________
conv2d_17 (Conv2D)              (None, 32, 32, 16)   2304        re_lu_24[0][0]                   
__________________________________________________________________________________________________
batch_normalization_v1_17 (Batc (None, 32, 32, 16)   64          conv2d_17[0][0]                  
__________________________________________________________________________________________________
re_lu_25 (ReLU)                 (None, 32, 32, 16)   0           batch_normalization_v1_17[0][0]  
__________________________________________________________________________________________________
conv2d_18 (Conv2D)              (None, 32, 32, 16)   2304        re_lu_25[0][0]                   
__________________________________________________________________________________________________
batch_normalization_v1_18 (Batc (None, 32, 32, 16)   64          conv2d_18[0][0]                  
__________________________________________________________________________________________________
re_lu_26 (ReLU)                 (None, 32, 32, 16)   0           batch_normalization_v1_18[0][0]  
__________________________________________________________________________________________________
add_8 (Add)                     (None, 32, 32, 16)   0           re_lu_26[0][0]                   
                                                                 re_lu_24[0][0]                   
__________________________________________________________________________________________________
re_lu_27 (ReLU)                 (None, 32, 32, 16)   0           add_8[0][0]                      
__________________________________________________________________________________________________
conv2d_19 (Conv2D)              (None, 32, 32, 16)   2304        re_lu_27[0][0]                   
__________________________________________________________________________________________________
batch_normalization_v1_19 (Batc (None, 32, 32, 16)   64          conv2d_19[0][0]                  
__________________________________________________________________________________________________
re_lu_28 (ReLU)                 (None, 32, 32, 16)   0           batch_normalization_v1_19[0][0]  
__________________________________________________________________________________________________
conv2d_20 (Conv2D)              (None, 32, 32, 16)   2304        re_lu_28[0][0]                   
__________________________________________________________________________________________________
batch_normalization_v1_20 (Batc (None, 32, 32, 16)   64          conv2d_20[0][0]                  
__________________________________________________________________________________________________
re_lu_29 (ReLU)                 (None, 32, 32, 16)   0           batch_normalization_v1_20[0][0]  
__________________________________________________________________________________________________
add_9 (Add)                     (None, 32, 32, 16)   0           re_lu_29[0][0]                   
                                                                 re_lu_27[0][0]                   
__________________________________________________________________________________________________
re_lu_30 (ReLU)                 (None, 32, 32, 16)   0           add_9[0][0]                      
__________________________________________________________________________________________________
conv2d_21 (Conv2D)              (None, 32, 32, 16)   2304        re_lu_30[0][0]                   
__________________________________________________________________________________________________
batch_normalization_v1_21 (Batc (None, 32, 32, 16)   64          conv2d_21[0][0]                  
__________________________________________________________________________________________________
re_lu_31 (ReLU)                 (None, 32, 32, 16)   0           batch_normalization_v1_21[0][0]  
__________________________________________________________________________________________________
conv2d_22 (Conv2D)              (None, 32, 32, 16)   2304        re_lu_31[0][0]                   
__________________________________________________________________________________________________
batch_normalization_v1_22 (Batc (None, 32, 32, 16)   64          conv2d_22[0][0]                  
__________________________________________________________________________________________________
re_lu_32 (ReLU)                 (None, 32, 32, 16)   0           batch_normalization_v1_22[0][0]  
__________________________________________________________________________________________________
add_10 (Add)                    (None, 32, 32, 16)   0           re_lu_32[0][0]                   
                                                                 re_lu_30[0][0]                   
__________________________________________________________________________________________________
re_lu_33 (ReLU)                 (None, 32, 32, 16)   0           add_10[0][0]                     
__________________________________________________________________________________________________
conv2d_23 (Conv2D)              (None, 32, 32, 16)   2304        re_lu_33[0][0]                   
__________________________________________________________________________________________________
batch_normalization_v1_23 (Batc (None, 32, 32, 16)   64          conv2d_23[0][0]                  
__________________________________________________________________________________________________
re_lu_34 (ReLU)                 (None, 32, 32, 16)   0           batch_normalization_v1_23[0][0]  
__________________________________________________________________________________________________
conv2d_24 (Conv2D)              (None, 32, 32, 16)   2304        re_lu_34[0][0]                   
__________________________________________________________________________________________________
batch_normalization_v1_24 (Batc (None, 32, 32, 16)   64          conv2d_24[0][0]                  
__________________________________________________________________________________________________
re_lu_35 (ReLU)                 (None, 32, 32, 16)   0           batch_normalization_v1_24[0][0]  
__________________________________________________________________________________________________
add_11 (Add)                    (None, 32, 32, 16)   0           re_lu_35[0][0]                   
                                                                 re_lu_33[0][0]                   
__________________________________________________________________________________________________
re_lu_36 (ReLU)                 (None, 32, 32, 16)   0           add_11[0][0]                     
__________________________________________________________________________________________________
conv2d_25 (Conv2D)              (None, 32, 32, 16)   2304        re_lu_36[0][0]                   
__________________________________________________________________________________________________
batch_normalization_v1_25 (Batc (None, 32, 32, 16)   64          conv2d_25[0][0]                  
__________________________________________________________________________________________________
re_lu_37 (ReLU)                 (None, 32, 32, 16)   0           batch_normalization_v1_25[0][0]  
__________________________________________________________________________________________________
conv2d_26 (Conv2D)              (None, 32, 32, 16)   2304        re_lu_37[0][0]                   
__________________________________________________________________________________________________
batch_normalization_v1_26 (Batc (None, 32, 32, 16)   64          conv2d_26[0][0]                  
__________________________________________________________________________________________________
re_lu_38 (ReLU)                 (None, 32, 32, 16)   0           batch_normalization_v1_26[0][0]  
__________________________________________________________________________________________________
add_12 (Add)                    (None, 32, 32, 16)   0           re_lu_38[0][0]                   
                                                                 re_lu_36[0][0]                   
__________________________________________________________________________________________________
re_lu_39 (ReLU)                 (None, 32, 32, 16)   0           add_12[0][0]                     
__________________________________________________________________________________________________
conv2d_27 (Conv2D)              (None, 32, 32, 16)   2304        re_lu_39[0][0]                   
__________________________________________________________________________________________________
batch_normalization_v1_27 (Batc (None, 32, 32, 16)   64          conv2d_27[0][0]                  
__________________________________________________________________________________________________
re_lu_40 (ReLU)                 (None, 32, 32, 16)   0           batch_normalization_v1_27[0][0]  
__________________________________________________________________________________________________
conv2d_28 (Conv2D)              (None, 32, 32, 16)   2304        re_lu_40[0][0]                   
__________________________________________________________________________________________________
batch_normalization_v1_28 (Batc (None, 32, 32, 16)   64          conv2d_28[0][0]                  
__________________________________________________________________________________________________
re_lu_41 (ReLU)                 (None, 32, 32, 16)   0           batch_normalization_v1_28[0][0]  
__________________________________________________________________________________________________
add_13 (Add)                    (None, 32, 32, 16)   0           re_lu_41[0][0]                   
                                                                 re_lu_39[0][0]                   
__________________________________________________________________________________________________
re_lu_42 (ReLU)                 (None, 32, 32, 16)   0           add_13[0][0]                     
__________________________________________________________________________________________________
conv2d_29 (Conv2D)              (None, 32, 32, 16)   2304        re_lu_42[0][0]                   
__________________________________________________________________________________________________
batch_normalization_v1_29 (Batc (None, 32, 32, 16)   64          conv2d_29[0][0]                  
__________________________________________________________________________________________________
re_lu_43 (ReLU)                 (None, 32, 32, 16)   0           batch_normalization_v1_29[0][0]  
__________________________________________________________________________________________________
conv2d_30 (Conv2D)              (None, 32, 32, 16)   2304        re_lu_43[0][0]                   
__________________________________________________________________________________________________
batch_normalization_v1_30 (Batc (None, 32, 32, 16)   64          conv2d_30[0][0]                  
__________________________________________________________________________________________________
re_lu_44 (ReLU)                 (None, 32, 32, 16)   0           batch_normalization_v1_30[0][0]  
__________________________________________________________________________________________________
add_14 (Add)                    (None, 32, 32, 16)   0           re_lu_44[0][0]                   
                                                                 re_lu_42[0][0]                   
__________________________________________________________________________________________________
re_lu_45 (ReLU)                 (None, 32, 32, 16)   0           add_14[0][0]                     
__________________________________________________________________________________________________
conv2d_31 (Conv2D)              (None, 32, 32, 16)   2304        re_lu_45[0][0]                   
__________________________________________________________________________________________________
batch_normalization_v1_31 (Batc (None, 32, 32, 16)   64          conv2d_31[0][0]                  
__________________________________________________________________________________________________
re_lu_46 (ReLU)                 (None, 32, 32, 16)   0           batch_normalization_v1_31[0][0]  
__________________________________________________________________________________________________
conv2d_32 (Conv2D)              (None, 32, 32, 16)   2304        re_lu_46[0][0]                   
__________________________________________________________________________________________________
batch_normalization_v1_32 (Batc (None, 32, 32, 16)   64          conv2d_32[0][0]                  
__________________________________________________________________________________________________
re_lu_47 (ReLU)                 (None, 32, 32, 16)   0           batch_normalization_v1_32[0][0]  
__________________________________________________________________________________________________
add_15 (Add)                    (None, 32, 32, 16)   0           re_lu_47[0][0]                   
                                                                 re_lu_45[0][0]                   
__________________________________________________________________________________________________
re_lu_48 (ReLU)                 (None, 32, 32, 16)   0           add_15[0][0]                     
__________________________________________________________________________________________________
conv2d_33 (Conv2D)              (None, 32, 32, 16)   2304        re_lu_48[0][0]                   
__________________________________________________________________________________________________
batch_normalization_v1_33 (Batc (None, 32, 32, 16)   64          conv2d_33[0][0]                  
__________________________________________________________________________________________________
re_lu_49 (ReLU)                 (None, 32, 32, 16)   0           batch_normalization_v1_33[0][0]  
__________________________________________________________________________________________________
conv2d_34 (Conv2D)              (None, 32, 32, 16)   2304        re_lu_49[0][0]                   
__________________________________________________________________________________________________
batch_normalization_v1_34 (Batc (None, 32, 32, 16)   64          conv2d_34[0][0]                  
__________________________________________________________________________________________________
re_lu_50 (ReLU)                 (None, 32, 32, 16)   0           batch_normalization_v1_34[0][0]  
__________________________________________________________________________________________________
add_16 (Add)                    (None, 32, 32, 16)   0           re_lu_50[0][0]                   
                                                                 re_lu_48[0][0]                   
__________________________________________________________________________________________________
re_lu_51 (ReLU)                 (None, 32, 32, 16)   0           add_16[0][0]                     
__________________________________________________________________________________________________
conv2d_35 (Conv2D)              (None, 32, 32, 16)   2304        re_lu_51[0][0]                   
__________________________________________________________________________________________________
batch_normalization_v1_35 (Batc (None, 32, 32, 16)   64          conv2d_35[0][0]                  
__________________________________________________________________________________________________
re_lu_52 (ReLU)                 (None, 32, 32, 16)   0           batch_normalization_v1_35[0][0]  
__________________________________________________________________________________________________
conv2d_36 (Conv2D)              (None, 32, 32, 16)   2304        re_lu_52[0][0]                   
__________________________________________________________________________________________________
batch_normalization_v1_36 (Batc (None, 32, 32, 16)   64          conv2d_36[0][0]                  
__________________________________________________________________________________________________
re_lu_53 (ReLU)                 (None, 32, 32, 16)   0           batch_normalization_v1_36[0][0]  
__________________________________________________________________________________________________
add_17 (Add)                    (None, 32, 32, 16)   0           re_lu_53[0][0]                   
                                                                 re_lu_51[0][0]                   
__________________________________________________________________________________________________
re_lu_54 (ReLU)                 (None, 32, 32, 16)   0           add_17[0][0]                     
__________________________________________________________________________________________________
conv2d_37 (Conv2D)              (None, 32, 32, 16)   2304        re_lu_54[0][0]                   
__________________________________________________________________________________________________
batch_normalization_v1_37 (Batc (None, 32, 32, 16)   64          conv2d_37[0][0]                  
__________________________________________________________________________________________________
re_lu_55 (ReLU)                 (None, 32, 32, 16)   0           batch_normalization_v1_37[0][0]  
__________________________________________________________________________________________________
conv2d_38 (Conv2D)              (None, 32, 32, 16)   2304        re_lu_55[0][0]                   
__________________________________________________________________________________________________
batch_normalization_v1_38 (Batc (None, 32, 32, 16)   64          conv2d_38[0][0]                  
__________________________________________________________________________________________________
re_lu_56 (ReLU)                 (None, 32, 32, 16)   0           batch_normalization_v1_38[0][0]  
__________________________________________________________________________________________________
add_18 (Add)                    (None, 32, 32, 16)   0           re_lu_56[0][0]                   
                                                                 re_lu_54[0][0]                   
__________________________________________________________________________________________________
re_lu_57 (ReLU)                 (None, 32, 32, 16)   0           add_18[0][0]                     
__________________________________________________________________________________________________
conv2d_39 (Conv2D)              (None, 32, 32, 16)   2304        re_lu_57[0][0]                   
__________________________________________________________________________________________________
batch_normalization_v1_39 (Batc (None, 32, 32, 16)   64          conv2d_39[0][0]                  
__________________________________________________________________________________________________
re_lu_58 (ReLU)                 (None, 32, 32, 16)   0           batch_normalization_v1_39[0][0]  
__________________________________________________________________________________________________
conv2d_40 (Conv2D)              (None, 32, 32, 16)   2304        re_lu_58[0][0]                   
__________________________________________________________________________________________________
batch_normalization_v1_40 (Batc (None, 32, 32, 16)   64          conv2d_40[0][0]                  
__________________________________________________________________________________________________
re_lu_59 (ReLU)                 (None, 32, 32, 16)   0           batch_normalization_v1_40[0][0]  
__________________________________________________________________________________________________
add_19 (Add)                    (None, 32, 32, 16)   0           re_lu_59[0][0]                   
                                                                 re_lu_57[0][0]                   
__________________________________________________________________________________________________
re_lu_60 (ReLU)                 (None, 32, 32, 16)   0           add_19[0][0]                     
__________________________________________________________________________________________________
conv2d_41 (Conv2D)              (None, 32, 32, 16)   2304        re_lu_60[0][0]                   
__________________________________________________________________________________________________
batch_normalization_v1_41 (Batc (None, 32, 32, 16)   64          conv2d_41[0][0]                  
__________________________________________________________________________________________________
re_lu_61 (ReLU)                 (None, 32, 32, 16)   0           batch_normalization_v1_41[0][0]  
__________________________________________________________________________________________________
conv2d_42 (Conv2D)              (None, 32, 32, 16)   2304        re_lu_61[0][0]                   
__________________________________________________________________________________________________
batch_normalization_v1_42 (Batc (None, 32, 32, 16)   64          conv2d_42[0][0]                  
__________________________________________________________________________________________________
re_lu_62 (ReLU)                 (None, 32, 32, 16)   0           batch_normalization_v1_42[0][0]  
__________________________________________________________________________________________________
add_20 (Add)                    (None, 32, 32, 16)   0           re_lu_62[0][0]                   
                                                                 re_lu_60[0][0]                   
__________________________________________________________________________________________________
re_lu_63 (ReLU)                 (None, 32, 32, 16)   0           add_20[0][0]                     
__________________________________________________________________________________________________
conv2d_43 (Conv2D)              (None, 32, 32, 16)   2304        re_lu_63[0][0]                   
__________________________________________________________________________________________________
batch_normalization_v1_43 (Batc (None, 32, 32, 16)   64          conv2d_43[0][0]                  
__________________________________________________________________________________________________
re_lu_64 (ReLU)                 (None, 32, 32, 16)   0           batch_normalization_v1_43[0][0]  
__________________________________________________________________________________________________
conv2d_44 (Conv2D)              (None, 32, 32, 16)   2304        re_lu_64[0][0]                   
__________________________________________________________________________________________________
batch_normalization_v1_44 (Batc (None, 32, 32, 16)   64          conv2d_44[0][0]                  
__________________________________________________________________________________________________
re_lu_65 (ReLU)                 (None, 32, 32, 16)   0           batch_normalization_v1_44[0][0]  
__________________________________________________________________________________________________
add_21 (Add)                    (None, 32, 32, 16)   0           re_lu_65[0][0]                   
                                                                 re_lu_63[0][0]                   
__________________________________________________________________________________________________
re_lu_66 (ReLU)                 (None, 32, 32, 16)   0           add_21[0][0]                     
__________________________________________________________________________________________________
conv2d_45 (Conv2D)              (None, 32, 32, 16)   2304        re_lu_66[0][0]                   
__________________________________________________________________________________________________
batch_normalization_v1_45 (Batc (None, 32, 32, 16)   64          conv2d_45[0][0]                  
__________________________________________________________________________________________________
re_lu_67 (ReLU)                 (None, 32, 32, 16)   0           batch_normalization_v1_45[0][0]  
__________________________________________________________________________________________________
conv2d_46 (Conv2D)              (None, 32, 32, 16)   2304        re_lu_67[0][0]                   
__________________________________________________________________________________________________
batch_normalization_v1_46 (Batc (None, 32, 32, 16)   64          conv2d_46[0][0]                  
__________________________________________________________________________________________________
re_lu_68 (ReLU)                 (None, 32, 32, 16)   0           batch_normalization_v1_46[0][0]  
__________________________________________________________________________________________________
add_22 (Add)                    (None, 32, 32, 16)   0           re_lu_68[0][0]                   
                                                                 re_lu_66[0][0]                   
__________________________________________________________________________________________________
re_lu_69 (ReLU)                 (None, 32, 32, 16)   0           add_22[0][0]                     
__________________________________________________________________________________________________
conv2d_47 (Conv2D)              (None, 32, 32, 16)   2304        re_lu_69[0][0]                   
__________________________________________________________________________________________________
batch_normalization_v1_47 (Batc (None, 32, 32, 16)   64          conv2d_47[0][0]                  
__________________________________________________________________________________________________
re_lu_70 (ReLU)                 (None, 32, 32, 16)   0           batch_normalization_v1_47[0][0]  
__________________________________________________________________________________________________
conv2d_48 (Conv2D)              (None, 32, 32, 16)   2304        re_lu_70[0][0]                   
__________________________________________________________________________________________________
batch_normalization_v1_48 (Batc (None, 32, 32, 16)   64          conv2d_48[0][0]                  
__________________________________________________________________________________________________
re_lu_71 (ReLU)                 (None, 32, 32, 16)   0           batch_normalization_v1_48[0][0]  
__________________________________________________________________________________________________
add_23 (Add)                    (None, 32, 32, 16)   0           re_lu_71[0][0]                   
                                                                 re_lu_69[0][0]                   
__________________________________________________________________________________________________
re_lu_72 (ReLU)                 (None, 32, 32, 16)   0           add_23[0][0]                     
__________________________________________________________________________________________________
conv2d_49 (Conv2D)              (None, 32, 32, 16)   2304        re_lu_72[0][0]                   
__________________________________________________________________________________________________
batch_normalization_v1_49 (Batc (None, 32, 32, 16)   64          conv2d_49[0][0]                  
__________________________________________________________________________________________________
re_lu_73 (ReLU)                 (None, 32, 32, 16)   0           batch_normalization_v1_49[0][0]  
__________________________________________________________________________________________________
conv2d_50 (Conv2D)              (None, 32, 32, 16)   2304        re_lu_73[0][0]                   
__________________________________________________________________________________________________
batch_normalization_v1_50 (Batc (None, 32, 32, 16)   64          conv2d_50[0][0]                  
__________________________________________________________________________________________________
re_lu_74 (ReLU)                 (None, 32, 32, 16)   0           batch_normalization_v1_50[0][0]  
__________________________________________________________________________________________________
add_24 (Add)                    (None, 32, 32, 16)   0           re_lu_74[0][0]                   
                                                                 re_lu_72[0][0]                   
__________________________________________________________________________________________________
re_lu_75 (ReLU)                 (None, 32, 32, 16)   0           add_24[0][0]                     
__________________________________________________________________________________________________
conv2d_51 (Conv2D)              (None, 32, 32, 16)   2304        re_lu_75[0][0]                   
__________________________________________________________________________________________________
batch_normalization_v1_51 (Batc (None, 32, 32, 16)   64          conv2d_51[0][0]                  
__________________________________________________________________________________________________
re_lu_76 (ReLU)                 (None, 32, 32, 16)   0           batch_normalization_v1_51[0][0]  
__________________________________________________________________________________________________
conv2d_52 (Conv2D)              (None, 32, 32, 16)   2304        re_lu_76[0][0]                   
__________________________________________________________________________________________________
batch_normalization_v1_52 (Batc (None, 32, 32, 16)   64          conv2d_52[0][0]                  
__________________________________________________________________________________________________
re_lu_77 (ReLU)                 (None, 32, 32, 16)   0           batch_normalization_v1_52[0][0]  
__________________________________________________________________________________________________
add_25 (Add)                    (None, 32, 32, 16)   0           re_lu_77[0][0]                   
                                                                 re_lu_75[0][0]                   
__________________________________________________________________________________________________
re_lu_78 (ReLU)                 (None, 32, 32, 16)   0           add_25[0][0]                     
__________________________________________________________________________________________________
conv2d_53 (Conv2D)              (None, 32, 32, 16)   2304        re_lu_78[0][0]                   
__________________________________________________________________________________________________
batch_normalization_v1_53 (Batc (None, 32, 32, 16)   64          conv2d_53[0][0]                  
__________________________________________________________________________________________________
re_lu_79 (ReLU)                 (None, 32, 32, 16)   0           batch_normalization_v1_53[0][0]  
__________________________________________________________________________________________________
conv2d_54 (Conv2D)              (None, 32, 32, 16)   2304        re_lu_79[0][0]                   
__________________________________________________________________________________________________
batch_normalization_v1_54 (Batc (None, 32, 32, 16)   64          conv2d_54[0][0]                  
__________________________________________________________________________________________________
re_lu_80 (ReLU)                 (None, 32, 32, 16)   0           batch_normalization_v1_54[0][0]  
__________________________________________________________________________________________________
add_26 (Add)                    (None, 32, 32, 16)   0           re_lu_80[0][0]                   
                                                                 re_lu_78[0][0]                   
__________________________________________________________________________________________________
re_lu_81 (ReLU)                 (None, 32, 32, 16)   0           add_26[0][0]                     
__________________________________________________________________________________________________
conv2d_55 (Conv2D)              (None, 32, 32, 16)   2304        re_lu_81[0][0]                   
__________________________________________________________________________________________________
batch_normalization_v1_55 (Batc (None, 32, 32, 16)   64          conv2d_55[0][0]                  
__________________________________________________________________________________________________
re_lu_82 (ReLU)                 (None, 32, 32, 16)   0           batch_normalization_v1_55[0][0]  
__________________________________________________________________________________________________
conv2d_56 (Conv2D)              (None, 32, 32, 16)   2304        re_lu_82[0][0]                   
__________________________________________________________________________________________________
batch_normalization_v1_56 (Batc (None, 32, 32, 16)   64          conv2d_56[0][0]                  
__________________________________________________________________________________________________
re_lu_83 (ReLU)                 (None, 32, 32, 16)   0           batch_normalization_v1_56[0][0]  
__________________________________________________________________________________________________
add_27 (Add)                    (None, 32, 32, 16)   0           re_lu_83[0][0]                   
                                                                 re_lu_81[0][0]                   
__________________________________________________________________________________________________
re_lu_84 (ReLU)                 (None, 32, 32, 16)   0           add_27[0][0]                     
__________________________________________________________________________________________________
conv2d_57 (Conv2D)              (None, 32, 32, 16)   2304        re_lu_84[0][0]                   
__________________________________________________________________________________________________
batch_normalization_v1_57 (Batc (None, 32, 32, 16)   64          conv2d_57[0][0]                  
__________________________________________________________________________________________________
re_lu_85 (ReLU)                 (None, 32, 32, 16)   0           batch_normalization_v1_57[0][0]  
__________________________________________________________________________________________________
conv2d_58 (Conv2D)              (None, 32, 32, 16)   2304        re_lu_85[0][0]                   
__________________________________________________________________________________________________
batch_normalization_v1_58 (Batc (None, 32, 32, 16)   64          conv2d_58[0][0]                  
__________________________________________________________________________________________________
re_lu_86 (ReLU)                 (None, 32, 32, 16)   0           batch_normalization_v1_58[0][0]  
__________________________________________________________________________________________________
add_28 (Add)                    (None, 32, 32, 16)   0           re_lu_86[0][0]                   
                                                                 re_lu_84[0][0]                   
__________________________________________________________________________________________________
re_lu_87 (ReLU)                 (None, 32, 32, 16)   0           add_28[0][0]                     
__________________________________________________________________________________________________
conv2d_59 (Conv2D)              (None, 32, 32, 16)   2304        re_lu_87[0][0]                   
__________________________________________________________________________________________________
batch_normalization_v1_59 (Batc (None, 32, 32, 16)   64          conv2d_59[0][0]                  
__________________________________________________________________________________________________
re_lu_88 (ReLU)                 (None, 32, 32, 16)   0           batch_normalization_v1_59[0][0]  
__________________________________________________________________________________________________
conv2d_60 (Conv2D)              (None, 32, 32, 16)   2304        re_lu_88[0][0]                   
__________________________________________________________________________________________________
batch_normalization_v1_60 (Batc (None, 32, 32, 16)   64          conv2d_60[0][0]                  
__________________________________________________________________________________________________
re_lu_89 (ReLU)                 (None, 32, 32, 16)   0           batch_normalization_v1_60[0][0]  
__________________________________________________________________________________________________
add_29 (Add)                    (None, 32, 32, 16)   0           re_lu_89[0][0]                   
                                                                 re_lu_87[0][0]                   
__________________________________________________________________________________________________
re_lu_90 (ReLU)                 (None, 32, 32, 16)   0           add_29[0][0]                     
__________________________________________________________________________________________________
conv2d_61 (Conv2D)              (None, 32, 32, 16)   2304        re_lu_90[0][0]                   
__________________________________________________________________________________________________
batch_normalization_v1_61 (Batc (None, 32, 32, 16)   64          conv2d_61[0][0]                  
__________________________________________________________________________________________________
re_lu_91 (ReLU)                 (None, 32, 32, 16)   0           batch_normalization_v1_61[0][0]  
__________________________________________________________________________________________________
conv2d_62 (Conv2D)              (None, 32, 32, 16)   2304        re_lu_91[0][0]                   
__________________________________________________________________________________________________
batch_normalization_v1_62 (Batc (None, 32, 32, 16)   64          conv2d_62[0][0]                  
__________________________________________________________________________________________________
re_lu_92 (ReLU)                 (None, 32, 32, 16)   0           batch_normalization_v1_62[0][0]  
__________________________________________________________________________________________________
add_30 (Add)                    (None, 32, 32, 16)   0           re_lu_92[0][0]                   
                                                                 re_lu_90[0][0]                   
__________________________________________________________________________________________________
re_lu_93 (ReLU)                 (None, 32, 32, 16)   0           add_30[0][0]                     
__________________________________________________________________________________________________
conv2d_63 (Conv2D)              (None, 32, 32, 16)   2304        re_lu_93[0][0]                   
__________________________________________________________________________________________________
batch_normalization_v1_63 (Batc (None, 32, 32, 16)   64          conv2d_63[0][0]                  
__________________________________________________________________________________________________
re_lu_94 (ReLU)                 (None, 32, 32, 16)   0           batch_normalization_v1_63[0][0]  
__________________________________________________________________________________________________
conv2d_64 (Conv2D)              (None, 32, 32, 16)   2304        re_lu_94[0][0]                   
__________________________________________________________________________________________________
batch_normalization_v1_64 (Batc (None, 32, 32, 16)   64          conv2d_64[0][0]                  
__________________________________________________________________________________________________
re_lu_95 (ReLU)                 (None, 32, 32, 16)   0           batch_normalization_v1_64[0][0]  
__________________________________________________________________________________________________
add_31 (Add)                    (None, 32, 32, 16)   0           re_lu_95[0][0]                   
                                                                 re_lu_93[0][0]                   
__________________________________________________________________________________________________
re_lu_96 (ReLU)                 (None, 32, 32, 16)   0           add_31[0][0]                     
__________________________________________________________________________________________________
conv2d_65 (Conv2D)              (None, 32, 32, 16)   2304        re_lu_96[0][0]                   
__________________________________________________________________________________________________
batch_normalization_v1_65 (Batc (None, 32, 32, 16)   64          conv2d_65[0][0]                  
__________________________________________________________________________________________________
re_lu_97 (ReLU)                 (None, 32, 32, 16)   0           batch_normalization_v1_65[0][0]  
__________________________________________________________________________________________________
conv2d_66 (Conv2D)              (None, 32, 32, 16)   2304        re_lu_97[0][0]                   
__________________________________________________________________________________________________
batch_normalization_v1_66 (Batc (None, 32, 32, 16)   64          conv2d_66[0][0]                  
__________________________________________________________________________________________________
re_lu_98 (ReLU)                 (None, 32, 32, 16)   0           batch_normalization_v1_66[0][0]  
__________________________________________________________________________________________________
add_32 (Add)                    (None, 32, 32, 16)   0           re_lu_98[0][0]                   
                                                                 re_lu_96[0][0]                   
__________________________________________________________________________________________________
re_lu_99 (ReLU)                 (None, 32, 32, 16)   0           add_32[0][0]                     
__________________________________________________________________________________________________
conv2d_67 (Conv2D)              (None, 32, 32, 16)   2304        re_lu_99[0][0]                   
__________________________________________________________________________________________________
batch_normalization_v1_67 (Batc (None, 32, 32, 16)   64          conv2d_67[0][0]                  
__________________________________________________________________________________________________
re_lu_100 (ReLU)                (None, 32, 32, 16)   0           batch_normalization_v1_67[0][0]  
__________________________________________________________________________________________________
conv2d_68 (Conv2D)              (None, 32, 32, 16)   2304        re_lu_100[0][0]                  
__________________________________________________________________________________________________
batch_normalization_v1_68 (Batc (None, 32, 32, 16)   64          conv2d_68[0][0]                  
__________________________________________________________________________________________________
re_lu_101 (ReLU)                (None, 32, 32, 16)   0           batch_normalization_v1_68[0][0]  
__________________________________________________________________________________________________
add_33 (Add)                    (None, 32, 32, 16)   0           re_lu_101[0][0]                  
                                                                 re_lu_99[0][0]                   
__________________________________________________________________________________________________
re_lu_102 (ReLU)                (None, 32, 32, 16)   0           add_33[0][0]                     
__________________________________________________________________________________________________
conv2d_69 (Conv2D)              (None, 32, 32, 16)   2304        re_lu_102[0][0]                  
__________________________________________________________________________________________________
batch_normalization_v1_69 (Batc (None, 32, 32, 16)   64          conv2d_69[0][0]                  
__________________________________________________________________________________________________
re_lu_103 (ReLU)                (None, 32, 32, 16)   0           batch_normalization_v1_69[0][0]  
__________________________________________________________________________________________________
conv2d_70 (Conv2D)              (None, 32, 32, 16)   2304        re_lu_103[0][0]                  
__________________________________________________________________________________________________
batch_normalization_v1_70 (Batc (None, 32, 32, 16)   64          conv2d_70[0][0]                  
__________________________________________________________________________________________________
re_lu_104 (ReLU)                (None, 32, 32, 16)   0           batch_normalization_v1_70[0][0]  
__________________________________________________________________________________________________
add_34 (Add)                    (None, 32, 32, 16)   0           re_lu_104[0][0]                  
                                                                 re_lu_102[0][0]                  
__________________________________________________________________________________________________
re_lu_105 (ReLU)                (None, 32, 32, 16)   0           add_34[0][0]                     
__________________________________________________________________________________________________
conv2d_71 (Conv2D)              (None, 32, 32, 16)   2304        re_lu_105[0][0]                  
__________________________________________________________________________________________________
batch_normalization_v1_71 (Batc (None, 32, 32, 16)   64          conv2d_71[0][0]                  
__________________________________________________________________________________________________
re_lu_106 (ReLU)                (None, 32, 32, 16)   0           batch_normalization_v1_71[0][0]  
__________________________________________________________________________________________________
conv2d_72 (Conv2D)              (None, 32, 32, 16)   2304        re_lu_106[0][0]                  
__________________________________________________________________________________________________
batch_normalization_v1_72 (Batc (None, 32, 32, 16)   64          conv2d_72[0][0]                  
__________________________________________________________________________________________________
re_lu_107 (ReLU)                (None, 32, 32, 16)   0           batch_normalization_v1_72[0][0]  
__________________________________________________________________________________________________
add_35 (Add)                    (None, 32, 32, 16)   0           re_lu_107[0][0]                  
                                                                 re_lu_105[0][0]                  
__________________________________________________________________________________________________
re_lu_108 (ReLU)                (None, 32, 32, 16)   0           add_35[0][0]                     
__________________________________________________________________________________________________
conv2d_73 (Conv2D)              (None, 32, 32, 16)   2304        re_lu_108[0][0]                  
__________________________________________________________________________________________________
batch_normalization_v1_73 (Batc (None, 32, 32, 16)   64          conv2d_73[0][0]                  
__________________________________________________________________________________________________
re_lu_109 (ReLU)                (None, 32, 32, 16)   0           batch_normalization_v1_73[0][0]  
__________________________________________________________________________________________________
conv2d_74 (Conv2D)              (None, 32, 32, 16)   2304        re_lu_109[0][0]                  
__________________________________________________________________________________________________
batch_normalization_v1_74 (Batc (None, 32, 32, 16)   64          conv2d_74[0][0]                  
__________________________________________________________________________________________________
re_lu_110 (ReLU)                (None, 32, 32, 16)   0           batch_normalization_v1_74[0][0]  
__________________________________________________________________________________________________
add_36 (Add)                    (None, 32, 32, 16)   0           re_lu_110[0][0]                  
                                                                 re_lu_108[0][0]                  
__________________________________________________________________________________________________
re_lu_111 (ReLU)                (None, 32, 32, 16)   0           add_36[0][0]                     
__________________________________________________________________________________________________
conv2d_75 (Conv2D)              (None, 32, 32, 16)   2304        re_lu_111[0][0]                  
__________________________________________________________________________________________________
batch_normalization_v1_75 (Batc (None, 32, 32, 16)   64          conv2d_75[0][0]                  
__________________________________________________________________________________________________
re_lu_112 (ReLU)                (None, 32, 32, 16)   0           batch_normalization_v1_75[0][0]  
__________________________________________________________________________________________________
conv2d_76 (Conv2D)              (None, 32, 32, 16)   2304        re_lu_112[0][0]                  
__________________________________________________________________________________________________
batch_normalization_v1_76 (Batc (None, 32, 32, 16)   64          conv2d_76[0][0]                  
__________________________________________________________________________________________________
re_lu_113 (ReLU)                (None, 32, 32, 16)   0           batch_normalization_v1_76[0][0]  
__________________________________________________________________________________________________
add_37 (Add)                    (None, 32, 32, 16)   0           re_lu_113[0][0]                  
                                                                 re_lu_111[0][0]                  
__________________________________________________________________________________________________
re_lu_114 (ReLU)                (None, 32, 32, 16)   0           add_37[0][0]                     
__________________________________________________________________________________________________
conv2d_77 (Conv2D)              (None, 32, 32, 16)   2304        re_lu_114[0][0]                  
__________________________________________________________________________________________________
batch_normalization_v1_77 (Batc (None, 32, 32, 16)   64          conv2d_77[0][0]                  
__________________________________________________________________________________________________
re_lu_115 (ReLU)                (None, 32, 32, 16)   0           batch_normalization_v1_77[0][0]  
__________________________________________________________________________________________________
conv2d_78 (Conv2D)              (None, 32, 32, 16)   2304        re_lu_115[0][0]                  
__________________________________________________________________________________________________
batch_normalization_v1_78 (Batc (None, 32, 32, 16)   64          conv2d_78[0][0]                  
__________________________________________________________________________________________________
re_lu_116 (ReLU)                (None, 32, 32, 16)   0           batch_normalization_v1_78[0][0]  
__________________________________________________________________________________________________
add_38 (Add)                    (None, 32, 32, 16)   0           re_lu_116[0][0]                  
                                                                 re_lu_114[0][0]                  
__________________________________________________________________________________________________
re_lu_117 (ReLU)                (None, 32, 32, 16)   0           add_38[0][0]                     
__________________________________________________________________________________________________
conv2d_79 (Conv2D)              (None, 32, 32, 16)   2304        re_lu_117[0][0]                  
__________________________________________________________________________________________________
batch_normalization_v1_79 (Batc (None, 32, 32, 16)   64          conv2d_79[0][0]                  
__________________________________________________________________________________________________
re_lu_118 (ReLU)                (None, 32, 32, 16)   0           batch_normalization_v1_79[0][0]  
__________________________________________________________________________________________________
conv2d_80 (Conv2D)              (None, 32, 32, 16)   2304        re_lu_118[0][0]                  
__________________________________________________________________________________________________
batch_normalization_v1_80 (Batc (None, 32, 32, 16)   64          conv2d_80[0][0]                  
__________________________________________________________________________________________________
re_lu_119 (ReLU)                (None, 32, 32, 16)   0           batch_normalization_v1_80[0][0]  
__________________________________________________________________________________________________
add_39 (Add)                    (None, 32, 32, 16)   0           re_lu_119[0][0]                  
                                                                 re_lu_117[0][0]                  
__________________________________________________________________________________________________
re_lu_120 (ReLU)                (None, 32, 32, 16)   0           add_39[0][0]                     
__________________________________________________________________________________________________
conv2d_81 (Conv2D)              (None, 32, 32, 16)   2304        re_lu_120[0][0]                  
__________________________________________________________________________________________________
batch_normalization_v1_81 (Batc (None, 32, 32, 16)   64          conv2d_81[0][0]                  
__________________________________________________________________________________________________
re_lu_121 (ReLU)                (None, 32, 32, 16)   0           batch_normalization_v1_81[0][0]  
__________________________________________________________________________________________________
conv2d_82 (Conv2D)              (None, 32, 32, 16)   2304        re_lu_121[0][0]                  
__________________________________________________________________________________________________
batch_normalization_v1_82 (Batc (None, 32, 32, 16)   64          conv2d_82[0][0]                  
__________________________________________________________________________________________________
re_lu_122 (ReLU)                (None, 32, 32, 16)   0           batch_normalization_v1_82[0][0]  
__________________________________________________________________________________________________
add_40 (Add)                    (None, 32, 32, 16)   0           re_lu_122[0][0]                  
                                                                 re_lu_120[0][0]                  
__________________________________________________________________________________________________
re_lu_123 (ReLU)                (None, 32, 32, 16)   0           add_40[0][0]                     
__________________________________________________________________________________________________
conv2d_83 (Conv2D)              (None, 32, 32, 16)   2304        re_lu_123[0][0]                  
__________________________________________________________________________________________________
batch_normalization_v1_83 (Batc (None, 32, 32, 16)   64          conv2d_83[0][0]                  
__________________________________________________________________________________________________
re_lu_124 (ReLU)                (None, 32, 32, 16)   0           batch_normalization_v1_83[0][0]  
__________________________________________________________________________________________________
conv2d_84 (Conv2D)              (None, 32, 32, 16)   2304        re_lu_124[0][0]                  
__________________________________________________________________________________________________
batch_normalization_v1_84 (Batc (None, 32, 32, 16)   64          conv2d_84[0][0]                  
__________________________________________________________________________________________________
re_lu_125 (ReLU)                (None, 32, 32, 16)   0           batch_normalization_v1_84[0][0]  
__________________________________________________________________________________________________
add_41 (Add)                    (None, 32, 32, 16)   0           re_lu_125[0][0]                  
                                                                 re_lu_123[0][0]                  
__________________________________________________________________________________________________
re_lu_126 (ReLU)                (None, 32, 32, 16)   0           add_41[0][0]                     
__________________________________________________________________________________________________
conv2d_85 (Conv2D)              (None, 32, 32, 16)   2304        re_lu_126[0][0]                  
__________________________________________________________________________________________________
batch_normalization_v1_85 (Batc (None, 32, 32, 16)   64          conv2d_85[0][0]                  
__________________________________________________________________________________________________
re_lu_127 (ReLU)                (None, 32, 32, 16)   0           batch_normalization_v1_85[0][0]  
__________________________________________________________________________________________________
conv2d_86 (Conv2D)              (None, 32, 32, 16)   2304        re_lu_127[0][0]                  
__________________________________________________________________________________________________
batch_normalization_v1_86 (Batc (None, 32, 32, 16)   64          conv2d_86[0][0]                  
__________________________________________________________________________________________________
re_lu_128 (ReLU)                (None, 32, 32, 16)   0           batch_normalization_v1_86[0][0]  
__________________________________________________________________________________________________
add_42 (Add)                    (None, 32, 32, 16)   0           re_lu_128[0][0]                  
                                                                 re_lu_126[0][0]                  
__________________________________________________________________________________________________
re_lu_129 (ReLU)                (None, 32, 32, 16)   0           add_42[0][0]                     
__________________________________________________________________________________________________
conv2d_87 (Conv2D)              (None, 32, 32, 16)   2304        re_lu_129[0][0]                  
__________________________________________________________________________________________________
batch_normalization_v1_87 (Batc (None, 32, 32, 16)   64          conv2d_87[0][0]                  
__________________________________________________________________________________________________
re_lu_130 (ReLU)                (None, 32, 32, 16)   0           batch_normalization_v1_87[0][0]  
__________________________________________________________________________________________________
conv2d_88 (Conv2D)              (None, 32, 32, 16)   2304        re_lu_130[0][0]                  
__________________________________________________________________________________________________
batch_normalization_v1_88 (Batc (None, 32, 32, 16)   64          conv2d_88[0][0]                  
__________________________________________________________________________________________________
re_lu_131 (ReLU)                (None, 32, 32, 16)   0           batch_normalization_v1_88[0][0]  
__________________________________________________________________________________________________
add_43 (Add)                    (None, 32, 32, 16)   0           re_lu_131[0][0]                  
                                                                 re_lu_129[0][0]                  
__________________________________________________________________________________________________
re_lu_132 (ReLU)                (None, 32, 32, 16)   0           add_43[0][0]                     
__________________________________________________________________________________________________
conv2d_89 (Conv2D)              (None, 32, 32, 16)   2304        re_lu_132[0][0]                  
__________________________________________________________________________________________________
batch_normalization_v1_89 (Batc (None, 32, 32, 16)   64          conv2d_89[0][0]                  
__________________________________________________________________________________________________
re_lu_133 (ReLU)                (None, 32, 32, 16)   0           batch_normalization_v1_89[0][0]  
__________________________________________________________________________________________________
conv2d_90 (Conv2D)              (None, 32, 32, 16)   2304        re_lu_133[0][0]                  
__________________________________________________________________________________________________
batch_normalization_v1_90 (Batc (None, 32, 32, 16)   64          conv2d_90[0][0]                  
__________________________________________________________________________________________________
re_lu_134 (ReLU)                (None, 32, 32, 16)   0           batch_normalization_v1_90[0][0]  
__________________________________________________________________________________________________
add_44 (Add)                    (None, 32, 32, 16)   0           re_lu_134[0][0]                  
                                                                 re_lu_132[0][0]                  
__________________________________________________________________________________________________
re_lu_135 (ReLU)                (None, 32, 32, 16)   0           add_44[0][0]                     
__________________________________________________________________________________________________
conv2d_91 (Conv2D)              (None, 32, 32, 16)   2304        re_lu_135[0][0]                  
__________________________________________________________________________________________________
batch_normalization_v1_91 (Batc (None, 32, 32, 16)   64          conv2d_91[0][0]                  
__________________________________________________________________________________________________
re_lu_136 (ReLU)                (None, 32, 32, 16)   0           batch_normalization_v1_91[0][0]  
__________________________________________________________________________________________________
conv2d_92 (Conv2D)              (None, 32, 32, 16)   2304        re_lu_136[0][0]                  
__________________________________________________________________________________________________
batch_normalization_v1_92 (Batc (None, 32, 32, 16)   64          conv2d_92[0][0]                  
__________________________________________________________________________________________________
re_lu_137 (ReLU)                (None, 32, 32, 16)   0           batch_normalization_v1_92[0][0]  
__________________________________________________________________________________________________
add_45 (Add)                    (None, 32, 32, 16)   0           re_lu_137[0][0]                  
                                                                 re_lu_135[0][0]                  
__________________________________________________________________________________________________
re_lu_138 (ReLU)                (None, 32, 32, 16)   0           add_45[0][0]                     
__________________________________________________________________________________________________
conv2d_93 (Conv2D)              (None, 32, 32, 16)   2304        re_lu_138[0][0]                  
__________________________________________________________________________________________________
batch_normalization_v1_93 (Batc (None, 32, 32, 16)   64          conv2d_93[0][0]                  
__________________________________________________________________________________________________
re_lu_139 (ReLU)                (None, 32, 32, 16)   0           batch_normalization_v1_93[0][0]  
__________________________________________________________________________________________________
conv2d_94 (Conv2D)              (None, 32, 32, 16)   2304        re_lu_139[0][0]                  
__________________________________________________________________________________________________
batch_normalization_v1_94 (Batc (None, 32, 32, 16)   64          conv2d_94[0][0]                  
__________________________________________________________________________________________________
re_lu_140 (ReLU)                (None, 32, 32, 16)   0           batch_normalization_v1_94[0][0]  
__________________________________________________________________________________________________
add_46 (Add)                    (None, 32, 32, 16)   0           re_lu_140[0][0]                  
                                                                 re_lu_138[0][0]                  
__________________________________________________________________________________________________
re_lu_141 (ReLU)                (None, 32, 32, 16)   0           add_46[0][0]                     
__________________________________________________________________________________________________
conv2d_95 (Conv2D)              (None, 32, 32, 16)   2304        re_lu_141[0][0]                  
__________________________________________________________________________________________________
batch_normalization_v1_95 (Batc (None, 32, 32, 16)   64          conv2d_95[0][0]                  
__________________________________________________________________________________________________
re_lu_142 (ReLU)                (None, 32, 32, 16)   0           batch_normalization_v1_95[0][0]  
__________________________________________________________________________________________________
conv2d_96 (Conv2D)              (None, 32, 32, 16)   2304        re_lu_142[0][0]                  
__________________________________________________________________________________________________
batch_normalization_v1_96 (Batc (None, 32, 32, 16)   64          conv2d_96[0][0]                  
__________________________________________________________________________________________________
re_lu_143 (ReLU)                (None, 32, 32, 16)   0           batch_normalization_v1_96[0][0]  
__________________________________________________________________________________________________
add_47 (Add)                    (None, 32, 32, 16)   0           re_lu_143[0][0]                  
                                                                 re_lu_141[0][0]                  
__________________________________________________________________________________________________
re_lu_144 (ReLU)                (None, 32, 32, 16)   0           add_47[0][0]                     
__________________________________________________________________________________________________
conv2d_97 (Conv2D)              (None, 32, 32, 16)   2304        re_lu_144[0][0]                  
__________________________________________________________________________________________________
batch_normalization_v1_97 (Batc (None, 32, 32, 16)   64          conv2d_97[0][0]                  
__________________________________________________________________________________________________
re_lu_145 (ReLU)                (None, 32, 32, 16)   0           batch_normalization_v1_97[0][0]  
__________________________________________________________________________________________________
conv2d_98 (Conv2D)              (None, 32, 32, 16)   2304        re_lu_145[0][0]                  
__________________________________________________________________________________________________
batch_normalization_v1_98 (Batc (None, 32, 32, 16)   64          conv2d_98[0][0]                  
__________________________________________________________________________________________________
re_lu_146 (ReLU)                (None, 32, 32, 16)   0           batch_normalization_v1_98[0][0]  
__________________________________________________________________________________________________
add_48 (Add)                    (None, 32, 32, 16)   0           re_lu_146[0][0]                  
                                                                 re_lu_144[0][0]                  
__________________________________________________________________________________________________
re_lu_147 (ReLU)                (None, 32, 32, 16)   0           add_48[0][0]                     
__________________________________________________________________________________________________
conv2d_99 (Conv2D)              (None, 32, 32, 16)   2304        re_lu_147[0][0]                  
__________________________________________________________________________________________________
batch_normalization_v1_99 (Batc (None, 32, 32, 16)   64          conv2d_99[0][0]                  
__________________________________________________________________________________________________
re_lu_148 (ReLU)                (None, 32, 32, 16)   0           batch_normalization_v1_99[0][0]  
__________________________________________________________________________________________________
conv2d_100 (Conv2D)             (None, 32, 32, 16)   2304        re_lu_148[0][0]                  
__________________________________________________________________________________________________
batch_normalization_v1_100 (Bat (None, 32, 32, 16)   64          conv2d_100[0][0]                 
__________________________________________________________________________________________________
re_lu_149 (ReLU)                (None, 32, 32, 16)   0           batch_normalization_v1_100[0][0] 
__________________________________________________________________________________________________
add_49 (Add)                    (None, 32, 32, 16)   0           re_lu_149[0][0]                  
                                                                 re_lu_147[0][0]                  
__________________________________________________________________________________________________
re_lu_150 (ReLU)                (None, 32, 32, 16)   0           add_49[0][0]                     
__________________________________________________________________________________________________
conv2d_101 (Conv2D)             (None, 32, 32, 16)   2304        re_lu_150[0][0]                  
__________________________________________________________________________________________________
batch_normalization_v1_101 (Bat (None, 32, 32, 16)   64          conv2d_101[0][0]                 
__________________________________________________________________________________________________
re_lu_151 (ReLU)                (None, 32, 32, 16)   0           batch_normalization_v1_101[0][0] 
__________________________________________________________________________________________________
conv2d_102 (Conv2D)             (None, 32, 32, 16)   2304        re_lu_151[0][0]                  
__________________________________________________________________________________________________
batch_normalization_v1_102 (Bat (None, 32, 32, 16)   64          conv2d_102[0][0]                 
__________________________________________________________________________________________________
re_lu_152 (ReLU)                (None, 32, 32, 16)   0           batch_normalization_v1_102[0][0] 
__________________________________________________________________________________________________
add_50 (Add)                    (None, 32, 32, 16)   0           re_lu_152[0][0]                  
                                                                 re_lu_150[0][0]                  
__________________________________________________________________________________________________
re_lu_153 (ReLU)                (None, 32, 32, 16)   0           add_50[0][0]                     
__________________________________________________________________________________________________
conv2d_103 (Conv2D)             (None, 32, 32, 16)   2304        re_lu_153[0][0]                  
__________________________________________________________________________________________________
batch_normalization_v1_103 (Bat (None, 32, 32, 16)   64          conv2d_103[0][0]                 
__________________________________________________________________________________________________
re_lu_154 (ReLU)                (None, 32, 32, 16)   0           batch_normalization_v1_103[0][0] 
__________________________________________________________________________________________________
conv2d_104 (Conv2D)             (None, 32, 32, 16)   2304        re_lu_154[0][0]                  
__________________________________________________________________________________________________
batch_normalization_v1_104 (Bat (None, 32, 32, 16)   64          conv2d_104[0][0]                 
__________________________________________________________________________________________________
re_lu_155 (ReLU)                (None, 32, 32, 16)   0           batch_normalization_v1_104[0][0] 
__________________________________________________________________________________________________
add_51 (Add)                    (None, 32, 32, 16)   0           re_lu_155[0][0]                  
                                                                 re_lu_153[0][0]                  
__________________________________________________________________________________________________
re_lu_156 (ReLU)                (None, 32, 32, 16)   0           add_51[0][0]                     
__________________________________________________________________________________________________
conv2d_105 (Conv2D)             (None, 32, 32, 16)   2304        re_lu_156[0][0]                  
__________________________________________________________________________________________________
batch_normalization_v1_105 (Bat (None, 32, 32, 16)   64          conv2d_105[0][0]                 
__________________________________________________________________________________________________
re_lu_157 (ReLU)                (None, 32, 32, 16)   0           batch_normalization_v1_105[0][0] 
__________________________________________________________________________________________________
conv2d_106 (Conv2D)             (None, 32, 32, 16)   2304        re_lu_157[0][0]                  
__________________________________________________________________________________________________
batch_normalization_v1_106 (Bat (None, 32, 32, 16)   64          conv2d_106[0][0]                 
__________________________________________________________________________________________________
re_lu_158 (ReLU)                (None, 32, 32, 16)   0           batch_normalization_v1_106[0][0] 
__________________________________________________________________________________________________
add_52 (Add)                    (None, 32, 32, 16)   0           re_lu_158[0][0]                  
                                                                 re_lu_156[0][0]                  
__________________________________________________________________________________________________
re_lu_159 (ReLU)                (None, 32, 32, 16)   0           add_52[0][0]                     
__________________________________________________________________________________________________
conv2d_107 (Conv2D)             (None, 32, 32, 16)   2304        re_lu_159[0][0]                  
__________________________________________________________________________________________________
batch_normalization_v1_107 (Bat (None, 32, 32, 16)   64          conv2d_107[0][0]                 
__________________________________________________________________________________________________
re_lu_160 (ReLU)                (None, 32, 32, 16)   0           batch_normalization_v1_107[0][0] 
__________________________________________________________________________________________________
conv2d_108 (Conv2D)             (None, 32, 32, 16)   2304        re_lu_160[0][0]                  
__________________________________________________________________________________________________
batch_normalization_v1_108 (Bat (None, 32, 32, 16)   64          conv2d_108[0][0]                 
__________________________________________________________________________________________________
re_lu_161 (ReLU)                (None, 32, 32, 16)   0           batch_normalization_v1_108[0][0] 
__________________________________________________________________________________________________
add_53 (Add)                    (None, 32, 32, 16)   0           re_lu_161[0][0]                  
                                                                 re_lu_159[0][0]                  
__________________________________________________________________________________________________
re_lu_162 (ReLU)                (None, 32, 32, 16)   0           add_53[0][0]                     
__________________________________________________________________________________________________
conv2d_109 (Conv2D)             (None, 32, 32, 16)   2304        re_lu_162[0][0]                  
__________________________________________________________________________________________________
batch_normalization_v1_109 (Bat (None, 32, 32, 16)   64          conv2d_109[0][0]                 
__________________________________________________________________________________________________
re_lu_163 (ReLU)                (None, 32, 32, 16)   0           batch_normalization_v1_109[0][0] 
__________________________________________________________________________________________________
conv2d_110 (Conv2D)             (None, 32, 32, 16)   2304        re_lu_163[0][0]                  
__________________________________________________________________________________________________
batch_normalization_v1_110 (Bat (None, 32, 32, 16)   64          conv2d_110[0][0]                 
__________________________________________________________________________________________________
re_lu_164 (ReLU)                (None, 32, 32, 16)   0           batch_normalization_v1_110[0][0] 
__________________________________________________________________________________________________
add_54 (Add)                    (None, 32, 32, 16)   0           re_lu_164[0][0]                  
                                                                 re_lu_162[0][0]                  
__________________________________________________________________________________________________
re_lu_165 (ReLU)                (None, 32, 32, 16)   0           add_54[0][0]                     
__________________________________________________________________________________________________
conv2d_111 (Conv2D)             (None, 32, 32, 16)   2304        re_lu_165[0][0]                  
__________________________________________________________________________________________________
batch_normalization_v1_111 (Bat (None, 32, 32, 16)   64          conv2d_111[0][0]                 
__________________________________________________________________________________________________
re_lu_166 (ReLU)                (None, 32, 32, 16)   0           batch_normalization_v1_111[0][0] 
__________________________________________________________________________________________________
conv2d_112 (Conv2D)             (None, 32, 32, 16)   2304        re_lu_166[0][0]                  
__________________________________________________________________________________________________
batch_normalization_v1_112 (Bat (None, 32, 32, 16)   64          conv2d_112[0][0]                 
__________________________________________________________________________________________________
re_lu_167 (ReLU)                (None, 32, 32, 16)   0           batch_normalization_v1_112[0][0] 
__________________________________________________________________________________________________
add_55 (Add)                    (None, 32, 32, 16)   0           re_lu_167[0][0]                  
                                                                 re_lu_165[0][0]                  
__________________________________________________________________________________________________
re_lu_168 (ReLU)                (None, 32, 32, 16)   0           add_55[0][0]                     
__________________________________________________________________________________________________
conv2d_113 (Conv2D)             (None, 32, 32, 16)   2304        re_lu_168[0][0]                  
__________________________________________________________________________________________________
batch_normalization_v1_113 (Bat (None, 32, 32, 16)   64          conv2d_113[0][0]                 
__________________________________________________________________________________________________
re_lu_169 (ReLU)                (None, 32, 32, 16)   0           batch_normalization_v1_113[0][0] 
__________________________________________________________________________________________________
conv2d_114 (Conv2D)             (None, 32, 32, 16)   2304        re_lu_169[0][0]                  
__________________________________________________________________________________________________
batch_normalization_v1_114 (Bat (None, 32, 32, 16)   64          conv2d_114[0][0]                 
__________________________________________________________________________________________________
re_lu_170 (ReLU)                (None, 32, 32, 16)   0           batch_normalization_v1_114[0][0] 
__________________________________________________________________________________________________
add_56 (Add)                    (None, 32, 32, 16)   0           re_lu_170[0][0]                  
                                                                 re_lu_168[0][0]                  
__________________________________________________________________________________________________
re_lu_171 (ReLU)                (None, 32, 32, 16)   0           add_56[0][0]                     
__________________________________________________________________________________________________
conv2d_115 (Conv2D)             (None, 32, 32, 16)   2304        re_lu_171[0][0]                  
__________________________________________________________________________________________________
batch_normalization_v1_115 (Bat (None, 32, 32, 16)   64          conv2d_115[0][0]                 
__________________________________________________________________________________________________
re_lu_172 (ReLU)                (None, 32, 32, 16)   0           batch_normalization_v1_115[0][0] 
__________________________________________________________________________________________________
conv2d_116 (Conv2D)             (None, 32, 32, 16)   2304        re_lu_172[0][0]                  
__________________________________________________________________________________________________
batch_normalization_v1_116 (Bat (None, 32, 32, 16)   64          conv2d_116[0][0]                 
__________________________________________________________________________________________________
re_lu_173 (ReLU)                (None, 32, 32, 16)   0           batch_normalization_v1_116[0][0] 
__________________________________________________________________________________________________
add_57 (Add)                    (None, 32, 32, 16)   0           re_lu_173[0][0]                  
                                                                 re_lu_171[0][0]                  
__________________________________________________________________________________________________
re_lu_174 (ReLU)                (None, 32, 32, 16)   0           add_57[0][0]                     
__________________________________________________________________________________________________
conv2d_117 (Conv2D)             (None, 32, 32, 16)   2304        re_lu_174[0][0]                  
__________________________________________________________________________________________________
batch_normalization_v1_117 (Bat (None, 32, 32, 16)   64          conv2d_117[0][0]                 
__________________________________________________________________________________________________
re_lu_175 (ReLU)                (None, 32, 32, 16)   0           batch_normalization_v1_117[0][0] 
__________________________________________________________________________________________________
conv2d_118 (Conv2D)             (None, 32, 32, 16)   2304        re_lu_175[0][0]                  
__________________________________________________________________________________________________
batch_normalization_v1_118 (Bat (None, 32, 32, 16)   64          conv2d_118[0][0]                 
__________________________________________________________________________________________________
re_lu_176 (ReLU)                (None, 32, 32, 16)   0           batch_normalization_v1_118[0][0] 
__________________________________________________________________________________________________
add_58 (Add)                    (None, 32, 32, 16)   0           re_lu_176[0][0]                  
                                                                 re_lu_174[0][0]                  
__________________________________________________________________________________________________
re_lu_177 (ReLU)                (None, 32, 32, 16)   0           add_58[0][0]                     
__________________________________________________________________________________________________
conv2d_119 (Conv2D)             (None, 32, 32, 16)   2304        re_lu_177[0][0]                  
__________________________________________________________________________________________________
batch_normalization_v1_119 (Bat (None, 32, 32, 16)   64          conv2d_119[0][0]                 
__________________________________________________________________________________________________
re_lu_178 (ReLU)                (None, 32, 32, 16)   0           batch_normalization_v1_119[0][0] 
__________________________________________________________________________________________________
conv2d_120 (Conv2D)             (None, 32, 32, 16)   2304        re_lu_178[0][0]                  
__________________________________________________________________________________________________
batch_normalization_v1_120 (Bat (None, 32, 32, 16)   64          conv2d_120[0][0]                 
__________________________________________________________________________________________________
re_lu_179 (ReLU)                (None, 32, 32, 16)   0           batch_normalization_v1_120[0][0] 
__________________________________________________________________________________________________
add_59 (Add)                    (None, 32, 32, 16)   0           re_lu_179[0][0]                  
                                                                 re_lu_177[0][0]                  
__________________________________________________________________________________________________
re_lu_180 (ReLU)                (None, 32, 32, 16)   0           add_59[0][0]                     
__________________________________________________________________________________________________
conv2d_121 (Conv2D)             (None, 32, 32, 16)   2304        re_lu_180[0][0]                  
__________________________________________________________________________________________________
batch_normalization_v1_121 (Bat (None, 32, 32, 16)   64          conv2d_121[0][0]                 
__________________________________________________________________________________________________
re_lu_181 (ReLU)                (None, 32, 32, 16)   0           batch_normalization_v1_121[0][0] 
__________________________________________________________________________________________________
conv2d_122 (Conv2D)             (None, 32, 32, 16)   2304        re_lu_181[0][0]                  
__________________________________________________________________________________________________
batch_normalization_v1_122 (Bat (None, 32, 32, 16)   64          conv2d_122[0][0]                 
__________________________________________________________________________________________________
re_lu_182 (ReLU)                (None, 32, 32, 16)   0           batch_normalization_v1_122[0][0] 
__________________________________________________________________________________________________
add_60 (Add)                    (None, 32, 32, 16)   0           re_lu_182[0][0]                  
                                                                 re_lu_180[0][0]                  
__________________________________________________________________________________________________
re_lu_183 (ReLU)                (None, 32, 32, 16)   0           add_60[0][0]                     
__________________________________________________________________________________________________
conv2d_123 (Conv2D)             (None, 32, 32, 16)   2304        re_lu_183[0][0]                  
__________________________________________________________________________________________________
batch_normalization_v1_123 (Bat (None, 32, 32, 16)   64          conv2d_123[0][0]                 
__________________________________________________________________________________________________
re_lu_184 (ReLU)                (None, 32, 32, 16)   0           batch_normalization_v1_123[0][0] 
__________________________________________________________________________________________________
conv2d_124 (Conv2D)             (None, 32, 32, 16)   2304        re_lu_184[0][0]                  
__________________________________________________________________________________________________
batch_normalization_v1_124 (Bat (None, 32, 32, 16)   64          conv2d_124[0][0]                 
__________________________________________________________________________________________________
re_lu_185 (ReLU)                (None, 32, 32, 16)   0           batch_normalization_v1_124[0][0] 
__________________________________________________________________________________________________
add_61 (Add)                    (None, 32, 32, 16)   0           re_lu_185[0][0]                  
                                                                 re_lu_183[0][0]                  
__________________________________________________________________________________________________
re_lu_186 (ReLU)                (None, 32, 32, 16)   0           add_61[0][0]                     
__________________________________________________________________________________________________
conv2d_125 (Conv2D)             (None, 32, 32, 16)   2304        re_lu_186[0][0]                  
__________________________________________________________________________________________________
batch_normalization_v1_125 (Bat (None, 32, 32, 16)   64          conv2d_125[0][0]                 
__________________________________________________________________________________________________
re_lu_187 (ReLU)                (None, 32, 32, 16)   0           batch_normalization_v1_125[0][0] 
__________________________________________________________________________________________________
conv2d_126 (Conv2D)             (None, 32, 32, 16)   2304        re_lu_187[0][0]                  
__________________________________________________________________________________________________
batch_normalization_v1_126 (Bat (None, 32, 32, 16)   64          conv2d_126[0][0]                 
__________________________________________________________________________________________________
re_lu_188 (ReLU)                (None, 32, 32, 16)   0           batch_normalization_v1_126[0][0] 
__________________________________________________________________________________________________
add_62 (Add)                    (None, 32, 32, 16)   0           re_lu_188[0][0]                  
                                                                 re_lu_186[0][0]                  
__________________________________________________________________________________________________
re_lu_189 (ReLU)                (None, 32, 32, 16)   0           add_62[0][0]                     
__________________________________________________________________________________________________
conv2d_127 (Conv2D)             (None, 32, 32, 16)   2304        re_lu_189[0][0]                  
__________________________________________________________________________________________________
batch_normalization_v1_127 (Bat (None, 32, 32, 16)   64          conv2d_127[0][0]                 
__________________________________________________________________________________________________
re_lu_190 (ReLU)                (None, 32, 32, 16)   0           batch_normalization_v1_127[0][0] 
__________________________________________________________________________________________________
conv2d_128 (Conv2D)             (None, 32, 32, 16)   2304        re_lu_190[0][0]                  
__________________________________________________________________________________________________
batch_normalization_v1_128 (Bat (None, 32, 32, 16)   64          conv2d_128[0][0]                 
__________________________________________________________________________________________________
re_lu_191 (ReLU)                (None, 32, 32, 16)   0           batch_normalization_v1_128[0][0] 
__________________________________________________________________________________________________
add_63 (Add)                    (None, 32, 32, 16)   0           re_lu_191[0][0]                  
                                                                 re_lu_189[0][0]                  
__________________________________________________________________________________________________
re_lu_192 (ReLU)                (None, 32, 32, 16)   0           add_63[0][0]                     
__________________________________________________________________________________________________
conv2d_129 (Conv2D)             (None, 32, 32, 16)   2304        re_lu_192[0][0]                  
__________________________________________________________________________________________________
batch_normalization_v1_129 (Bat (None, 32, 32, 16)   64          conv2d_129[0][0]                 
__________________________________________________________________________________________________
re_lu_193 (ReLU)                (None, 32, 32, 16)   0           batch_normalization_v1_129[0][0] 
__________________________________________________________________________________________________
conv2d_130 (Conv2D)             (None, 32, 32, 16)   2304        re_lu_193[0][0]                  
__________________________________________________________________________________________________
batch_normalization_v1_130 (Bat (None, 32, 32, 16)   64          conv2d_130[0][0]                 
__________________________________________________________________________________________________
re_lu_194 (ReLU)                (None, 32, 32, 16)   0           batch_normalization_v1_130[0][0] 
__________________________________________________________________________________________________
add_64 (Add)                    (None, 32, 32, 16)   0           re_lu_194[0][0]                  
                                                                 re_lu_192[0][0]                  
__________________________________________________________________________________________________
re_lu_195 (ReLU)                (None, 32, 32, 16)   0           add_64[0][0]                     
__________________________________________________________________________________________________
conv2d_131 (Conv2D)             (None, 32, 32, 16)   2304        re_lu_195[0][0]                  
__________________________________________________________________________________________________
batch_normalization_v1_131 (Bat (None, 32, 32, 16)   64          conv2d_131[0][0]                 
__________________________________________________________________________________________________
re_lu_196 (ReLU)                (None, 32, 32, 16)   0           batch_normalization_v1_131[0][0] 
__________________________________________________________________________________________________
conv2d_132 (Conv2D)             (None, 32, 32, 16)   2304        re_lu_196[0][0]                  
__________________________________________________________________________________________________
batch_normalization_v1_132 (Bat (None, 32, 32, 16)   64          conv2d_132[0][0]                 
__________________________________________________________________________________________________
re_lu_197 (ReLU)                (None, 32, 32, 16)   0           batch_normalization_v1_132[0][0] 
__________________________________________________________________________________________________
add_65 (Add)                    (None, 32, 32, 16)   0           re_lu_197[0][0]                  
                                                                 re_lu_195[0][0]                  
__________________________________________________________________________________________________
re_lu_198 (ReLU)                (None, 32, 32, 16)   0           add_65[0][0]                     
__________________________________________________________________________________________________
conv2d_133 (Conv2D)             (None, 32, 32, 16)   2304        re_lu_198[0][0]                  
__________________________________________________________________________________________________
batch_normalization_v1_133 (Bat (None, 32, 32, 16)   64          conv2d_133[0][0]                 
__________________________________________________________________________________________________
re_lu_199 (ReLU)                (None, 32, 32, 16)   0           batch_normalization_v1_133[0][0] 
__________________________________________________________________________________________________
conv2d_134 (Conv2D)             (None, 32, 32, 16)   2304        re_lu_199[0][0]                  
__________________________________________________________________________________________________
batch_normalization_v1_134 (Bat (None, 32, 32, 16)   64          conv2d_134[0][0]                 
__________________________________________________________________________________________________
re_lu_200 (ReLU)                (None, 32, 32, 16)   0           batch_normalization_v1_134[0][0] 
__________________________________________________________________________________________________
add_66 (Add)                    (None, 32, 32, 16)   0           re_lu_200[0][0]                  
                                                                 re_lu_198[0][0]                  
__________________________________________________________________________________________________
re_lu_201 (ReLU)                (None, 32, 32, 16)   0           add_66[0][0]                     
__________________________________________________________________________________________________
conv2d_135 (Conv2D)             (None, 32, 32, 16)   2304        re_lu_201[0][0]                  
__________________________________________________________________________________________________
batch_normalization_v1_135 (Bat (None, 32, 32, 16)   64          conv2d_135[0][0]                 
__________________________________________________________________________________________________
re_lu_202 (ReLU)                (None, 32, 32, 16)   0           batch_normalization_v1_135[0][0] 
__________________________________________________________________________________________________
conv2d_136 (Conv2D)             (None, 32, 32, 16)   2304        re_lu_202[0][0]                  
__________________________________________________________________________________________________
batch_normalization_v1_136 (Bat (None, 32, 32, 16)   64          conv2d_136[0][0]                 
__________________________________________________________________________________________________
re_lu_203 (ReLU)                (None, 32, 32, 16)   0           batch_normalization_v1_136[0][0] 
__________________________________________________________________________________________________
add_67 (Add)                    (None, 32, 32, 16)   0           re_lu_203[0][0]                  
                                                                 re_lu_201[0][0]                  
__________________________________________________________________________________________________
re_lu_204 (ReLU)                (None, 32, 32, 16)   0           add_67[0][0]                     
__________________________________________________________________________________________________
conv2d_137 (Conv2D)             (None, 32, 32, 16)   2304        re_lu_204[0][0]                  
__________________________________________________________________________________________________
batch_normalization_v1_137 (Bat (None, 32, 32, 16)   64          conv2d_137[0][0]                 
__________________________________________________________________________________________________
re_lu_205 (ReLU)                (None, 32, 32, 16)   0           batch_normalization_v1_137[0][0] 
__________________________________________________________________________________________________
conv2d_138 (Conv2D)             (None, 32, 32, 16)   2304        re_lu_205[0][0]                  
__________________________________________________________________________________________________
batch_normalization_v1_138 (Bat (None, 32, 32, 16)   64          conv2d_138[0][0]                 
__________________________________________________________________________________________________
re_lu_206 (ReLU)                (None, 32, 32, 16)   0           batch_normalization_v1_138[0][0] 
__________________________________________________________________________________________________
add_68 (Add)                    (None, 32, 32, 16)   0           re_lu_206[0][0]                  
                                                                 re_lu_204[0][0]                  
__________________________________________________________________________________________________
re_lu_207 (ReLU)                (None, 32, 32, 16)   0           add_68[0][0]                     
__________________________________________________________________________________________________
conv2d_139 (Conv2D)             (None, 32, 32, 16)   2304        re_lu_207[0][0]                  
__________________________________________________________________________________________________
batch_normalization_v1_139 (Bat (None, 32, 32, 16)   64          conv2d_139[0][0]                 
__________________________________________________________________________________________________
re_lu_208 (ReLU)                (None, 32, 32, 16)   0           batch_normalization_v1_139[0][0] 
__________________________________________________________________________________________________
conv2d_140 (Conv2D)             (None, 32, 32, 16)   2304        re_lu_208[0][0]                  
__________________________________________________________________________________________________
batch_normalization_v1_140 (Bat (None, 32, 32, 16)   64          conv2d_140[0][0]                 
__________________________________________________________________________________________________
re_lu_209 (ReLU)                (None, 32, 32, 16)   0           batch_normalization_v1_140[0][0] 
__________________________________________________________________________________________________
add_69 (Add)                    (None, 32, 32, 16)   0           re_lu_209[0][0]                  
                                                                 re_lu_207[0][0]                  
__________________________________________________________________________________________________
re_lu_210 (ReLU)                (None, 32, 32, 16)   0           add_69[0][0]                     
__________________________________________________________________________________________________
conv2d_141 (Conv2D)             (None, 32, 32, 16)   2304        re_lu_210[0][0]                  
__________________________________________________________________________________________________
batch_normalization_v1_141 (Bat (None, 32, 32, 16)   64          conv2d_141[0][0]                 
__________________________________________________________________________________________________
re_lu_211 (ReLU)                (None, 32, 32, 16)   0           batch_normalization_v1_141[0][0] 
__________________________________________________________________________________________________
conv2d_142 (Conv2D)             (None, 32, 32, 16)   2304        re_lu_211[0][0]                  
__________________________________________________________________________________________________
batch_normalization_v1_142 (Bat (None, 32, 32, 16)   64          conv2d_142[0][0]                 
__________________________________________________________________________________________________
re_lu_212 (ReLU)                (None, 32, 32, 16)   0           batch_normalization_v1_142[0][0] 
__________________________________________________________________________________________________
add_70 (Add)                    (None, 32, 32, 16)   0           re_lu_212[0][0]                  
                                                                 re_lu_210[0][0]                  
__________________________________________________________________________________________________
re_lu_213 (ReLU)                (None, 32, 32, 16)   0           add_70[0][0]                     
__________________________________________________________________________________________________
conv2d_143 (Conv2D)             (None, 32, 32, 16)   2304        re_lu_213[0][0]                  
__________________________________________________________________________________________________
batch_normalization_v1_143 (Bat (None, 32, 32, 16)   64          conv2d_143[0][0]                 
__________________________________________________________________________________________________
re_lu_214 (ReLU)                (None, 32, 32, 16)   0           batch_normalization_v1_143[0][0] 
__________________________________________________________________________________________________
conv2d_144 (Conv2D)             (None, 32, 32, 16)   2304        re_lu_214[0][0]                  
__________________________________________________________________________________________________
batch_normalization_v1_144 (Bat (None, 32, 32, 16)   64          conv2d_144[0][0]                 
__________________________________________________________________________________________________
re_lu_215 (ReLU)                (None, 32, 32, 16)   0           batch_normalization_v1_144[0][0] 
__________________________________________________________________________________________________
add_71 (Add)                    (None, 32, 32, 16)   0           re_lu_215[0][0]                  
                                                                 re_lu_213[0][0]                  
__________________________________________________________________________________________________
re_lu_216 (ReLU)                (None, 32, 32, 16)   0           add_71[0][0]                     
__________________________________________________________________________________________________
conv2d_145 (Conv2D)             (None, 32, 32, 16)   2304        re_lu_216[0][0]                  
__________________________________________________________________________________________________
batch_normalization_v1_145 (Bat (None, 32, 32, 16)   64          conv2d_145[0][0]                 
__________________________________________________________________________________________________
re_lu_217 (ReLU)                (None, 32, 32, 16)   0           batch_normalization_v1_145[0][0] 
__________________________________________________________________________________________________
conv2d_146 (Conv2D)             (None, 32, 32, 16)   2304        re_lu_217[0][0]                  
__________________________________________________________________________________________________
batch_normalization_v1_146 (Bat (None, 32, 32, 16)   64          conv2d_146[0][0]                 
__________________________________________________________________________________________________
re_lu_218 (ReLU)                (None, 32, 32, 16)   0           batch_normalization_v1_146[0][0] 
__________________________________________________________________________________________________
add_72 (Add)                    (None, 32, 32, 16)   0           re_lu_218[0][0]                  
                                                                 re_lu_216[0][0]                  
__________________________________________________________________________________________________
re_lu_219 (ReLU)                (None, 32, 32, 16)   0           add_72[0][0]                     
__________________________________________________________________________________________________
conv2d_147 (Conv2D)             (None, 32, 32, 16)   2304        re_lu_219[0][0]                  
__________________________________________________________________________________________________
batch_normalization_v1_147 (Bat (None, 32, 32, 16)   64          conv2d_147[0][0]                 
__________________________________________________________________________________________________
re_lu_220 (ReLU)                (None, 32, 32, 16)   0           batch_normalization_v1_147[0][0] 
__________________________________________________________________________________________________
conv2d_148 (Conv2D)             (None, 32, 32, 16)   2304        re_lu_220[0][0]                  
__________________________________________________________________________________________________
batch_normalization_v1_148 (Bat (None, 32, 32, 16)   64          conv2d_148[0][0]                 
__________________________________________________________________________________________________
re_lu_221 (ReLU)                (None, 32, 32, 16)   0           batch_normalization_v1_148[0][0] 
__________________________________________________________________________________________________
add_73 (Add)                    (None, 32, 32, 16)   0           re_lu_221[0][0]                  
                                                                 re_lu_219[0][0]                  
__________________________________________________________________________________________________
re_lu_222 (ReLU)                (None, 32, 32, 16)   0           add_73[0][0]                     
__________________________________________________________________________________________________
conv2d_149 (Conv2D)             (None, 32, 32, 16)   2304        re_lu_222[0][0]                  
__________________________________________________________________________________________________
batch_normalization_v1_149 (Bat (None, 32, 32, 16)   64          conv2d_149[0][0]                 
__________________________________________________________________________________________________
re_lu_223 (ReLU)                (None, 32, 32, 16)   0           batch_normalization_v1_149[0][0] 
__________________________________________________________________________________________________
conv2d_150 (Conv2D)             (None, 32, 32, 16)   2304        re_lu_223[0][0]                  
__________________________________________________________________________________________________
batch_normalization_v1_150 (Bat (None, 32, 32, 16)   64          conv2d_150[0][0]                 
__________________________________________________________________________________________________
re_lu_224 (ReLU)                (None, 32, 32, 16)   0           batch_normalization_v1_150[0][0] 
__________________________________________________________________________________________________
add_74 (Add)                    (None, 32, 32, 16)   0           re_lu_224[0][0]                  
                                                                 re_lu_222[0][0]                  
__________________________________________________________________________________________________
re_lu_225 (ReLU)                (None, 32, 32, 16)   0           add_74[0][0]                     
__________________________________________________________________________________________________
conv2d_151 (Conv2D)             (None, 32, 32, 16)   2304        re_lu_225[0][0]                  
__________________________________________________________________________________________________
batch_normalization_v1_151 (Bat (None, 32, 32, 16)   64          conv2d_151[0][0]                 
__________________________________________________________________________________________________
re_lu_226 (ReLU)                (None, 32, 32, 16)   0           batch_normalization_v1_151[0][0] 
__________________________________________________________________________________________________
conv2d_152 (Conv2D)             (None, 32, 32, 16)   2304        re_lu_226[0][0]                  
__________________________________________________________________________________________________
batch_normalization_v1_152 (Bat (None, 32, 32, 16)   64          conv2d_152[0][0]                 
__________________________________________________________________________________________________
re_lu_227 (ReLU)                (None, 32, 32, 16)   0           batch_normalization_v1_152[0][0] 
__________________________________________________________________________________________________
add_75 (Add)                    (None, 32, 32, 16)   0           re_lu_227[0][0]                  
                                                                 re_lu_225[0][0]                  
__________________________________________________________________________________________________
re_lu_228 (ReLU)                (None, 32, 32, 16)   0           add_75[0][0]                     
__________________________________________________________________________________________________
conv2d_153 (Conv2D)             (None, 32, 32, 16)   2304        re_lu_228[0][0]                  
__________________________________________________________________________________________________
batch_normalization_v1_153 (Bat (None, 32, 32, 16)   64          conv2d_153[0][0]                 
__________________________________________________________________________________________________
re_lu_229 (ReLU)                (None, 32, 32, 16)   0           batch_normalization_v1_153[0][0] 
__________________________________________________________________________________________________
conv2d_154 (Conv2D)             (None, 32, 32, 16)   2304        re_lu_229[0][0]                  
__________________________________________________________________________________________________
batch_normalization_v1_154 (Bat (None, 32, 32, 16)   64          conv2d_154[0][0]                 
__________________________________________________________________________________________________
re_lu_230 (ReLU)                (None, 32, 32, 16)   0           batch_normalization_v1_154[0][0] 
__________________________________________________________________________________________________
add_76 (Add)                    (None, 32, 32, 16)   0           re_lu_230[0][0]                  
                                                                 re_lu_228[0][0]                  
__________________________________________________________________________________________________
re_lu_231 (ReLU)                (None, 32, 32, 16)   0           add_76[0][0]                     
__________________________________________________________________________________________________
conv2d_155 (Conv2D)             (None, 32, 32, 16)   2304        re_lu_231[0][0]                  
__________________________________________________________________________________________________
batch_normalization_v1_155 (Bat (None, 32, 32, 16)   64          conv2d_155[0][0]                 
__________________________________________________________________________________________________
re_lu_232 (ReLU)                (None, 32, 32, 16)   0           batch_normalization_v1_155[0][0] 
__________________________________________________________________________________________________
conv2d_156 (Conv2D)             (None, 32, 32, 16)   2304        re_lu_232[0][0]                  
__________________________________________________________________________________________________
batch_normalization_v1_156 (Bat (None, 32, 32, 16)   64          conv2d_156[0][0]                 
__________________________________________________________________________________________________
re_lu_233 (ReLU)                (None, 32, 32, 16)   0           batch_normalization_v1_156[0][0] 
__________________________________________________________________________________________________
add_77 (Add)                    (None, 32, 32, 16)   0           re_lu_233[0][0]                  
                                                                 re_lu_231[0][0]                  
__________________________________________________________________________________________________
re_lu_234 (ReLU)                (None, 32, 32, 16)   0           add_77[0][0]                     
__________________________________________________________________________________________________
conv2d_157 (Conv2D)             (None, 32, 32, 16)   2304        re_lu_234[0][0]                  
__________________________________________________________________________________________________
batch_normalization_v1_157 (Bat (None, 32, 32, 16)   64          conv2d_157[0][0]                 
__________________________________________________________________________________________________
re_lu_235 (ReLU)                (None, 32, 32, 16)   0           batch_normalization_v1_157[0][0] 
__________________________________________________________________________________________________
conv2d_158 (Conv2D)             (None, 32, 32, 16)   2304        re_lu_235[0][0]                  
__________________________________________________________________________________________________
batch_normalization_v1_158 (Bat (None, 32, 32, 16)   64          conv2d_158[0][0]                 
__________________________________________________________________________________________________
re_lu_236 (ReLU)                (None, 32, 32, 16)   0           batch_normalization_v1_158[0][0] 
__________________________________________________________________________________________________
add_78 (Add)                    (None, 32, 32, 16)   0           re_lu_236[0][0]                  
                                                                 re_lu_234[0][0]                  
__________________________________________________________________________________________________
re_lu_237 (ReLU)                (None, 32, 32, 16)   0           add_78[0][0]                     
__________________________________________________________________________________________________
conv2d_159 (Conv2D)             (None, 32, 32, 16)   2304        re_lu_237[0][0]                  
__________________________________________________________________________________________________
batch_normalization_v1_159 (Bat (None, 32, 32, 16)   64          conv2d_159[0][0]                 
__________________________________________________________________________________________________
re_lu_238 (ReLU)                (None, 32, 32, 16)   0           batch_normalization_v1_159[0][0] 
__________________________________________________________________________________________________
conv2d_160 (Conv2D)             (None, 32, 32, 16)   2304        re_lu_238[0][0]                  
__________________________________________________________________________________________________
batch_normalization_v1_160 (Bat (None, 32, 32, 16)   64          conv2d_160[0][0]                 
__________________________________________________________________________________________________
re_lu_239 (ReLU)                (None, 32, 32, 16)   0           batch_normalization_v1_160[0][0] 
__________________________________________________________________________________________________
add_79 (Add)                    (None, 32, 32, 16)   0           re_lu_239[0][0]                  
                                                                 re_lu_237[0][0]                  
__________________________________________________________________________________________________
re_lu_240 (ReLU)                (None, 32, 32, 16)   0           add_79[0][0]                     
__________________________________________________________________________________________________
conv2d_161 (Conv2D)             (None, 32, 32, 16)   2304        re_lu_240[0][0]                  
__________________________________________________________________________________________________
batch_normalization_v1_161 (Bat (None, 32, 32, 16)   64          conv2d_161[0][0]                 
__________________________________________________________________________________________________
re_lu_241 (ReLU)                (None, 32, 32, 16)   0           batch_normalization_v1_161[0][0] 
__________________________________________________________________________________________________
conv2d_162 (Conv2D)             (None, 32, 32, 16)   2304        re_lu_241[0][0]                  
__________________________________________________________________________________________________
batch_normalization_v1_162 (Bat (None, 32, 32, 16)   64          conv2d_162[0][0]                 
__________________________________________________________________________________________________
re_lu_242 (ReLU)                (None, 32, 32, 16)   0           batch_normalization_v1_162[0][0] 
__________________________________________________________________________________________________
add_80 (Add)                    (None, 32, 32, 16)   0           re_lu_242[0][0]                  
                                                                 re_lu_240[0][0]                  
__________________________________________________________________________________________________
re_lu_243 (ReLU)                (None, 32, 32, 16)   0           add_80[0][0]                     
__________________________________________________________________________________________________
conv2d_163 (Conv2D)             (None, 32, 32, 16)   2304        re_lu_243[0][0]                  
__________________________________________________________________________________________________
batch_normalization_v1_163 (Bat (None, 32, 32, 16)   64          conv2d_163[0][0]                 
__________________________________________________________________________________________________
re_lu_244 (ReLU)                (None, 32, 32, 16)   0           batch_normalization_v1_163[0][0] 
__________________________________________________________________________________________________
conv2d_164 (Conv2D)             (None, 32, 32, 16)   2304        re_lu_244[0][0]                  
__________________________________________________________________________________________________
batch_normalization_v1_164 (Bat (None, 32, 32, 16)   64          conv2d_164[0][0]                 
__________________________________________________________________________________________________
re_lu_245 (ReLU)                (None, 32, 32, 16)   0           batch_normalization_v1_164[0][0] 
__________________________________________________________________________________________________
add_81 (Add)                    (None, 32, 32, 16)   0           re_lu_245[0][0]                  
                                                                 re_lu_243[0][0]                  
__________________________________________________________________________________________________
re_lu_246 (ReLU)                (None, 32, 32, 16)   0           add_81[0][0]                     
__________________________________________________________________________________________________
conv2d_165 (Conv2D)             (None, 32, 32, 16)   2304        re_lu_246[0][0]                  
__________________________________________________________________________________________________
batch_normalization_v1_165 (Bat (None, 32, 32, 16)   64          conv2d_165[0][0]                 
__________________________________________________________________________________________________
re_lu_247 (ReLU)                (None, 32, 32, 16)   0           batch_normalization_v1_165[0][0] 
__________________________________________________________________________________________________
conv2d_166 (Conv2D)             (None, 32, 32, 16)   2304        re_lu_247[0][0]                  
__________________________________________________________________________________________________
batch_normalization_v1_166 (Bat (None, 32, 32, 16)   64          conv2d_166[0][0]                 
__________________________________________________________________________________________________
re_lu_248 (ReLU)                (None, 32, 32, 16)   0           batch_normalization_v1_166[0][0] 
__________________________________________________________________________________________________
add_82 (Add)                    (None, 32, 32, 16)   0           re_lu_248[0][0]                  
                                                                 re_lu_246[0][0]                  
__________________________________________________________________________________________________
re_lu_249 (ReLU)                (None, 32, 32, 16)   0           add_82[0][0]                     
__________________________________________________________________________________________________
conv2d_167 (Conv2D)             (None, 32, 32, 16)   2304        re_lu_249[0][0]                  
__________________________________________________________________________________________________
batch_normalization_v1_167 (Bat (None, 32, 32, 16)   64          conv2d_167[0][0]                 
__________________________________________________________________________________________________
re_lu_250 (ReLU)                (None, 32, 32, 16)   0           batch_normalization_v1_167[0][0] 
__________________________________________________________________________________________________
conv2d_168 (Conv2D)             (None, 32, 32, 16)   2304        re_lu_250[0][0]                  
__________________________________________________________________________________________________
batch_normalization_v1_168 (Bat (None, 32, 32, 16)   64          conv2d_168[0][0]                 
__________________________________________________________________________________________________
re_lu_251 (ReLU)                (None, 32, 32, 16)   0           batch_normalization_v1_168[0][0] 
__________________________________________________________________________________________________
add_83 (Add)                    (None, 32, 32, 16)   0           re_lu_251[0][0]                  
                                                                 re_lu_249[0][0]                  
__________________________________________________________________________________________________
re_lu_252 (ReLU)                (None, 32, 32, 16)   0           add_83[0][0]                     
__________________________________________________________________________________________________
conv2d_169 (Conv2D)             (None, 32, 32, 16)   2304        re_lu_252[0][0]                  
__________________________________________________________________________________________________
batch_normalization_v1_169 (Bat (None, 32, 32, 16)   64          conv2d_169[0][0]                 
__________________________________________________________________________________________________
re_lu_253 (ReLU)                (None, 32, 32, 16)   0           batch_normalization_v1_169[0][0] 
__________________________________________________________________________________________________
conv2d_170 (Conv2D)             (None, 32, 32, 16)   2304        re_lu_253[0][0]                  
__________________________________________________________________________________________________
batch_normalization_v1_170 (Bat (None, 32, 32, 16)   64          conv2d_170[0][0]                 
__________________________________________________________________________________________________
re_lu_254 (ReLU)                (None, 32, 32, 16)   0           batch_normalization_v1_170[0][0] 
__________________________________________________________________________________________________
add_84 (Add)                    (None, 32, 32, 16)   0           re_lu_254[0][0]                  
                                                                 re_lu_252[0][0]                  
__________________________________________________________________________________________________
re_lu_255 (ReLU)                (None, 32, 32, 16)   0           add_84[0][0]                     
__________________________________________________________________________________________________
conv2d_171 (Conv2D)             (None, 32, 32, 16)   2304        re_lu_255[0][0]                  
__________________________________________________________________________________________________
batch_normalization_v1_171 (Bat (None, 32, 32, 16)   64          conv2d_171[0][0]                 
__________________________________________________________________________________________________
re_lu_256 (ReLU)                (None, 32, 32, 16)   0           batch_normalization_v1_171[0][0] 
__________________________________________________________________________________________________
conv2d_172 (Conv2D)             (None, 32, 32, 16)   2304        re_lu_256[0][0]                  
__________________________________________________________________________________________________
batch_normalization_v1_172 (Bat (None, 32, 32, 16)   64          conv2d_172[0][0]                 
__________________________________________________________________________________________________
re_lu_257 (ReLU)                (None, 32, 32, 16)   0           batch_normalization_v1_172[0][0] 
__________________________________________________________________________________________________
add_85 (Add)                    (None, 32, 32, 16)   0           re_lu_257[0][0]                  
                                                                 re_lu_255[0][0]                  
__________________________________________________________________________________________________
re_lu_258 (ReLU)                (None, 32, 32, 16)   0           add_85[0][0]                     
__________________________________________________________________________________________________
conv2d_173 (Conv2D)             (None, 32, 32, 16)   2304        re_lu_258[0][0]                  
__________________________________________________________________________________________________
batch_normalization_v1_173 (Bat (None, 32, 32, 16)   64          conv2d_173[0][0]                 
__________________________________________________________________________________________________
re_lu_259 (ReLU)                (None, 32, 32, 16)   0           batch_normalization_v1_173[0][0] 
__________________________________________________________________________________________________
conv2d_174 (Conv2D)             (None, 32, 32, 16)   2304        re_lu_259[0][0]                  
__________________________________________________________________________________________________
batch_normalization_v1_174 (Bat (None, 32, 32, 16)   64          conv2d_174[0][0]                 
__________________________________________________________________________________________________
re_lu_260 (ReLU)                (None, 32, 32, 16)   0           batch_normalization_v1_174[0][0] 
__________________________________________________________________________________________________
add_86 (Add)                    (None, 32, 32, 16)   0           re_lu_260[0][0]                  
                                                                 re_lu_258[0][0]                  
__________________________________________________________________________________________________
re_lu_261 (ReLU)                (None, 32, 32, 16)   0           add_86[0][0]                     
__________________________________________________________________________________________________
conv2d_175 (Conv2D)             (None, 32, 32, 16)   2304        re_lu_261[0][0]                  
__________________________________________________________________________________________________
batch_normalization_v1_175 (Bat (None, 32, 32, 16)   64          conv2d_175[0][0]                 
__________________________________________________________________________________________________
re_lu_262 (ReLU)                (None, 32, 32, 16)   0           batch_normalization_v1_175[0][0] 
__________________________________________________________________________________________________
conv2d_176 (Conv2D)             (None, 32, 32, 16)   2304        re_lu_262[0][0]                  
__________________________________________________________________________________________________
batch_normalization_v1_176 (Bat (None, 32, 32, 16)   64          conv2d_176[0][0]                 
__________________________________________________________________________________________________
re_lu_263 (ReLU)                (None, 32, 32, 16)   0           batch_normalization_v1_176[0][0] 
__________________________________________________________________________________________________
add_87 (Add)                    (None, 32, 32, 16)   0           re_lu_263[0][0]                  
                                                                 re_lu_261[0][0]                  
__________________________________________________________________________________________________
re_lu_264 (ReLU)                (None, 32, 32, 16)   0           add_87[0][0]                     
__________________________________________________________________________________________________
conv2d_177 (Conv2D)             (None, 32, 32, 16)   2304        re_lu_264[0][0]                  
__________________________________________________________________________________________________
batch_normalization_v1_177 (Bat (None, 32, 32, 16)   64          conv2d_177[0][0]                 
__________________________________________________________________________________________________
re_lu_265 (ReLU)                (None, 32, 32, 16)   0           batch_normalization_v1_177[0][0] 
__________________________________________________________________________________________________
conv2d_178 (Conv2D)             (None, 32, 32, 16)   2304        re_lu_265[0][0]                  
__________________________________________________________________________________________________
…
re_lu_1712 (ReLU)               (None, 8, 8, 64)     0           batch_normalization_v1_1142[0][0]
__________________________________________________________________________________________________
add_570 (Add)                   (None, 8, 8, 64)     0           re_lu_1712[0][0]                 
                                                                 re_lu_1710[0][0]                 
__________________________________________________________________________________________________
re_lu_1713 (ReLU)               (None, 8, 8, 64)     0           add_570[0][0]                    
__________________________________________________________________________________________________
conv2d_1143 (Conv2D)            (None, 8, 8, 64)     36864       re_lu_1713[0][0]                 
__________________________________________________________________________________________________
batch_normalization_v1_1143 (Ba (None, 8, 8, 64)     256         conv2d_1143[0][0]                
__________________________________________________________________________________________________
re_lu_1714 (ReLU)               (None, 8, 8, 64)     0           batch_normalization_v1_1143[0][0]
__________________________________________________________________________________________________
conv2d_1144 (Conv2D)            (None, 8, 8, 64)     36864       re_lu_1714[0][0]                 
__________________________________________________________________________________________________
batch_normalization_v1_1144 (Ba (None, 8, 8, 64)     256         conv2d_1144[0][0]                
__________________________________________________________________________________________________
re_lu_1715 (ReLU)               (None, 8, 8, 64)     0           batch_normalization_v1_1144[0][0]
__________________________________________________________________________________________________
add_571 (Add)                   (None, 8, 8, 64)     0           re_lu_1715[0][0]                 
                                                                 re_lu_1713[0][0]                 
__________________________________________________________________________________________________
re_lu_1716 (ReLU)               (None, 8, 8, 64)     0           add_571[0][0]                    
__________________________________________________________________________________________________
conv2d_1145 (Conv2D)            (None, 8, 8, 64)     36864       re_lu_1716[0][0]                 
__________________________________________________________________________________________________
batch_normalization_v1_1145 (Ba (None, 8, 8, 64)     256         conv2d_1145[0][0]                
__________________________________________________________________________________________________
re_lu_1717 (ReLU)               (None, 8, 8, 64)     0           batch_normalization_v1_1145[0][0]
__________________________________________________________________________________________________
conv2d_1146 (Conv2D)            (None, 8, 8, 64)     36864       re_lu_1717[0][0]                 
__________________________________________________________________________________________________
batch_normalization_v1_1146 (Ba (None, 8, 8, 64)     256         conv2d_1146[0][0]                
__________________________________________________________________________________________________
re_lu_1718 (ReLU)               (None, 8, 8, 64)     0           batch_normalization_v1_1146[0][0]
__________________________________________________________________________________________________
add_572 (Add)                   (None, 8, 8, 64)     0           re_lu_1718[0][0]                 
                                                                 re_lu_1716[0][0]                 
__________________________________________________________________________________________________
re_lu_1719 (ReLU)               (None, 8, 8, 64)     0           add_572[0][0]                    
__________________________________________________________________________________________________
conv2d_1147 (Conv2D)            (None, 8, 8, 64)     36864       re_lu_1719[0][0]                 
__________________________________________________________________________________________________
batch_normalization_v1_1147 (Ba (None, 8, 8, 64)     256         conv2d_1147[0][0]                
__________________________________________________________________________________________________
re_lu_1720 (ReLU)               (None, 8, 8, 64)     0           batch_normalization_v1_1147[0][0]
__________________________________________________________________________________________________
conv2d_1148 (Conv2D)            (None, 8, 8, 64)     36864       re_lu_1720[0][0]                 
__________________________________________________________________________________________________
batch_normalization_v1_1148 (Ba (None, 8, 8, 64)     256         conv2d_1148[0][0]                
__________________________________________________________________________________________________
re_lu_1721 (ReLU)               (None, 8, 8, 64)     0           batch_normalization_v1_1148[0][0]
__________________________________________________________________________________________________
add_573 (Add)                   (None, 8, 8, 64)     0           re_lu_1721[0][0]                 
                                                                 re_lu_1719[0][0]                 
__________________________________________________________________________________________________
re_lu_1722 (ReLU)               (None, 8, 8, 64)     0           add_573[0][0]                    
__________________________________________________________________________________________________
conv2d_1149 (Conv2D)            (None, 8, 8, 64)     36864       re_lu_1722[0][0]                 
__________________________________________________________________________________________________
batch_normalization_v1_1149 (Ba (None, 8, 8, 64)     256         conv2d_1149[0][0]                
__________________________________________________________________________________________________
re_lu_1723 (ReLU)               (None, 8, 8, 64)     0           batch_normalization_v1_1149[0][0]
__________________________________________________________________________________________________
conv2d_1150 (Conv2D)            (None, 8, 8, 64)     36864       re_lu_1723[0][0]                 
__________________________________________________________________________________________________
batch_normalization_v1_1150 (Ba (None, 8, 8, 64)     256         conv2d_1150[0][0]                
__________________________________________________________________________________________________
re_lu_1724 (ReLU)               (None, 8, 8, 64)     0           batch_normalization_v1_1150[0][0]
__________________________________________________________________________________________________
add_574 (Add)                   (None, 8, 8, 64)     0           re_lu_1724[0][0]                 
                                                                 re_lu_1722[0][0]                 
__________________________________________________________________________________________________
re_lu_1725 (ReLU)               (None, 8, 8, 64)     0           add_574[0][0]                    
__________________________________________________________________________________________________
conv2d_1151 (Conv2D)            (None, 8, 8, 64)     36864       re_lu_1725[0][0]                 
__________________________________________________________________________________________________
batch_normalization_v1_1151 (Ba (None, 8, 8, 64)     256         conv2d_1151[0][0]                
__________________________________________________________________________________________________
re_lu_1726 (ReLU)               (None, 8, 8, 64)     0           batch_normalization_v1_1151[0][0]
__________________________________________________________________________________________________
conv2d_1152 (Conv2D)            (None, 8, 8, 64)     36864       re_lu_1726[0][0]                 
__________________________________________________________________________________________________
batch_normalization_v1_1152 (Ba (None, 8, 8, 64)     256         conv2d_1152[0][0]                
__________________________________________________________________________________________________
re_lu_1727 (ReLU)               (None, 8, 8, 64)     0           batch_normalization_v1_1152[0][0]
__________________________________________________________________________________________________
add_575 (Add)                   (None, 8, 8, 64)     0           re_lu_1727[0][0]                 
                                                                 re_lu_1725[0][0]                 
__________________________________________________________________________________________________
re_lu_1728 (ReLU)               (None, 8, 8, 64)     0           add_575[0][0]                    
__________________________________________________________________________________________________
conv2d_1153 (Conv2D)            (None, 8, 8, 64)     36864       re_lu_1728[0][0]                 
__________________________________________________________________________________________________
batch_normalization_v1_1153 (Ba (None, 8, 8, 64)     256         conv2d_1153[0][0]                
__________________________________________________________________________________________________
re_lu_1729 (ReLU)               (None, 8, 8, 64)     0           batch_normalization_v1_1153[0][0]
__________________________________________________________________________________________________
conv2d_1154 (Conv2D)            (None, 8, 8, 64)     36864       re_lu_1729[0][0]                 
__________________________________________________________________________________________________
batch_normalization_v1_1154 (Ba (None, 8, 8, 64)     256         conv2d_1154[0][0]                
__________________________________________________________________________________________________
re_lu_1730 (ReLU)               (None, 8, 8, 64)     0           batch_normalization_v1_1154[0][0]
__________________________________________________________________________________________________
add_576 (Add)                   (None, 8, 8, 64)     0           re_lu_1730[0][0]                 
                                                                 re_lu_1728[0][0]                 
__________________________________________________________________________________________________
re_lu_1731 (ReLU)               (None, 8, 8, 64)     0           add_576[0][0]                    
__________________________________________________________________________________________________
conv2d_1155 (Conv2D)            (None, 8, 8, 64)     36864       re_lu_1731[0][0]                 
__________________________________________________________________________________________________
batch_normalization_v1_1155 (Ba (None, 8, 8, 64)     256         conv2d_1155[0][0]                
__________________________________________________________________________________________________
re_lu_1732 (ReLU)               (None, 8, 8, 64)     0           batch_normalization_v1_1155[0][0]
__________________________________________________________________________________________________
conv2d_1156 (Conv2D)            (None, 8, 8, 64)     36864       re_lu_1732[0][0]                 
__________________________________________________________________________________________________
batch_normalization_v1_1156 (Ba (None, 8, 8, 64)     256         conv2d_1156[0][0]                
__________________________________________________________________________________________________
re_lu_1733 (ReLU)               (None, 8, 8, 64)     0           batch_normalization_v1_1156[0][0]
__________________________________________________________________________________________________
add_577 (Add)                   (None, 8, 8, 64)     0           re_lu_1733[0][0]                 
                                                                 re_lu_1731[0][0]                 
__________________________________________________________________________________________________
re_lu_1734 (ReLU)               (None, 8, 8, 64)     0           add_577[0][0]                    
__________________________________________________________________________________________________
conv2d_1157 (Conv2D)            (None, 8, 8, 64)     36864       re_lu_1734[0][0]                 
__________________________________________________________________________________________________
batch_normalization_v1_1157 (Ba (None, 8, 8, 64)     256         conv2d_1157[0][0]                
__________________________________________________________________________________________________
re_lu_1735 (ReLU)               (None, 8, 8, 64)     0           batch_normalization_v1_1157[0][0]
__________________________________________________________________________________________________
conv2d_1158 (Conv2D)            (None, 8, 8, 64)     36864       re_lu_1735[0][0]                 
__________________________________________________________________________________________________
batch_normalization_v1_1158 (Ba (None, 8, 8, 64)     256         conv2d_1158[0][0]                
__________________________________________________________________________________________________
re_lu_1736 (ReLU)               (None, 8, 8, 64)     0           batch_normalization_v1_1158[0][0]
__________________________________________________________________________________________________
add_578 (Add)                   (None, 8, 8, 64)     0           re_lu_1736[0][0]                 
                                                                 re_lu_1734[0][0]                 
__________________________________________________________________________________________________
re_lu_1737 (ReLU)               (None, 8, 8, 64)     0           add_578[0][0]                    
__________________________________________________________________________________________________
conv2d_1159 (Conv2D)            (None, 8, 8, 64)     36864       re_lu_1737[0][0]                 
__________________________________________________________________________________________________
batch_normalization_v1_1159 (Ba (None, 8, 8, 64)     256         conv2d_1159[0][0]                
__________________________________________________________________________________________________
re_lu_1738 (ReLU)               (None, 8, 8, 64)     0           batch_normalization_v1_1159[0][0]
__________________________________________________________________________________________________
conv2d_1160 (Conv2D)            (None, 8, 8, 64)     36864       re_lu_1738[0][0]                 
__________________________________________________________________________________________________
batch_normalization_v1_1160 (Ba (None, 8, 8, 64)     256         conv2d_1160[0][0]                
__________________________________________________________________________________________________
re_lu_1739 (ReLU)               (None, 8, 8, 64)     0           batch_normalization_v1_1160[0][0]
__________________________________________________________________________________________________
add_579 (Add)                   (None, 8, 8, 64)     0           re_lu_1739[0][0]                 
                                                                 re_lu_1737[0][0]                 
__________________________________________________________________________________________________
re_lu_1740 (ReLU)               (None, 8, 8, 64)     0           add_579[0][0]                    
__________________________________________________________________________________________________
conv2d_1161 (Conv2D)            (None, 8, 8, 64)     36864       re_lu_1740[0][0]                 
__________________________________________________________________________________________________
batch_normalization_v1_1161 (Ba (None, 8, 8, 64)     256         conv2d_1161[0][0]                
__________________________________________________________________________________________________
re_lu_1741 (ReLU)               (None, 8, 8, 64)     0           batch_normalization_v1_1161[0][0]
__________________________________________________________________________________________________
conv2d_1162 (Conv2D)            (None, 8, 8, 64)     36864       re_lu_1741[0][0]                 
__________________________________________________________________________________________________
batch_normalization_v1_1162 (Ba (None, 8, 8, 64)     256         conv2d_1162[0][0]                
__________________________________________________________________________________________________
re_lu_1742 (ReLU)               (None, 8, 8, 64)     0           batch_normalization_v1_1162[0][0]
__________________________________________________________________________________________________
add_580 (Add)                   (None, 8, 8, 64)     0           re_lu_1742[0][0]                 
                                                                 re_lu_1740[0][0]                 
__________________________________________________________________________________________________
re_lu_1743 (ReLU)               (None, 8, 8, 64)     0           add_580[0][0]                    
__________________________________________________________________________________________________
conv2d_1163 (Conv2D)            (None, 8, 8, 64)     36864       re_lu_1743[0][0]                 
__________________________________________________________________________________________________
batch_normalization_v1_1163 (Ba (None, 8, 8, 64)     256         conv2d_1163[0][0]                
__________________________________________________________________________________________________
re_lu_1744 (ReLU)               (None, 8, 8, 64)     0           batch_normalization_v1_1163[0][0]
__________________________________________________________________________________________________
conv2d_1164 (Conv2D)            (None, 8, 8, 64)     36864       re_lu_1744[0][0]                 
__________________________________________________________________________________________________
batch_normalization_v1_1164 (Ba (None, 8, 8, 64)     256         conv2d_1164[0][0]                
__________________________________________________________________________________________________
re_lu_1745 (ReLU)               (None, 8, 8, 64)     0           batch_normalization_v1_1164[0][0]
__________________________________________________________________________________________________
add_581 (Add)                   (None, 8, 8, 64)     0           re_lu_1745[0][0]                 
                                                                 re_lu_1743[0][0]                 
__________________________________________________________________________________________________
re_lu_1746 (ReLU)               (None, 8, 8, 64)     0           add_581[0][0]                    
__________________________________________________________________________________________________
conv2d_1165 (Conv2D)            (None, 8, 8, 64)     36864       re_lu_1746[0][0]                 
__________________________________________________________________________________________________
batch_normalization_v1_1165 (Ba (None, 8, 8, 64)     256         conv2d_1165[0][0]                
__________________________________________________________________________________________________
re_lu_1747 (ReLU)               (None, 8, 8, 64)     0           batch_normalization_v1_1165[0][0]
__________________________________________________________________________________________________
conv2d_1166 (Conv2D)            (None, 8, 8, 64)     36864       re_lu_1747[0][0]                 
__________________________________________________________________________________________________
batch_normalization_v1_1166 (Ba (None, 8, 8, 64)     256         conv2d_1166[0][0]                
__________________________________________________________________________________________________
re_lu_1748 (ReLU)               (None, 8, 8, 64)     0           batch_normalization_v1_1166[0][0]
__________________________________________________________________________________________________
add_582 (Add)                   (None, 8, 8, 64)     0           re_lu_1748[0][0]                 
                                                                 re_lu_1746[0][0]                 
__________________________________________________________________________________________________
re_lu_1749 (ReLU)               (None, 8, 8, 64)     0           add_582[0][0]                    
__________________________________________________________________________________________________
conv2d_1167 (Conv2D)            (None, 8, 8, 64)     36864       re_lu_1749[0][0]                 
__________________________________________________________________________________________________
batch_normalization_v1_1167 (Ba (None, 8, 8, 64)     256         conv2d_1167[0][0]                
__________________________________________________________________________________________________
re_lu_1750 (ReLU)               (None, 8, 8, 64)     0           batch_normalization_v1_1167[0][0]
__________________________________________________________________________________________________
conv2d_1168 (Conv2D)            (None, 8, 8, 64)     36864       re_lu_1750[0][0]                 
__________________________________________________________________________________________________
batch_normalization_v1_1168 (Ba (None, 8, 8, 64)     256         conv2d_1168[0][0]                
__________________________________________________________________________________________________
re_lu_1751 (ReLU)               (None, 8, 8, 64)     0           batch_normalization_v1_1168[0][0]
__________________________________________________________________________________________________
add_583 (Add)                   (None, 8, 8, 64)     0           re_lu_1751[0][0]                 
                                                                 re_lu_1749[0][0]                 
__________________________________________________________________________________________________
re_lu_1752 (ReLU)               (None, 8, 8, 64)     0           add_583[0][0]                    
__________________________________________________________________________________________________
conv2d_1169 (Conv2D)            (None, 8, 8, 64)     36864       re_lu_1752[0][0]                 
__________________________________________________________________________________________________
batch_normalization_v1_1169 (Ba (None, 8, 8, 64)     256         conv2d_1169[0][0]                
__________________________________________________________________________________________________
re_lu_1753 (ReLU)               (None, 8, 8, 64)     0           batch_normalization_v1_1169[0][0]
__________________________________________________________________________________________________
conv2d_1170 (Conv2D)            (None, 8, 8, 64)     36864       re_lu_1753[0][0]                 
__________________________________________________________________________________________________
batch_normalization_v1_1170 (Ba (None, 8, 8, 64)     256         conv2d_1170[0][0]                
__________________________________________________________________________________________________
re_lu_1754 (ReLU)               (None, 8, 8, 64)     0           batch_normalization_v1_1170[0][0]
__________________________________________________________________________________________________
add_584 (Add)                   (None, 8, 8, 64)     0           re_lu_1754[0][0]                 
                                                                 re_lu_1752[0][0]                 
__________________________________________________________________________________________________
re_lu_1755 (ReLU)               (None, 8, 8, 64)     0           add_584[0][0]                    
__________________________________________________________________________________________________
conv2d_1171 (Conv2D)            (None, 8, 8, 64)     36864       re_lu_1755[0][0]                 
__________________________________________________________________________________________________
batch_normalization_v1_1171 (Ba (None, 8, 8, 64)     256         conv2d_1171[0][0]                
__________________________________________________________________________________________________
re_lu_1756 (ReLU)               (None, 8, 8, 64)     0           batch_normalization_v1_1171[0][0]
__________________________________________________________________________________________________
conv2d_1172 (Conv2D)            (None, 8, 8, 64)     36864       re_lu_1756[0][0]                 
__________________________________________________________________________________________________
batch_normalization_v1_1172 (Ba (None, 8, 8, 64)     256         conv2d_1172[0][0]                
__________________________________________________________________________________________________
re_lu_1757 (ReLU)               (None, 8, 8, 64)     0           batch_normalization_v1_1172[0][0]
__________________________________________________________________________________________________
add_585 (Add)                   (None, 8, 8, 64)     0           re_lu_1757[0][0]                 
                                                                 re_lu_1755[0][0]                 
__________________________________________________________________________________________________
re_lu_1758 (ReLU)               (None, 8, 8, 64)     0           add_585[0][0]                    
__________________________________________________________________________________________________
conv2d_1173 (Conv2D)            (None, 8, 8, 64)     36864       re_lu_1758[0][0]                 
__________________________________________________________________________________________________
batch_normalization_v1_1173 (Ba (None, 8, 8, 64)     256         conv2d_1173[0][0]                
__________________________________________________________________________________________________
re_lu_1759 (ReLU)               (None, 8, 8, 64)     0           batch_normalization_v1_1173[0][0]
__________________________________________________________________________________________________
conv2d_1174 (Conv2D)            (None, 8, 8, 64)     36864       re_lu_1759[0][0]                 
__________________________________________________________________________________________________
batch_normalization_v1_1174 (Ba (None, 8, 8, 64)     256         conv2d_1174[0][0]                
__________________________________________________________________________________________________
re_lu_1760 (ReLU)               (None, 8, 8, 64)     0           batch_normalization_v1_1174[0][0]
__________________________________________________________________________________________________
add_586 (Add)                   (None, 8, 8, 64)     0           re_lu_1760[0][0]                 
                                                                 re_lu_1758[0][0]                 
__________________________________________________________________________________________________
re_lu_1761 (ReLU)               (None, 8, 8, 64)     0           add_586[0][0]                    
__________________________________________________________________________________________________
conv2d_1175 (Conv2D)            (None, 8, 8, 64)     36864       re_lu_1761[0][0]                 
__________________________________________________________________________________________________
batch_normalization_v1_1175 (Ba (None, 8, 8, 64)     256         conv2d_1175[0][0]                
__________________________________________________________________________________________________
re_lu_1762 (ReLU)               (None, 8, 8, 64)     0           batch_normalization_v1_1175[0][0]
__________________________________________________________________________________________________
conv2d_1176 (Conv2D)            (None, 8, 8, 64)     36864       re_lu_1762[0][0]                 
__________________________________________________________________________________________________
batch_normalization_v1_1176 (Ba (None, 8, 8, 64)     256         conv2d_1176[0][0]                
__________________________________________________________________________________________________
re_lu_1763 (ReLU)               (None, 8, 8, 64)     0           batch_normalization_v1_1176[0][0]
__________________________________________________________________________________________________
add_587 (Add)                   (None, 8, 8, 64)     0           re_lu_1763[0][0]                 
                                                                 re_lu_1761[0][0]                 
__________________________________________________________________________________________________
re_lu_1764 (ReLU)               (None, 8, 8, 64)     0           add_587[0][0]                    
__________________________________________________________________________________________________
conv2d_1177 (Conv2D)            (None, 8, 8, 64)     36864       re_lu_1764[0][0]                 
__________________________________________________________________________________________________
batch_normalization_v1_1177 (Ba (None, 8, 8, 64)     256         conv2d_1177[0][0]                
__________________________________________________________________________________________________
re_lu_1765 (ReLU)               (None, 8, 8, 64)     0           batch_normalization_v1_1177[0][0]
__________________________________________________________________________________________________
conv2d_1178 (Conv2D)            (None, 8, 8, 64)     36864       re_lu_1765[0][0]                 
__________________________________________________________________________________________________
batch_normalization_v1_1178 (Ba (None, 8, 8, 64)     256         conv2d_1178[0][0]                
__________________________________________________________________________________________________
re_lu_1766 (ReLU)               (None, 8, 8, 64)     0           batch_normalization_v1_1178[0][0]
__________________________________________________________________________________________________
add_588 (Add)                   (None, 8, 8, 64)     0           re_lu_1766[0][0]                 
                                                                 re_lu_1764[0][0]                 
__________________________________________________________________________________________________
re_lu_1767 (ReLU)               (None, 8, 8, 64)     0           add_588[0][0]                    
__________________________________________________________________________________________________
conv2d_1179 (Conv2D)            (None, 8, 8, 64)     36864       re_lu_1767[0][0]                 
__________________________________________________________________________________________________
batch_normalization_v1_1179 (Ba (None, 8, 8, 64)     256         conv2d_1179[0][0]                
__________________________________________________________________________________________________
re_lu_1768 (ReLU)               (None, 8, 8, 64)     0           batch_normalization_v1_1179[0][0]
__________________________________________________________________________________________________
conv2d_1180 (Conv2D)            (None, 8, 8, 64)     36864       re_lu_1768[0][0]                 
__________________________________________________________________________________________________
batch_normalization_v1_1180 (Ba (None, 8, 8, 64)     256         conv2d_1180[0][0]                
__________________________________________________________________________________________________
re_lu_1769 (ReLU)               (None, 8, 8, 64)     0           batch_normalization_v1_1180[0][0]
__________________________________________________________________________________________________
add_589 (Add)                   (None, 8, 8, 64)     0           re_lu_1769[0][0]                 
                                                                 re_lu_1767[0][0]                 
__________________________________________________________________________________________________
re_lu_1770 (ReLU)               (None, 8, 8, 64)     0           add_589[0][0]                    
__________________________________________________________________________________________________
conv2d_1181 (Conv2D)            (None, 8, 8, 64)     36864       re_lu_1770[0][0]                 
__________________________________________________________________________________________________
batch_normalization_v1_1181 (Ba (None, 8, 8, 64)     256         conv2d_1181[0][0]                
__________________________________________________________________________________________________
re_lu_1771 (ReLU)               (None, 8, 8, 64)     0           batch_normalization_v1_1181[0][0]
__________________________________________________________________________________________________
conv2d_1182 (Conv2D)            (None, 8, 8, 64)     36864       re_lu_1771[0][0]                 
__________________________________________________________________________________________________
batch_normalization_v1_1182 (Ba (None, 8, 8, 64)     256         conv2d_1182[0][0]                
__________________________________________________________________________________________________
re_lu_1772 (ReLU)               (None, 8, 8, 64)     0           batch_normalization_v1_1182[0][0]
__________________________________________________________________________________________________
add_590 (Add)                   (None, 8, 8, 64)     0           re_lu_1772[0][0]                 
                                                                 re_lu_1770[0][0]                 
__________________________________________________________________________________________________
re_lu_1773 (ReLU)               (None, 8, 8, 64)     0           add_590[0][0]                    
__________________________________________________________________________________________________
conv2d_1183 (Conv2D)            (None, 8, 8, 64)     36864       re_lu_1773[0][0]                 
__________________________________________________________________________________________________
batch_normalization_v1_1183 (Ba (None, 8, 8, 64)     256         conv2d_1183[0][0]                
__________________________________________________________________________________________________
re_lu_1774 (ReLU)               (None, 8, 8, 64)     0           batch_normalization_v1_1183[0][0]
__________________________________________________________________________________________________
conv2d_1184 (Conv2D)            (None, 8, 8, 64)     36864       re_lu_1774[0][0]                 
__________________________________________________________________________________________________
batch_normalization_v1_1184 (Ba (None, 8, 8, 64)     256         conv2d_1184[0][0]                
__________________________________________________________________________________________________
re_lu_1775 (ReLU)               (None, 8, 8, 64)     0           batch_normalization_v1_1184[0][0]
__________________________________________________________________________________________________
add_591 (Add)                   (None, 8, 8, 64)     0           re_lu_1775[0][0]                 
                                                                 re_lu_1773[0][0]                 
__________________________________________________________________________________________________
re_lu_1776 (ReLU)               (None, 8, 8, 64)     0           add_591[0][0]                    
__________________________________________________________________________________________________
conv2d_1185 (Conv2D)            (None, 8, 8, 64)     36864       re_lu_1776[0][0]                 
__________________________________________________________________________________________________
batch_normalization_v1_1185 (Ba (None, 8, 8, 64)     256         conv2d_1185[0][0]                
__________________________________________________________________________________________________
re_lu_1777 (ReLU)               (None, 8, 8, 64)     0           batch_normalization_v1_1185[0][0]
__________________________________________________________________________________________________
conv2d_1186 (Conv2D)            (None, 8, 8, 64)     36864       re_lu_1777[0][0]                 
__________________________________________________________________________________________________
batch_normalization_v1_1186 (Ba (None, 8, 8, 64)     256         conv2d_1186[0][0]                
__________________________________________________________________________________________________
re_lu_1778 (ReLU)               (None, 8, 8, 64)     0           batch_normalization_v1_1186[0][0]
__________________________________________________________________________________________________
add_592 (Add)                   (None, 8, 8, 64)     0           re_lu_1778[0][0]                 
                                                                 re_lu_1776[0][0]                 
__________________________________________________________________________________________________
re_lu_1779 (ReLU)               (None, 8, 8, 64)     0           add_592[0][0]                    
__________________________________________________________________________________________________
conv2d_1187 (Conv2D)            (None, 8, 8, 64)     36864       re_lu_1779[0][0]                 
__________________________________________________________________________________________________
batch_normalization_v1_1187 (Ba (None, 8, 8, 64)     256         conv2d_1187[0][0]                
__________________________________________________________________________________________________
re_lu_1780 (ReLU)               (None, 8, 8, 64)     0           batch_normalization_v1_1187[0][0]
__________________________________________________________________________________________________
conv2d_1188 (Conv2D)            (None, 8, 8, 64)     36864       re_lu_1780[0][0]                 
__________________________________________________________________________________________________
batch_normalization_v1_1188 (Ba (None, 8, 8, 64)     256         conv2d_1188[0][0]                
__________________________________________________________________________________________________
re_lu_1781 (ReLU)               (None, 8, 8, 64)     0           batch_normalization_v1_1188[0][0]
__________________________________________________________________________________________________
add_593 (Add)                   (None, 8, 8, 64)     0           re_lu_1781[0][0]                 
                                                                 re_lu_1779[0][0]                 
__________________________________________________________________________________________________
re_lu_1782 (ReLU)               (None, 8, 8, 64)     0           add_593[0][0]                    
__________________________________________________________________________________________________
conv2d_1189 (Conv2D)            (None, 8, 8, 64)     36864       re_lu_1782[0][0]                 
__________________________________________________________________________________________________
batch_normalization_v1_1189 (Ba (None, 8, 8, 64)     256         conv2d_1189[0][0]                
__________________________________________________________________________________________________
re_lu_1783 (ReLU)               (None, 8, 8, 64)     0           batch_normalization_v1_1189[0][0]
__________________________________________________________________________________________________
conv2d_1190 (Conv2D)            (None, 8, 8, 64)     36864       re_lu_1783[0][0]                 
__________________________________________________________________________________________________
batch_normalization_v1_1190 (Ba (None, 8, 8, 64)     256         conv2d_1190[0][0]                
__________________________________________________________________________________________________
re_lu_1784 (ReLU)               (None, 8, 8, 64)     0           batch_normalization_v1_1190[0][0]
__________________________________________________________________________________________________
add_594 (Add)                   (None, 8, 8, 64)     0           re_lu_1784[0][0]                 
                                                                 re_lu_1782[0][0]                 
__________________________________________________________________________________________________
re_lu_1785 (ReLU)               (None, 8, 8, 64)     0           add_594[0][0]                    
__________________________________________________________________________________________________
conv2d_1191 (Conv2D)            (None, 8, 8, 64)     36864       re_lu_1785[0][0]                 
__________________________________________________________________________________________________
batch_normalization_v1_1191 (Ba (None, 8, 8, 64)     256         conv2d_1191[0][0]                
__________________________________________________________________________________________________
re_lu_1786 (ReLU)               (None, 8, 8, 64)     0           batch_normalization_v1_1191[0][0]
__________________________________________________________________________________________________
conv2d_1192 (Conv2D)            (None, 8, 8, 64)     36864       re_lu_1786[0][0]                 
__________________________________________________________________________________________________
batch_normalization_v1_1192 (Ba (None, 8, 8, 64)     256         conv2d_1192[0][0]                
__________________________________________________________________________________________________
re_lu_1787 (ReLU)               (None, 8, 8, 64)     0           batch_normalization_v1_1192[0][0]
__________________________________________________________________________________________________
add_595 (Add)                   (None, 8, 8, 64)     0           re_lu_1787[0][0]                 
                                                                 re_lu_1785[0][0]                 
__________________________________________________________________________________________________
re_lu_1788 (ReLU)               (None, 8, 8, 64)     0           add_595[0][0]                    
__________________________________________________________________________________________________
conv2d_1193 (Conv2D)            (None, 8, 8, 64)     36864       re_lu_1788[0][0]                 
__________________________________________________________________________________________________
batch_normalization_v1_1193 (Ba (None, 8, 8, 64)     256         conv2d_1193[0][0]                
__________________________________________________________________________________________________
re_lu_1789 (ReLU)               (None, 8, 8, 64)     0           batch_normalization_v1_1193[0][0]
__________________________________________________________________________________________________
conv2d_1194 (Conv2D)            (None, 8, 8, 64)     36864       re_lu_1789[0][0]                 
__________________________________________________________________________________________________
batch_normalization_v1_1194 (Ba (None, 8, 8, 64)     256         conv2d_1194[0][0]                
__________________________________________________________________________________________________
re_lu_1790 (ReLU)               (None, 8, 8, 64)     0           batch_normalization_v1_1194[0][0]
__________________________________________________________________________________________________
add_596 (Add)                   (None, 8, 8, 64)     0           re_lu_1790[0][0]                 
                                                                 re_lu_1788[0][0]                 
__________________________________________________________________________________________________
re_lu_1791 (ReLU)               (None, 8, 8, 64)     0           add_596[0][0]                    
__________________________________________________________________________________________________
conv2d_1195 (Conv2D)            (None, 8, 8, 64)     36864       re_lu_1791[0][0]                 
__________________________________________________________________________________________________
batch_normalization_v1_1195 (Ba (None, 8, 8, 64)     256         conv2d_1195[0][0]                
__________________________________________________________________________________________________
re_lu_1792 (ReLU)               (None, 8, 8, 64)     0           batch_normalization_v1_1195[0][0]
__________________________________________________________________________________________________
conv2d_1196 (Conv2D)            (None, 8, 8, 64)     36864       re_lu_1792[0][0]                 
__________________________________________________________________________________________________
batch_normalization_v1_1196 (Ba (None, 8, 8, 64)     256         conv2d_1196[0][0]                
__________________________________________________________________________________________________
re_lu_1793 (ReLU)               (None, 8, 8, 64)     0           batch_normalization_v1_1196[0][0]
__________________________________________________________________________________________________
add_597 (Add)                   (None, 8, 8, 64)     0           re_lu_1793[0][0]                 
                                                                 re_lu_1791[0][0]                 
__________________________________________________________________________________________________
re_lu_1794 (ReLU)               (None, 8, 8, 64)     0           add_597[0][0]                    
__________________________________________________________________________________________________
conv2d_1197 (Conv2D)            (None, 8, 8, 64)     36864       re_lu_1794[0][0]                 
__________________________________________________________________________________________________
batch_normalization_v1_1197 (Ba (None, 8, 8, 64)     256         conv2d_1197[0][0]                
__________________________________________________________________________________________________
re_lu_1795 (ReLU)               (None, 8, 8, 64)     0           batch_normalization_v1_1197[0][0]
__________________________________________________________________________________________________
conv2d_1198 (Conv2D)            (None, 8, 8, 64)     36864       re_lu_1795[0][0]                 
__________________________________________________________________________________________________
batch_normalization_v1_1198 (Ba (None, 8, 8, 64)     256         conv2d_1198[0][0]                
__________________________________________________________________________________________________
re_lu_1796 (ReLU)               (None, 8, 8, 64)     0           batch_normalization_v1_1198[0][0]
__________________________________________________________________________________________________
add_598 (Add)                   (None, 8, 8, 64)     0           re_lu_1796[0][0]                 
                                                                 re_lu_1794[0][0]                 
__________________________________________________________________________________________________
re_lu_1797 (ReLU)               (None, 8, 8, 64)     0           add_598[0][0]                    
__________________________________________________________________________________________________
conv2d_1199 (Conv2D)            (None, 8, 8, 64)     36864       re_lu_1797[0][0]                 
__________________________________________________________________________________________________
batch_normalization_v1_1199 (Ba (None, 8, 8, 64)     256         conv2d_1199[0][0]                
__________________________________________________________________________________________________
re_lu_1798 (ReLU)               (None, 8, 8, 64)     0           batch_normalization_v1_1199[0][0]
__________________________________________________________________________________________________
conv2d_1200 (Conv2D)            (None, 8, 8, 64)     36864       re_lu_1798[0][0]                 
__________________________________________________________________________________________________
batch_normalization_v1_1200 (Ba (None, 8, 8, 64)     256         conv2d_1200[0][0]                
__________________________________________________________________________________________________
re_lu_1799 (ReLU)               (None, 8, 8, 64)     0           batch_normalization_v1_1200[0][0]
__________________________________________________________________________________________________
add_599 (Add)                   (None, 8, 8, 64)     0           re_lu_1799[0][0]                 
                                                                 re_lu_1797[0][0]                 
__________________________________________________________________________________________________
re_lu_1800 (ReLU)               (None, 8, 8, 64)     0           add_599[0][0]                    
__________________________________________________________________________________________________
global_average_pooling2d (Globa (None, 64)           0           re_lu_1800[0][0]                 
__________________________________________________________________________________________________
dense (Dense)                   (None, 10)           650         global_average_pooling2d[0][0]   
==================================================================================================
Total params: 19,510,906
Trainable params: 19,421,274
Non-trainable params: 89,632
__________________________________________________________________________________________________