__________________________________________________________________________________________________
Layer (type)                    Output Shape         Param #     Connected to                     
==================================================================================================
input_1 (InputLayer)            (None, 32, 32, 3)    0                                            
__________________________________________________________________________________________________
conv2d (Conv2D)                 (None, 32, 32, 16)   432         input_1[0][0]                    
__________________________________________________________________________________________________
batch_normalization_v1 (BatchNo (None, 32, 32, 16)   64          conv2d[0][0]                     
__________________________________________________________________________________________________
re_lu (ReLU)                    (None, 32, 32, 16)   0           batch_normalization_v1[0][0]     
__________________________________________________________________________________________________
conv2d_1 (Conv2D)               (None, 32, 32, 16)   2304        re_lu[0][0]                      
__________________________________________________________________________________________________
batch_normalization_v1_1 (Batch (None, 32, 32, 16)   64          conv2d_1[0][0]                   
__________________________________________________________________________________________________
re_lu_1 (ReLU)                  (None, 32, 32, 16)   0           batch_normalization_v1_1[0][0]   
__________________________________________________________________________________________________
conv2d_2 (Conv2D)               (None, 32, 32, 16)   2304        re_lu_1[0][0]                    
__________________________________________________________________________________________________
batch_normalization_v1_2 (Batch (None, 32, 32, 16)   64          conv2d_2[0][0]                   
__________________________________________________________________________________________________
re_lu_2 (ReLU)                  (None, 32, 32, 16)   0           batch_normalization_v1_2[0][0]   
__________________________________________________________________________________________________
add (Add)                       (None, 32, 32, 16)   0           re_lu_2[0][0]                    
                                                                 re_lu[0][0]                      
__________________________________________________________________________________________________
re_lu_3 (ReLU)                  (None, 32, 32, 16)   0           add[0][0]                        
__________________________________________________________________________________________________
conv2d_3 (Conv2D)               (None, 32, 32, 16)   2304        re_lu_3[0][0]                    
__________________________________________________________________________________________________
batch_normalization_v1_3 (Batch (None, 32, 32, 16)   64          conv2d_3[0][0]                   
__________________________________________________________________________________________________
re_lu_4 (ReLU)                  (None, 32, 32, 16)   0           batch_normalization_v1_3[0][0]   
__________________________________________________________________________________________________
conv2d_4 (Conv2D)               (None, 32, 32, 16)   2304        re_lu_4[0][0]                    
__________________________________________________________________________________________________
batch_normalization_v1_4 (Batch (None, 32, 32, 16)   64          conv2d_4[0][0]                   
__________________________________________________________________________________________________
re_lu_5 (ReLU)                  (None, 32, 32, 16)   0           batch_normalization_v1_4[0][0]   
__________________________________________________________________________________________________
add_1 (Add)                     (None, 32, 32, 16)   0           re_lu_5[0][0]                    
                                                                 re_lu_3[0][0]                    
__________________________________________________________________________________________________
re_lu_6 (ReLU)                  (None, 32, 32, 16)   0           add_1[0][0]                      
__________________________________________________________________________________________________
conv2d_5 (Conv2D)               (None, 32, 32, 16)   2304        re_lu_6[0][0]                    
__________________________________________________________________________________________________
batch_normalization_v1_5 (Batch (None, 32, 32, 16)   64          conv2d_5[0][0]                   
__________________________________________________________________________________________________
re_lu_7 (ReLU)                  (None, 32, 32, 16)   0           batch_normalization_v1_5[0][0]   
__________________________________________________________________________________________________
conv2d_6 (Conv2D)               (None, 32, 32, 16)   2304        re_lu_7[0][0]                    
__________________________________________________________________________________________________
batch_normalization_v1_6 (Batch (None, 32, 32, 16)   64          conv2d_6[0][0]                   
__________________________________________________________________________________________________
re_lu_8 (ReLU)                  (None, 32, 32, 16)   0           batch_normalization_v1_6[0][0]   
__________________________________________________________________________________________________
add_2 (Add)                     (None, 32, 32, 16)   0           re_lu_8[0][0]                    
                                                                 re_lu_6[0][0]                    
__________________________________________________________________________________________________
re_lu_9 (ReLU)                  (None, 32, 32, 16)   0           add_2[0][0]                      
__________________________________________________________________________________________________
conv2d_7 (Conv2D)               (None, 32, 32, 16)   2304        re_lu_9[0][0]                    
__________________________________________________________________________________________________
batch_normalization_v1_7 (Batch (None, 32, 32, 16)   64          conv2d_7[0][0]                   
__________________________________________________________________________________________________
re_lu_10 (ReLU)                 (None, 32, 32, 16)   0           batch_normalization_v1_7[0][0]   
__________________________________________________________________________________________________
conv2d_8 (Conv2D)               (None, 32, 32, 16)   2304        re_lu_10[0][0]                   
__________________________________________________________________________________________________
batch_normalization_v1_8 (Batch (None, 32, 32, 16)   64          conv2d_8[0][0]                   
__________________________________________________________________________________________________
re_lu_11 (ReLU)                 (None, 32, 32, 16)   0           batch_normalization_v1_8[0][0]   
__________________________________________________________________________________________________
add_3 (Add)                     (None, 32, 32, 16)   0           re_lu_11[0][0]                   
                                                                 re_lu_9[0][0]                    
__________________________________________________________________________________________________
re_lu_12 (ReLU)                 (None, 32, 32, 16)   0           add_3[0][0]                      
__________________________________________________________________________________________________
conv2d_9 (Conv2D)               (None, 32, 32, 16)   2304        re_lu_12[0][0]                   
__________________________________________________________________________________________________
batch_normalization_v1_9 (Batch (None, 32, 32, 16)   64          conv2d_9[0][0]                   
__________________________________________________________________________________________________
re_lu_13 (ReLU)                 (None, 32, 32, 16)   0           batch_normalization_v1_9[0][0]   
__________________________________________________________________________________________________
conv2d_10 (Conv2D)              (None, 32, 32, 16)   2304        re_lu_13[0][0]                   
__________________________________________________________________________________________________
batch_normalization_v1_10 (Batc (None, 32, 32, 16)   64          conv2d_10[0][0]                  
__________________________________________________________________________________________________
re_lu_14 (ReLU)                 (None, 32, 32, 16)   0           batch_normalization_v1_10[0][0]  
__________________________________________________________________________________________________
add_4 (Add)                     (None, 32, 32, 16)   0           re_lu_14[0][0]                   
                                                                 re_lu_12[0][0]                   
__________________________________________________________________________________________________
re_lu_15 (ReLU)                 (None, 32, 32, 16)   0           add_4[0][0]                      
__________________________________________________________________________________________________
conv2d_11 (Conv2D)              (None, 32, 32, 16)   2304        re_lu_15[0][0]                   
__________________________________________________________________________________________________
batch_normalization_v1_11 (Batc (None, 32, 32, 16)   64          conv2d_11[0][0]                  
__________________________________________________________________________________________________
re_lu_16 (ReLU)                 (None, 32, 32, 16)   0           batch_normalization_v1_11[0][0]  
__________________________________________________________________________________________________
conv2d_12 (Conv2D)              (None, 32, 32, 16)   2304        re_lu_16[0][0]                   
__________________________________________________________________________________________________
batch_normalization_v1_12 (Batc (None, 32, 32, 16)   64          conv2d_12[0][0]                  
__________________________________________________________________________________________________
re_lu_17 (ReLU)                 (None, 32, 32, 16)   0           batch_normalization_v1_12[0][0]  
__________________________________________________________________________________________________
add_5 (Add)                     (None, 32, 32, 16)   0           re_lu_17[0][0]                   
                                                                 re_lu_15[0][0]                   
__________________________________________________________________________________________________
re_lu_18 (ReLU)                 (None, 32, 32, 16)   0           add_5[0][0]                      
__________________________________________________________________________________________________
conv2d_13 (Conv2D)              (None, 32, 32, 16)   2304        re_lu_18[0][0]                   
__________________________________________________________________________________________________
batch_normalization_v1_13 (Batc (None, 32, 32, 16)   64          conv2d_13[0][0]                  
__________________________________________________________________________________________________
re_lu_19 (ReLU)                 (None, 32, 32, 16)   0           batch_normalization_v1_13[0][0]  
__________________________________________________________________________________________________
conv2d_14 (Conv2D)              (None, 32, 32, 16)   2304        re_lu_19[0][0]                   
__________________________________________________________________________________________________
batch_normalization_v1_14 (Batc (None, 32, 32, 16)   64          conv2d_14[0][0]                  
__________________________________________________________________________________________________
re_lu_20 (ReLU)                 (None, 32, 32, 16)   0           batch_normalization_v1_14[0][0]  
__________________________________________________________________________________________________
add_6 (Add)                     (None, 32, 32, 16)   0           re_lu_20[0][0]                   
                                                                 re_lu_18[0][0]                   
__________________________________________________________________________________________________
re_lu_21 (ReLU)                 (None, 32, 32, 16)   0           add_6[0][0]                      
__________________________________________________________________________________________________
conv2d_15 (Conv2D)              (None, 32, 32, 16)   2304        re_lu_21[0][0]                   
__________________________________________________________________________________________________
batch_normalization_v1_15 (Batc (None, 32, 32, 16)   64          conv2d_15[0][0]                  
__________________________________________________________________________________________________
re_lu_22 (ReLU)                 (None, 32, 32, 16)   0           batch_normalization_v1_15[0][0]  
__________________________________________________________________________________________________
conv2d_16 (Conv2D)              (None, 32, 32, 16)   2304        re_lu_22[0][0]                   
__________________________________________________________________________________________________
batch_normalization_v1_16 (Batc (None, 32, 32, 16)   64          conv2d_16[0][0]                  
__________________________________________________________________________________________________
re_lu_23 (ReLU)                 (None, 32, 32, 16)   0           batch_normalization_v1_16[0][0]  
__________________________________________________________________________________________________
add_7 (Add)                     (None, 32, 32, 16)   0           re_lu_23[0][0]                   
                                                                 re_lu_21[0][0]                   
__________________________________________________________________________________________________
re_lu_24 (ReLU)                 (None, 32, 32, 16)   0           add_7[0][0]                      
__________________________________________________________________________________________________
conv2d_17 (Conv2D)              (None, 32, 32, 16)   2304        re_lu_24[0][0]                   
__________________________________________________________________________________________________
batch_normalization_v1_17 (Batc (None, 32, 32, 16)   64          conv2d_17[0][0]                  
__________________________________________________________________________________________________
re_lu_25 (ReLU)                 (None, 32, 32, 16)   0           batch_normalization_v1_17[0][0]  
__________________________________________________________________________________________________
conv2d_18 (Conv2D)              (None, 32, 32, 16)   2304        re_lu_25[0][0]                   
__________________________________________________________________________________________________
batch_normalization_v1_18 (Batc (None, 32, 32, 16)   64          conv2d_18[0][0]                  
__________________________________________________________________________________________________
re_lu_26 (ReLU)                 (None, 32, 32, 16)   0           batch_normalization_v1_18[0][0]  
__________________________________________________________________________________________________
add_8 (Add)                     (None, 32, 32, 16)   0           re_lu_26[0][0]                   
                                                                 re_lu_24[0][0]                   
__________________________________________________________________________________________________
re_lu_27 (ReLU)                 (None, 32, 32, 16)   0           add_8[0][0]                      
__________________________________________________________________________________________________
conv2d_19 (Conv2D)              (None, 32, 32, 16)   2304        re_lu_27[0][0]                   
__________________________________________________________________________________________________
batch_normalization_v1_19 (Batc (None, 32, 32, 16)   64          conv2d_19[0][0]                  
__________________________________________________________________________________________________
re_lu_28 (ReLU)                 (None, 32, 32, 16)   0           batch_normalization_v1_19[0][0]  
__________________________________________________________________________________________________
conv2d_20 (Conv2D)              (None, 32, 32, 16)   2304        re_lu_28[0][0]                   
__________________________________________________________________________________________________
batch_normalization_v1_20 (Batc (None, 32, 32, 16)   64          conv2d_20[0][0]                  
__________________________________________________________________________________________________
re_lu_29 (ReLU)                 (None, 32, 32, 16)   0           batch_normalization_v1_20[0][0]  
__________________________________________________________________________________________________
add_9 (Add)                     (None, 32, 32, 16)   0           re_lu_29[0][0]                   
                                                                 re_lu_27[0][0]                   
__________________________________________________________________________________________________
re_lu_30 (ReLU)                 (None, 32, 32, 16)   0           add_9[0][0]                      
__________________________________________________________________________________________________
conv2d_21 (Conv2D)              (None, 32, 32, 16)   2304        re_lu_30[0][0]                   
__________________________________________________________________________________________________
batch_normalization_v1_21 (Batc (None, 32, 32, 16)   64          conv2d_21[0][0]                  
__________________________________________________________________________________________________
re_lu_31 (ReLU)                 (None, 32, 32, 16)   0           batch_normalization_v1_21[0][0]  
__________________________________________________________________________________________________
conv2d_22 (Conv2D)              (None, 32, 32, 16)   2304        re_lu_31[0][0]                   
__________________________________________________________________________________________________
batch_normalization_v1_22 (Batc (None, 32, 32, 16)   64          conv2d_22[0][0]                  
__________________________________________________________________________________________________
re_lu_32 (ReLU)                 (None, 32, 32, 16)   0           batch_normalization_v1_22[0][0]  
__________________________________________________________________________________________________
add_10 (Add)                    (None, 32, 32, 16)   0           re_lu_32[0][0]                   
                                                                 re_lu_30[0][0]                   
__________________________________________________________________________________________________
re_lu_33 (ReLU)                 (None, 32, 32, 16)   0           add_10[0][0]                     
__________________________________________________________________________________________________
conv2d_23 (Conv2D)              (None, 32, 32, 16)   2304        re_lu_33[0][0]                   
__________________________________________________________________________________________________
batch_normalization_v1_23 (Batc (None, 32, 32, 16)   64          conv2d_23[0][0]                  
__________________________________________________________________________________________________
re_lu_34 (ReLU)                 (None, 32, 32, 16)   0           batch_normalization_v1_23[0][0]  
__________________________________________________________________________________________________
conv2d_24 (Conv2D)              (None, 32, 32, 16)   2304        re_lu_34[0][0]                   
__________________________________________________________________________________________________
batch_normalization_v1_24 (Batc (None, 32, 32, 16)   64          conv2d_24[0][0]                  
__________________________________________________________________________________________________
re_lu_35 (ReLU)                 (None, 32, 32, 16)   0           batch_normalization_v1_24[0][0]  
__________________________________________________________________________________________________
add_11 (Add)                    (None, 32, 32, 16)   0           re_lu_35[0][0]                   
                                                                 re_lu_33[0][0]                   
__________________________________________________________________________________________________
re_lu_36 (ReLU)                 (None, 32, 32, 16)   0           add_11[0][0]                     
__________________________________________________________________________________________________
conv2d_25 (Conv2D)              (None, 32, 32, 16)   2304        re_lu_36[0][0]                   
__________________________________________________________________________________________________
batch_normalization_v1_25 (Batc (None, 32, 32, 16)   64          conv2d_25[0][0]                  
__________________________________________________________________________________________________
re_lu_37 (ReLU)                 (None, 32, 32, 16)   0           batch_normalization_v1_25[0][0]  
__________________________________________________________________________________________________
conv2d_26 (Conv2D)              (None, 32, 32, 16)   2304        re_lu_37[0][0]                   
__________________________________________________________________________________________________
batch_normalization_v1_26 (Batc (None, 32, 32, 16)   64          conv2d_26[0][0]                  
__________________________________________________________________________________________________
re_lu_38 (ReLU)                 (None, 32, 32, 16)   0           batch_normalization_v1_26[0][0]  
__________________________________________________________________________________________________
add_12 (Add)                    (None, 32, 32, 16)   0           re_lu_38[0][0]                   
                                                                 re_lu_36[0][0]                   
__________________________________________________________________________________________________
re_lu_39 (ReLU)                 (None, 32, 32, 16)   0           add_12[0][0]                     
__________________________________________________________________________________________________
conv2d_27 (Conv2D)              (None, 32, 32, 16)   2304        re_lu_39[0][0]                   
__________________________________________________________________________________________________
batch_normalization_v1_27 (Batc (None, 32, 32, 16)   64          conv2d_27[0][0]                  
__________________________________________________________________________________________________
re_lu_40 (ReLU)                 (None, 32, 32, 16)   0           batch_normalization_v1_27[0][0]  
__________________________________________________________________________________________________
conv2d_28 (Conv2D)              (None, 32, 32, 16)   2304        re_lu_40[0][0]                   
__________________________________________________________________________________________________
batch_normalization_v1_28 (Batc (None, 32, 32, 16)   64          conv2d_28[0][0]                  
__________________________________________________________________________________________________
re_lu_41 (ReLU)                 (None, 32, 32, 16)   0           batch_normalization_v1_28[0][0]  
__________________________________________________________________________________________________
add_13 (Add)                    (None, 32, 32, 16)   0           re_lu_41[0][0]                   
                                                                 re_lu_39[0][0]                   
__________________________________________________________________________________________________
re_lu_42 (ReLU)                 (None, 32, 32, 16)   0           add_13[0][0]                     
__________________________________________________________________________________________________
conv2d_29 (Conv2D)              (None, 32, 32, 16)   2304        re_lu_42[0][0]                   
__________________________________________________________________________________________________
batch_normalization_v1_29 (Batc (None, 32, 32, 16)   64          conv2d_29[0][0]                  
__________________________________________________________________________________________________
re_lu_43 (ReLU)                 (None, 32, 32, 16)   0           batch_normalization_v1_29[0][0]  
__________________________________________________________________________________________________
conv2d_30 (Conv2D)              (None, 32, 32, 16)   2304        re_lu_43[0][0]                   
__________________________________________________________________________________________________
batch_normalization_v1_30 (Batc (None, 32, 32, 16)   64          conv2d_30[0][0]                  
__________________________________________________________________________________________________
re_lu_44 (ReLU)                 (None, 32, 32, 16)   0           batch_normalization_v1_30[0][0]  
__________________________________________________________________________________________________
add_14 (Add)                    (None, 32, 32, 16)   0           re_lu_44[0][0]                   
                                                                 re_lu_42[0][0]                   
__________________________________________________________________________________________________
re_lu_45 (ReLU)                 (None, 32, 32, 16)   0           add_14[0][0]                     
__________________________________________________________________________________________________
conv2d_31 (Conv2D)              (None, 32, 32, 16)   2304        re_lu_45[0][0]                   
__________________________________________________________________________________________________
batch_normalization_v1_31 (Batc (None, 32, 32, 16)   64          conv2d_31[0][0]                  
__________________________________________________________________________________________________
re_lu_46 (ReLU)                 (None, 32, 32, 16)   0           batch_normalization_v1_31[0][0]  
__________________________________________________________________________________________________
conv2d_32 (Conv2D)              (None, 32, 32, 16)   2304        re_lu_46[0][0]                   
__________________________________________________________________________________________________
batch_normalization_v1_32 (Batc (None, 32, 32, 16)   64          conv2d_32[0][0]                  
__________________________________________________________________________________________________
re_lu_47 (ReLU)                 (None, 32, 32, 16)   0           batch_normalization_v1_32[0][0]  
__________________________________________________________________________________________________
add_15 (Add)                    (None, 32, 32, 16)   0           re_lu_47[0][0]                   
                                                                 re_lu_45[0][0]                   
__________________________________________________________________________________________________
re_lu_48 (ReLU)                 (None, 32, 32, 16)   0           add_15[0][0]                     
__________________________________________________________________________________________________
conv2d_33 (Conv2D)              (None, 32, 32, 16)   2304        re_lu_48[0][0]                   
__________________________________________________________________________________________________
batch_normalization_v1_33 (Batc (None, 32, 32, 16)   64          conv2d_33[0][0]                  
__________________________________________________________________________________________________
re_lu_49 (ReLU)                 (None, 32, 32, 16)   0           batch_normalization_v1_33[0][0]  
__________________________________________________________________________________________________
conv2d_34 (Conv2D)              (None, 32, 32, 16)   2304        re_lu_49[0][0]                   
__________________________________________________________________________________________________
batch_normalization_v1_34 (Batc (None, 32, 32, 16)   64          conv2d_34[0][0]                  
__________________________________________________________________________________________________
re_lu_50 (ReLU)                 (None, 32, 32, 16)   0           batch_normalization_v1_34[0][0]  
__________________________________________________________________________________________________
add_16 (Add)                    (None, 32, 32, 16)   0           re_lu_50[0][0]                   
                                                                 re_lu_48[0][0]                   
__________________________________________________________________________________________________
re_lu_51 (ReLU)                 (None, 32, 32, 16)   0           add_16[0][0]                     
__________________________________________________________________________________________________
conv2d_35 (Conv2D)              (None, 32, 32, 16)   2304        re_lu_51[0][0]                   
__________________________________________________________________________________________________
batch_normalization_v1_35 (Batc (None, 32, 32, 16)   64          conv2d_35[0][0]                  
__________________________________________________________________________________________________
re_lu_52 (ReLU)                 (None, 32, 32, 16)   0           batch_normalization_v1_35[0][0]  
__________________________________________________________________________________________________
conv2d_36 (Conv2D)              (None, 32, 32, 16)   2304        re_lu_52[0][0]                   
__________________________________________________________________________________________________
batch_normalization_v1_36 (Batc (None, 32, 32, 16)   64          conv2d_36[0][0]                  
__________________________________________________________________________________________________
re_lu_53 (ReLU)                 (None, 32, 32, 16)   0           batch_normalization_v1_36[0][0]  
__________________________________________________________________________________________________
add_17 (Add)                    (None, 32, 32, 16)   0           re_lu_53[0][0]                   
                                                                 re_lu_51[0][0]                   
__________________________________________________________________________________________________
re_lu_54 (ReLU)                 (None, 32, 32, 16)   0           add_17[0][0]                     
__________________________________________________________________________________________________
conv2d_37 (Conv2D)              (None, 16, 16, 32)   4608        re_lu_54[0][0]                   
__________________________________________________________________________________________________
batch_normalization_v1_37 (Batc (None, 16, 16, 32)   128         conv2d_37[0][0]                  
__________________________________________________________________________________________________
re_lu_55 (ReLU)                 (None, 16, 16, 32)   0           batch_normalization_v1_37[0][0]  
__________________________________________________________________________________________________
conv2d_38 (Conv2D)              (None, 16, 16, 32)   9216        re_lu_55[0][0]                   
__________________________________________________________________________________________________
batch_normalization_v1_38 (Batc (None, 16, 16, 32)   128         conv2d_38[0][0]                  
__________________________________________________________________________________________________
max_pooling2d (MaxPooling2D)    (None, 16, 16, 16)   0           re_lu_54[0][0]                   
__________________________________________________________________________________________________
re_lu_56 (ReLU)                 (None, 16, 16, 32)   0           batch_normalization_v1_38[0][0]  
__________________________________________________________________________________________________
lambda (Lambda)                 (None, 16, 16, 32)   0           max_pooling2d[0][0]              
__________________________________________________________________________________________________
add_18 (Add)                    (None, 16, 16, 32)   0           re_lu_56[0][0]                   
                                                                 lambda[0][0]                     
__________________________________________________________________________________________________
re_lu_57 (ReLU)                 (None, 16, 16, 32)   0           add_18[0][0]                     
__________________________________________________________________________________________________
conv2d_39 (Conv2D)              (None, 16, 16, 32)   9216        re_lu_57[0][0]                   
__________________________________________________________________________________________________
batch_normalization_v1_39 (Batc (None, 16, 16, 32)   128         conv2d_39[0][0]                  
__________________________________________________________________________________________________
re_lu_58 (ReLU)                 (None, 16, 16, 32)   0           batch_normalization_v1_39[0][0]  
__________________________________________________________________________________________________
conv2d_40 (Conv2D)              (None, 16, 16, 32)   9216        re_lu_58[0][0]                   
__________________________________________________________________________________________________
batch_normalization_v1_40 (Batc (None, 16, 16, 32)   128         conv2d_40[0][0]                  
__________________________________________________________________________________________________
re_lu_59 (ReLU)                 (None, 16, 16, 32)   0           batch_normalization_v1_40[0][0]  
__________________________________________________________________________________________________
add_19 (Add)                    (None, 16, 16, 32)   0           re_lu_59[0][0]                   
                                                                 re_lu_57[0][0]                   
__________________________________________________________________________________________________
re_lu_60 (ReLU)                 (None, 16, 16, 32)   0           add_19[0][0]                     
__________________________________________________________________________________________________
conv2d_41 (Conv2D)              (None, 16, 16, 32)   9216        re_lu_60[0][0]                   
__________________________________________________________________________________________________
batch_normalization_v1_41 (Batc (None, 16, 16, 32)   128         conv2d_41[0][0]                  
__________________________________________________________________________________________________
re_lu_61 (ReLU)                 (None, 16, 16, 32)   0           batch_normalization_v1_41[0][0]  
__________________________________________________________________________________________________
conv2d_42 (Conv2D)              (None, 16, 16, 32)   9216        re_lu_61[0][0]                   
__________________________________________________________________________________________________
batch_normalization_v1_42 (Batc (None, 16, 16, 32)   128         conv2d_42[0][0]                  
__________________________________________________________________________________________________
re_lu_62 (ReLU)                 (None, 16, 16, 32)   0           batch_normalization_v1_42[0][0]  
__________________________________________________________________________________________________
add_20 (Add)                    (None, 16, 16, 32)   0           re_lu_62[0][0]                   
                                                                 re_lu_60[0][0]                   
__________________________________________________________________________________________________
re_lu_63 (ReLU)                 (None, 16, 16, 32)   0           add_20[0][0]                     
__________________________________________________________________________________________________
conv2d_43 (Conv2D)              (None, 16, 16, 32)   9216        re_lu_63[0][0]                   
__________________________________________________________________________________________________
batch_normalization_v1_43 (Batc (None, 16, 16, 32)   128         conv2d_43[0][0]                  
__________________________________________________________________________________________________
re_lu_64 (ReLU)                 (None, 16, 16, 32)   0           batch_normalization_v1_43[0][0]  
__________________________________________________________________________________________________
conv2d_44 (Conv2D)              (None, 16, 16, 32)   9216        re_lu_64[0][0]                   
__________________________________________________________________________________________________
batch_normalization_v1_44 (Batc (None, 16, 16, 32)   128         conv2d_44[0][0]                  
__________________________________________________________________________________________________
re_lu_65 (ReLU)                 (None, 16, 16, 32)   0           batch_normalization_v1_44[0][0]  
__________________________________________________________________________________________________
add_21 (Add)                    (None, 16, 16, 32)   0           re_lu_65[0][0]                   
                                                                 re_lu_63[0][0]                   
__________________________________________________________________________________________________
re_lu_66 (ReLU)                 (None, 16, 16, 32)   0           add_21[0][0]                     
__________________________________________________________________________________________________
conv2d_45 (Conv2D)              (None, 16, 16, 32)   9216        re_lu_66[0][0]                   
__________________________________________________________________________________________________
batch_normalization_v1_45 (Batc (None, 16, 16, 32)   128         conv2d_45[0][0]                  
__________________________________________________________________________________________________
re_lu_67 (ReLU)                 (None, 16, 16, 32)   0           batch_normalization_v1_45[0][0]  
__________________________________________________________________________________________________
conv2d_46 (Conv2D)              (None, 16, 16, 32)   9216        re_lu_67[0][0]                   
__________________________________________________________________________________________________
batch_normalization_v1_46 (Batc (None, 16, 16, 32)   128         conv2d_46[0][0]                  
__________________________________________________________________________________________________
re_lu_68 (ReLU)                 (None, 16, 16, 32)   0           batch_normalization_v1_46[0][0]  
__________________________________________________________________________________________________
add_22 (Add)                    (None, 16, 16, 32)   0           re_lu_68[0][0]                   
                                                                 re_lu_66[0][0]                   
__________________________________________________________________________________________________
re_lu_69 (ReLU)                 (None, 16, 16, 32)   0           add_22[0][0]                     
__________________________________________________________________________________________________
conv2d_47 (Conv2D)              (None, 16, 16, 32)   9216        re_lu_69[0][0]                   
__________________________________________________________________________________________________
batch_normalization_v1_47 (Batc (None, 16, 16, 32)   128         conv2d_47[0][0]                  
__________________________________________________________________________________________________
re_lu_70 (ReLU)                 (None, 16, 16, 32)   0           batch_normalization_v1_47[0][0]  
__________________________________________________________________________________________________
conv2d_48 (Conv2D)              (None, 16, 16, 32)   9216        re_lu_70[0][0]                   
__________________________________________________________________________________________________
batch_normalization_v1_48 (Batc (None, 16, 16, 32)   128         conv2d_48[0][0]                  
__________________________________________________________________________________________________
re_lu_71 (ReLU)                 (None, 16, 16, 32)   0           batch_normalization_v1_48[0][0]  
__________________________________________________________________________________________________
add_23 (Add)                    (None, 16, 16, 32)   0           re_lu_71[0][0]                   
                                                                 re_lu_69[0][0]                   
__________________________________________________________________________________________________
re_lu_72 (ReLU)                 (None, 16, 16, 32)   0           add_23[0][0]                     
__________________________________________________________________________________________________
conv2d_49 (Conv2D)              (None, 16, 16, 32)   9216        re_lu_72[0][0]                   
__________________________________________________________________________________________________
batch_normalization_v1_49 (Batc (None, 16, 16, 32)   128         conv2d_49[0][0]                  
__________________________________________________________________________________________________
re_lu_73 (ReLU)                 (None, 16, 16, 32)   0           batch_normalization_v1_49[0][0]  
__________________________________________________________________________________________________
conv2d_50 (Conv2D)              (None, 16, 16, 32)   9216        re_lu_73[0][0]                   
__________________________________________________________________________________________________
batch_normalization_v1_50 (Batc (None, 16, 16, 32)   128         conv2d_50[0][0]                  
__________________________________________________________________________________________________
re_lu_74 (ReLU)                 (None, 16, 16, 32)   0           batch_normalization_v1_50[0][0]  
__________________________________________________________________________________________________
add_24 (Add)                    (None, 16, 16, 32)   0           re_lu_74[0][0]                   
                                                                 re_lu_72[0][0]                   
__________________________________________________________________________________________________
re_lu_75 (ReLU)                 (None, 16, 16, 32)   0           add_24[0][0]                     
__________________________________________________________________________________________________
conv2d_51 (Conv2D)              (None, 16, 16, 32)   9216        re_lu_75[0][0]                   
__________________________________________________________________________________________________
batch_normalization_v1_51 (Batc (None, 16, 16, 32)   128         conv2d_51[0][0]                  
__________________________________________________________________________________________________
re_lu_76 (ReLU)                 (None, 16, 16, 32)   0           batch_normalization_v1_51[0][0]  
__________________________________________________________________________________________________
conv2d_52 (Conv2D)              (None, 16, 16, 32)   9216        re_lu_76[0][0]                   
__________________________________________________________________________________________________
batch_normalization_v1_52 (Batc (None, 16, 16, 32)   128         conv2d_52[0][0]                  
__________________________________________________________________________________________________
re_lu_77 (ReLU)                 (None, 16, 16, 32)   0           batch_normalization_v1_52[0][0]  
__________________________________________________________________________________________________
add_25 (Add)                    (None, 16, 16, 32)   0           re_lu_77[0][0]                   
                                                                 re_lu_75[0][0]                   
__________________________________________________________________________________________________
re_lu_78 (ReLU)                 (None, 16, 16, 32)   0           add_25[0][0]                     
__________________________________________________________________________________________________
conv2d_53 (Conv2D)              (None, 16, 16, 32)   9216        re_lu_78[0][0]                   
__________________________________________________________________________________________________
batch_normalization_v1_53 (Batc (None, 16, 16, 32)   128         conv2d_53[0][0]                  
__________________________________________________________________________________________________
re_lu_79 (ReLU)                 (None, 16, 16, 32)   0           batch_normalization_v1_53[0][0]  
__________________________________________________________________________________________________
conv2d_54 (Conv2D)              (None, 16, 16, 32)   9216        re_lu_79[0][0]                   
__________________________________________________________________________________________________
batch_normalization_v1_54 (Batc (None, 16, 16, 32)   128         conv2d_54[0][0]                  
__________________________________________________________________________________________________
re_lu_80 (ReLU)                 (None, 16, 16, 32)   0           batch_normalization_v1_54[0][0]  
__________________________________________________________________________________________________
add_26 (Add)                    (None, 16, 16, 32)   0           re_lu_80[0][0]                   
                                                                 re_lu_78[0][0]                   
__________________________________________________________________________________________________
re_lu_81 (ReLU)                 (None, 16, 16, 32)   0           add_26[0][0]                     
__________________________________________________________________________________________________
conv2d_55 (Conv2D)              (None, 16, 16, 32)   9216        re_lu_81[0][0]                   
__________________________________________________________________________________________________
batch_normalization_v1_55 (Batc (None, 16, 16, 32)   128         conv2d_55[0][0]                  
__________________________________________________________________________________________________
re_lu_82 (ReLU)                 (None, 16, 16, 32)   0           batch_normalization_v1_55[0][0]  
__________________________________________________________________________________________________
conv2d_56 (Conv2D)              (None, 16, 16, 32)   9216        re_lu_82[0][0]                   
__________________________________________________________________________________________________
batch_normalization_v1_56 (Batc (None, 16, 16, 32)   128         conv2d_56[0][0]                  
__________________________________________________________________________________________________
re_lu_83 (ReLU)                 (None, 16, 16, 32)   0           batch_normalization_v1_56[0][0]  
__________________________________________________________________________________________________
add_27 (Add)                    (None, 16, 16, 32)   0           re_lu_83[0][0]                   
                                                                 re_lu_81[0][0]                   
__________________________________________________________________________________________________
re_lu_84 (ReLU)                 (None, 16, 16, 32)   0           add_27[0][0]                     
__________________________________________________________________________________________________
conv2d_57 (Conv2D)              (None, 16, 16, 32)   9216        re_lu_84[0][0]                   
__________________________________________________________________________________________________
batch_normalization_v1_57 (Batc (None, 16, 16, 32)   128         conv2d_57[0][0]                  
__________________________________________________________________________________________________
re_lu_85 (ReLU)                 (None, 16, 16, 32)   0           batch_normalization_v1_57[0][0]  
__________________________________________________________________________________________________
conv2d_58 (Conv2D)              (None, 16, 16, 32)   9216        re_lu_85[0][0]                   
__________________________________________________________________________________________________
batch_normalization_v1_58 (Batc (None, 16, 16, 32)   128         conv2d_58[0][0]                  
__________________________________________________________________________________________________
re_lu_86 (ReLU)                 (None, 16, 16, 32)   0           batch_normalization_v1_58[0][0]  
__________________________________________________________________________________________________
add_28 (Add)                    (None, 16, 16, 32)   0           re_lu_86[0][0]                   
                                                                 re_lu_84[0][0]                   
__________________________________________________________________________________________________
re_lu_87 (ReLU)                 (None, 16, 16, 32)   0           add_28[0][0]                     
__________________________________________________________________________________________________
conv2d_59 (Conv2D)              (None, 16, 16, 32)   9216        re_lu_87[0][0]                   
__________________________________________________________________________________________________
batch_normalization_v1_59 (Batc (None, 16, 16, 32)   128         conv2d_59[0][0]                  
__________________________________________________________________________________________________
re_lu_88 (ReLU)                 (None, 16, 16, 32)   0           batch_normalization_v1_59[0][0]  
__________________________________________________________________________________________________
conv2d_60 (Conv2D)              (None, 16, 16, 32)   9216        re_lu_88[0][0]                   
__________________________________________________________________________________________________
batch_normalization_v1_60 (Batc (None, 16, 16, 32)   128         conv2d_60[0][0]                  
__________________________________________________________________________________________________
re_lu_89 (ReLU)                 (None, 16, 16, 32)   0           batch_normalization_v1_60[0][0]  
__________________________________________________________________________________________________
add_29 (Add)                    (None, 16, 16, 32)   0           re_lu_89[0][0]                   
                                                                 re_lu_87[0][0]                   
__________________________________________________________________________________________________
re_lu_90 (ReLU)                 (None, 16, 16, 32)   0           add_29[0][0]                     
__________________________________________________________________________________________________
conv2d_61 (Conv2D)              (None, 16, 16, 32)   9216        re_lu_90[0][0]                   
__________________________________________________________________________________________________
batch_normalization_v1_61 (Batc (None, 16, 16, 32)   128         conv2d_61[0][0]                  
__________________________________________________________________________________________________
re_lu_91 (ReLU)                 (None, 16, 16, 32)   0           batch_normalization_v1_61[0][0]  
__________________________________________________________________________________________________
conv2d_62 (Conv2D)              (None, 16, 16, 32)   9216        re_lu_91[0][0]                   
__________________________________________________________________________________________________
batch_normalization_v1_62 (Batc (None, 16, 16, 32)   128         conv2d_62[0][0]                  
__________________________________________________________________________________________________
re_lu_92 (ReLU)                 (None, 16, 16, 32)   0           batch_normalization_v1_62[0][0]  
__________________________________________________________________________________________________
add_30 (Add)                    (None, 16, 16, 32)   0           re_lu_92[0][0]                   
                                                                 re_lu_90[0][0]                   
__________________________________________________________________________________________________
re_lu_93 (ReLU)                 (None, 16, 16, 32)   0           add_30[0][0]                     
__________________________________________________________________________________________________
conv2d_63 (Conv2D)              (None, 16, 16, 32)   9216        re_lu_93[0][0]                   
__________________________________________________________________________________________________
batch_normalization_v1_63 (Batc (None, 16, 16, 32)   128         conv2d_63[0][0]                  
__________________________________________________________________________________________________
re_lu_94 (ReLU)                 (None, 16, 16, 32)   0           batch_normalization_v1_63[0][0]  
__________________________________________________________________________________________________
conv2d_64 (Conv2D)              (None, 16, 16, 32)   9216        re_lu_94[0][0]                   
__________________________________________________________________________________________________
batch_normalization_v1_64 (Batc (None, 16, 16, 32)   128         conv2d_64[0][0]                  
__________________________________________________________________________________________________
re_lu_95 (ReLU)                 (None, 16, 16, 32)   0           batch_normalization_v1_64[0][0]  
__________________________________________________________________________________________________
add_31 (Add)                    (None, 16, 16, 32)   0           re_lu_95[0][0]                   
                                                                 re_lu_93[0][0]                   
__________________________________________________________________________________________________
re_lu_96 (ReLU)                 (None, 16, 16, 32)   0           add_31[0][0]                     
__________________________________________________________________________________________________
conv2d_65 (Conv2D)              (None, 16, 16, 32)   9216        re_lu_96[0][0]                   
__________________________________________________________________________________________________
batch_normalization_v1_65 (Batc (None, 16, 16, 32)   128         conv2d_65[0][0]                  
__________________________________________________________________________________________________
re_lu_97 (ReLU)                 (None, 16, 16, 32)   0           batch_normalization_v1_65[0][0]  
__________________________________________________________________________________________________
conv2d_66 (Conv2D)              (None, 16, 16, 32)   9216        re_lu_97[0][0]                   
__________________________________________________________________________________________________
batch_normalization_v1_66 (Batc (None, 16, 16, 32)   128         conv2d_66[0][0]                  
__________________________________________________________________________________________________
re_lu_98 (ReLU)                 (None, 16, 16, 32)   0           batch_normalization_v1_66[0][0]  
__________________________________________________________________________________________________
add_32 (Add)                    (None, 16, 16, 32)   0           re_lu_98[0][0]                   
                                                                 re_lu_96[0][0]                   
__________________________________________________________________________________________________
re_lu_99 (ReLU)                 (None, 16, 16, 32)   0           add_32[0][0]                     
__________________________________________________________________________________________________
conv2d_67 (Conv2D)              (None, 16, 16, 32)   9216        re_lu_99[0][0]                   
__________________________________________________________________________________________________
batch_normalization_v1_67 (Batc (None, 16, 16, 32)   128         conv2d_67[0][0]                  
__________________________________________________________________________________________________
re_lu_100 (ReLU)                (None, 16, 16, 32)   0           batch_normalization_v1_67[0][0]  
__________________________________________________________________________________________________
conv2d_68 (Conv2D)              (None, 16, 16, 32)   9216        re_lu_100[0][0]                  
__________________________________________________________________________________________________
batch_normalization_v1_68 (Batc (None, 16, 16, 32)   128         conv2d_68[0][0]                  
__________________________________________________________________________________________________
re_lu_101 (ReLU)                (None, 16, 16, 32)   0           batch_normalization_v1_68[0][0]  
__________________________________________________________________________________________________
add_33 (Add)                    (None, 16, 16, 32)   0           re_lu_101[0][0]                  
                                                                 re_lu_99[0][0]                   
__________________________________________________________________________________________________
re_lu_102 (ReLU)                (None, 16, 16, 32)   0           add_33[0][0]                     
__________________________________________________________________________________________________
conv2d_69 (Conv2D)              (None, 16, 16, 32)   9216        re_lu_102[0][0]                  
__________________________________________________________________________________________________
batch_normalization_v1_69 (Batc (None, 16, 16, 32)   128         conv2d_69[0][0]                  
__________________________________________________________________________________________________
re_lu_103 (ReLU)                (None, 16, 16, 32)   0           batch_normalization_v1_69[0][0]  
__________________________________________________________________________________________________
conv2d_70 (Conv2D)              (None, 16, 16, 32)   9216        re_lu_103[0][0]                  
__________________________________________________________________________________________________
batch_normalization_v1_70 (Batc (None, 16, 16, 32)   128         conv2d_70[0][0]                  
__________________________________________________________________________________________________
re_lu_104 (ReLU)                (None, 16, 16, 32)   0           batch_normalization_v1_70[0][0]  
__________________________________________________________________________________________________
add_34 (Add)                    (None, 16, 16, 32)   0           re_lu_104[0][0]                  
                                                                 re_lu_102[0][0]                  
__________________________________________________________________________________________________
re_lu_105 (ReLU)                (None, 16, 16, 32)   0           add_34[0][0]                     
__________________________________________________________________________________________________
conv2d_71 (Conv2D)              (None, 16, 16, 32)   9216        re_lu_105[0][0]                  
__________________________________________________________________________________________________
batch_normalization_v1_71 (Batc (None, 16, 16, 32)   128         conv2d_71[0][0]                  
__________________________________________________________________________________________________
re_lu_106 (ReLU)                (None, 16, 16, 32)   0           batch_normalization_v1_71[0][0]  
__________________________________________________________________________________________________
conv2d_72 (Conv2D)              (None, 16, 16, 32)   9216        re_lu_106[0][0]                  
__________________________________________________________________________________________________
batch_normalization_v1_72 (Batc (None, 16, 16, 32)   128         conv2d_72[0][0]                  
__________________________________________________________________________________________________
re_lu_107 (ReLU)                (None, 16, 16, 32)   0           batch_normalization_v1_72[0][0]  
__________________________________________________________________________________________________
add_35 (Add)                    (None, 16, 16, 32)   0           re_lu_107[0][0]                  
                                                                 re_lu_105[0][0]                  
__________________________________________________________________________________________________
re_lu_108 (ReLU)                (None, 16, 16, 32)   0           add_35[0][0]                     
__________________________________________________________________________________________________
conv2d_73 (Conv2D)              (None, 8, 8, 64)     18432       re_lu_108[0][0]                  
__________________________________________________________________________________________________
batch_normalization_v1_73 (Batc (None, 8, 8, 64)     256         conv2d_73[0][0]                  
__________________________________________________________________________________________________
re_lu_109 (ReLU)                (None, 8, 8, 64)     0           batch_normalization_v1_73[0][0]  
__________________________________________________________________________________________________
conv2d_74 (Conv2D)              (None, 8, 8, 64)     36864       re_lu_109[0][0]                  
__________________________________________________________________________________________________
batch_normalization_v1_74 (Batc (None, 8, 8, 64)     256         conv2d_74[0][0]                  
__________________________________________________________________________________________________
max_pooling2d_1 (MaxPooling2D)  (None, 8, 8, 32)     0           re_lu_108[0][0]                  
__________________________________________________________________________________________________
re_lu_110 (ReLU)                (None, 8, 8, 64)     0           batch_normalization_v1_74[0][0]  
__________________________________________________________________________________________________
lambda_1 (Lambda)               (None, 8, 8, 64)     0           max_pooling2d_1[0][0]            
__________________________________________________________________________________________________
add_36 (Add)                    (None, 8, 8, 64)     0           re_lu_110[0][0]                  
                                                                 lambda_1[0][0]                   
__________________________________________________________________________________________________
re_lu_111 (ReLU)                (None, 8, 8, 64)     0           add_36[0][0]                     
__________________________________________________________________________________________________
conv2d_75 (Conv2D)              (None, 8, 8, 64)     36864       re_lu_111[0][0]                  
__________________________________________________________________________________________________
batch_normalization_v1_75 (Batc (None, 8, 8, 64)     256         conv2d_75[0][0]                  
__________________________________________________________________________________________________
re_lu_112 (ReLU)                (None, 8, 8, 64)     0           batch_normalization_v1_75[0][0]  
__________________________________________________________________________________________________
conv2d_76 (Conv2D)              (None, 8, 8, 64)     36864       re_lu_112[0][0]                  
__________________________________________________________________________________________________
batch_normalization_v1_76 (Batc (None, 8, 8, 64)     256         conv2d_76[0][0]                  
__________________________________________________________________________________________________
re_lu_113 (ReLU)                (None, 8, 8, 64)     0           batch_normalization_v1_76[0][0]  
__________________________________________________________________________________________________
add_37 (Add)                    (None, 8, 8, 64)     0           re_lu_113[0][0]                  
                                                                 re_lu_111[0][0]                  
__________________________________________________________________________________________________
re_lu_114 (ReLU)                (None, 8, 8, 64)     0           add_37[0][0]                     
__________________________________________________________________________________________________
conv2d_77 (Conv2D)              (None, 8, 8, 64)     36864       re_lu_114[0][0]                  
__________________________________________________________________________________________________
batch_normalization_v1_77 (Batc (None, 8, 8, 64)     256         conv2d_77[0][0]                  
__________________________________________________________________________________________________
re_lu_115 (ReLU)                (None, 8, 8, 64)     0           batch_normalization_v1_77[0][0]  
__________________________________________________________________________________________________
conv2d_78 (Conv2D)              (None, 8, 8, 64)     36864       re_lu_115[0][0]                  
__________________________________________________________________________________________________
batch_normalization_v1_78 (Batc (None, 8, 8, 64)     256         conv2d_78[0][0]                  
__________________________________________________________________________________________________
re_lu_116 (ReLU)                (None, 8, 8, 64)     0           batch_normalization_v1_78[0][0]  
__________________________________________________________________________________________________
add_38 (Add)                    (None, 8, 8, 64)     0           re_lu_116[0][0]                  
                                                                 re_lu_114[0][0]                  
__________________________________________________________________________________________________
re_lu_117 (ReLU)                (None, 8, 8, 64)     0           add_38[0][0]                     
__________________________________________________________________________________________________
conv2d_79 (Conv2D)              (None, 8, 8, 64)     36864       re_lu_117[0][0]                  
__________________________________________________________________________________________________
batch_normalization_v1_79 (Batc (None, 8, 8, 64)     256         conv2d_79[0][0]                  
__________________________________________________________________________________________________
re_lu_118 (ReLU)                (None, 8, 8, 64)     0           batch_normalization_v1_79[0][0]  
__________________________________________________________________________________________________
conv2d_80 (Conv2D)              (None, 8, 8, 64)     36864       re_lu_118[0][0]                  
__________________________________________________________________________________________________
batch_normalization_v1_80 (Batc (None, 8, 8, 64)     256         conv2d_80[0][0]                  
__________________________________________________________________________________________________
re_lu_119 (ReLU)                (None, 8, 8, 64)     0           batch_normalization_v1_80[0][0]  
__________________________________________________________________________________________________
add_39 (Add)                    (None, 8, 8, 64)     0           re_lu_119[0][0]                  
                                                                 re_lu_117[0][0]                  
__________________________________________________________________________________________________
re_lu_120 (ReLU)                (None, 8, 8, 64)     0           add_39[0][0]                     
__________________________________________________________________________________________________
conv2d_81 (Conv2D)              (None, 8, 8, 64)     36864       re_lu_120[0][0]                  
__________________________________________________________________________________________________
batch_normalization_v1_81 (Batc (None, 8, 8, 64)     256         conv2d_81[0][0]                  
__________________________________________________________________________________________________
re_lu_121 (ReLU)                (None, 8, 8, 64)     0           batch_normalization_v1_81[0][0]  
__________________________________________________________________________________________________
conv2d_82 (Conv2D)              (None, 8, 8, 64)     36864       re_lu_121[0][0]                  
__________________________________________________________________________________________________
batch_normalization_v1_82 (Batc (None, 8, 8, 64)     256         conv2d_82[0][0]                  
__________________________________________________________________________________________________
re_lu_122 (ReLU)                (None, 8, 8, 64)     0           batch_normalization_v1_82[0][0]  
__________________________________________________________________________________________________
add_40 (Add)                    (None, 8, 8, 64)     0           re_lu_122[0][0]                  
                                                                 re_lu_120[0][0]                  
__________________________________________________________________________________________________
re_lu_123 (ReLU)                (None, 8, 8, 64)     0           add_40[0][0]                     
__________________________________________________________________________________________________
conv2d_83 (Conv2D)              (None, 8, 8, 64)     36864       re_lu_123[0][0]                  
__________________________________________________________________________________________________
batch_normalization_v1_83 (Batc (None, 8, 8, 64)     256         conv2d_83[0][0]                  
__________________________________________________________________________________________________
re_lu_124 (ReLU)                (None, 8, 8, 64)     0           batch_normalization_v1_83[0][0]  
__________________________________________________________________________________________________
conv2d_84 (Conv2D)              (None, 8, 8, 64)     36864       re_lu_124[0][0]                  
__________________________________________________________________________________________________
batch_normalization_v1_84 (Batc (None, 8, 8, 64)     256         conv2d_84[0][0]                  
__________________________________________________________________________________________________
re_lu_125 (ReLU)                (None, 8, 8, 64)     0           batch_normalization_v1_84[0][0]  
__________________________________________________________________________________________________
add_41 (Add)                    (None, 8, 8, 64)     0           re_lu_125[0][0]                  
                                                                 re_lu_123[0][0]                  
__________________________________________________________________________________________________
re_lu_126 (ReLU)                (None, 8, 8, 64)     0           add_41[0][0]                     
__________________________________________________________________________________________________
conv2d_85 (Conv2D)              (None, 8, 8, 64)     36864       re_lu_126[0][0]                  
__________________________________________________________________________________________________
batch_normalization_v1_85 (Batc (None, 8, 8, 64)     256         conv2d_85[0][0]                  
__________________________________________________________________________________________________
re_lu_127 (ReLU)                (None, 8, 8, 64)     0           batch_normalization_v1_85[0][0]  
__________________________________________________________________________________________________
conv2d_86 (Conv2D)              (None, 8, 8, 64)     36864       re_lu_127[0][0]                  
__________________________________________________________________________________________________
batch_normalization_v1_86 (Batc (None, 8, 8, 64)     256         conv2d_86[0][0]                  
__________________________________________________________________________________________________
re_lu_128 (ReLU)                (None, 8, 8, 64)     0           batch_normalization_v1_86[0][0]  
__________________________________________________________________________________________________
add_42 (Add)                    (None, 8, 8, 64)     0           re_lu_128[0][0]                  
                                                                 re_lu_126[0][0]                  
__________________________________________________________________________________________________
re_lu_129 (ReLU)                (None, 8, 8, 64)     0           add_42[0][0]                     
__________________________________________________________________________________________________
conv2d_87 (Conv2D)              (None, 8, 8, 64)     36864       re_lu_129[0][0]                  
__________________________________________________________________________________________________
batch_normalization_v1_87 (Batc (None, 8, 8, 64)     256         conv2d_87[0][0]                  
__________________________________________________________________________________________________
re_lu_130 (ReLU)                (None, 8, 8, 64)     0           batch_normalization_v1_87[0][0]  
__________________________________________________________________________________________________
conv2d_88 (Conv2D)              (None, 8, 8, 64)     36864       re_lu_130[0][0]                  
__________________________________________________________________________________________________
batch_normalization_v1_88 (Batc (None, 8, 8, 64)     256         conv2d_88[0][0]                  
__________________________________________________________________________________________________
re_lu_131 (ReLU)                (None, 8, 8, 64)     0           batch_normalization_v1_88[0][0]  
__________________________________________________________________________________________________
add_43 (Add)                    (None, 8, 8, 64)     0           re_lu_131[0][0]                  
                                                                 re_lu_129[0][0]                  
__________________________________________________________________________________________________
re_lu_132 (ReLU)                (None, 8, 8, 64)     0           add_43[0][0]                     
__________________________________________________________________________________________________
conv2d_89 (Conv2D)              (None, 8, 8, 64)     36864       re_lu_132[0][0]                  
__________________________________________________________________________________________________
batch_normalization_v1_89 (Batc (None, 8, 8, 64)     256         conv2d_89[0][0]                  
__________________________________________________________________________________________________
re_lu_133 (ReLU)                (None, 8, 8, 64)     0           batch_normalization_v1_89[0][0]  
__________________________________________________________________________________________________
conv2d_90 (Conv2D)              (None, 8, 8, 64)     36864       re_lu_133[0][0]                  
__________________________________________________________________________________________________
batch_normalization_v1_90 (Batc (None, 8, 8, 64)     256         conv2d_90[0][0]                  
__________________________________________________________________________________________________
re_lu_134 (ReLU)                (None, 8, 8, 64)     0           batch_normalization_v1_90[0][0]  
__________________________________________________________________________________________________
add_44 (Add)                    (None, 8, 8, 64)     0           re_lu_134[0][0]                  
                                                                 re_lu_132[0][0]                  
__________________________________________________________________________________________________
re_lu_135 (ReLU)                (None, 8, 8, 64)     0           add_44[0][0]                     
__________________________________________________________________________________________________
conv2d_91 (Conv2D)              (None, 8, 8, 64)     36864       re_lu_135[0][0]                  
__________________________________________________________________________________________________
batch_normalization_v1_91 (Batc (None, 8, 8, 64)     256         conv2d_91[0][0]                  
__________________________________________________________________________________________________
re_lu_136 (ReLU)                (None, 8, 8, 64)     0           batch_normalization_v1_91[0][0]  
__________________________________________________________________________________________________
conv2d_92 (Conv2D)              (None, 8, 8, 64)     36864       re_lu_136[0][0]                  
__________________________________________________________________________________________________
batch_normalization_v1_92 (Batc (None, 8, 8, 64)     256         conv2d_92[0][0]                  
__________________________________________________________________________________________________
re_lu_137 (ReLU)                (None, 8, 8, 64)     0           batch_normalization_v1_92[0][0]  
__________________________________________________________________________________________________
add_45 (Add)                    (None, 8, 8, 64)     0           re_lu_137[0][0]                  
                                                                 re_lu_135[0][0]                  
__________________________________________________________________________________________________
re_lu_138 (ReLU)                (None, 8, 8, 64)     0           add_45[0][0]                     
__________________________________________________________________________________________________
conv2d_93 (Conv2D)              (None, 8, 8, 64)     36864       re_lu_138[0][0]                  
__________________________________________________________________________________________________
batch_normalization_v1_93 (Batc (None, 8, 8, 64)     256         conv2d_93[0][0]                  
__________________________________________________________________________________________________
re_lu_139 (ReLU)                (None, 8, 8, 64)     0           batch_normalization_v1_93[0][0]  
__________________________________________________________________________________________________
conv2d_94 (Conv2D)              (None, 8, 8, 64)     36864       re_lu_139[0][0]                  
__________________________________________________________________________________________________
batch_normalization_v1_94 (Batc (None, 8, 8, 64)     256         conv2d_94[0][0]                  
__________________________________________________________________________________________________
re_lu_140 (ReLU)                (None, 8, 8, 64)     0           batch_normalization_v1_94[0][0]  
__________________________________________________________________________________________________
add_46 (Add)                    (None, 8, 8, 64)     0           re_lu_140[0][0]                  
                                                                 re_lu_138[0][0]                  
__________________________________________________________________________________________________
re_lu_141 (ReLU)                (None, 8, 8, 64)     0           add_46[0][0]                     
__________________________________________________________________________________________________
conv2d_95 (Conv2D)              (None, 8, 8, 64)     36864       re_lu_141[0][0]                  
__________________________________________________________________________________________________
batch_normalization_v1_95 (Batc (None, 8, 8, 64)     256         conv2d_95[0][0]                  
__________________________________________________________________________________________________
re_lu_142 (ReLU)                (None, 8, 8, 64)     0           batch_normalization_v1_95[0][0]  
__________________________________________________________________________________________________
conv2d_96 (Conv2D)              (None, 8, 8, 64)     36864       re_lu_142[0][0]                  
__________________________________________________________________________________________________
batch_normalization_v1_96 (Batc (None, 8, 8, 64)     256         conv2d_96[0][0]                  
__________________________________________________________________________________________________
re_lu_143 (ReLU)                (None, 8, 8, 64)     0           batch_normalization_v1_96[0][0]  
__________________________________________________________________________________________________
add_47 (Add)                    (None, 8, 8, 64)     0           re_lu_143[0][0]                  
                                                                 re_lu_141[0][0]                  
__________________________________________________________________________________________________
re_lu_144 (ReLU)                (None, 8, 8, 64)     0           add_47[0][0]                     
__________________________________________________________________________________________________
conv2d_97 (Conv2D)              (None, 8, 8, 64)     36864       re_lu_144[0][0]                  
__________________________________________________________________________________________________
batch_normalization_v1_97 (Batc (None, 8, 8, 64)     256         conv2d_97[0][0]                  
__________________________________________________________________________________________________
re_lu_145 (ReLU)                (None, 8, 8, 64)     0           batch_normalization_v1_97[0][0]  
__________________________________________________________________________________________________
conv2d_98 (Conv2D)              (None, 8, 8, 64)     36864       re_lu_145[0][0]                  
__________________________________________________________________________________________________
batch_normalization_v1_98 (Batc (None, 8, 8, 64)     256         conv2d_98[0][0]                  
__________________________________________________________________________________________________
re_lu_146 (ReLU)                (None, 8, 8, 64)     0           batch_normalization_v1_98[0][0]  
__________________________________________________________________________________________________
add_48 (Add)                    (None, 8, 8, 64)     0           re_lu_146[0][0]                  
                                                                 re_lu_144[0][0]                  
__________________________________________________________________________________________________
re_lu_147 (ReLU)                (None, 8, 8, 64)     0           add_48[0][0]                     
__________________________________________________________________________________________________
conv2d_99 (Conv2D)              (None, 8, 8, 64)     36864       re_lu_147[0][0]                  
__________________________________________________________________________________________________
batch_normalization_v1_99 (Batc (None, 8, 8, 64)     256         conv2d_99[0][0]                  
__________________________________________________________________________________________________
re_lu_148 (ReLU)                (None, 8, 8, 64)     0           batch_normalization_v1_99[0][0]  
__________________________________________________________________________________________________
conv2d_100 (Conv2D)             (None, 8, 8, 64)     36864       re_lu_148[0][0]                  
__________________________________________________________________________________________________
batch_normalization_v1_100 (Bat (None, 8, 8, 64)     256         conv2d_100[0][0]                 
__________________________________________________________________________________________________
re_lu_149 (ReLU)                (None, 8, 8, 64)     0           batch_normalization_v1_100[0][0] 
__________________________________________________________________________________________________
add_49 (Add)                    (None, 8, 8, 64)     0           re_lu_149[0][0]                  
                                                                 re_lu_147[0][0]                  
__________________________________________________________________________________________________
re_lu_150 (ReLU)                (None, 8, 8, 64)     0           add_49[0][0]                     
__________________________________________________________________________________________________
conv2d_101 (Conv2D)             (None, 8, 8, 64)     36864       re_lu_150[0][0]                  
__________________________________________________________________________________________________
batch_normalization_v1_101 (Bat (None, 8, 8, 64)     256         conv2d_101[0][0]                 
__________________________________________________________________________________________________
re_lu_151 (ReLU)                (None, 8, 8, 64)     0           batch_normalization_v1_101[0][0] 
__________________________________________________________________________________________________
conv2d_102 (Conv2D)             (None, 8, 8, 64)     36864       re_lu_151[0][0]                  
__________________________________________________________________________________________________
batch_normalization_v1_102 (Bat (None, 8, 8, 64)     256         conv2d_102[0][0]                 
__________________________________________________________________________________________________
re_lu_152 (ReLU)                (None, 8, 8, 64)     0           batch_normalization_v1_102[0][0] 
__________________________________________________________________________________________________
add_50 (Add)                    (None, 8, 8, 64)     0           re_lu_152[0][0]                  
                                                                 re_lu_150[0][0]                  
__________________________________________________________________________________________________
re_lu_153 (ReLU)                (None, 8, 8, 64)     0           add_50[0][0]                     
__________________________________________________________________________________________________
conv2d_103 (Conv2D)             (None, 8, 8, 64)     36864       re_lu_153[0][0]                  
__________________________________________________________________________________________________
batch_normalization_v1_103 (Bat (None, 8, 8, 64)     256         conv2d_103[0][0]                 
__________________________________________________________________________________________________
re_lu_154 (ReLU)                (None, 8, 8, 64)     0           batch_normalization_v1_103[0][0] 
__________________________________________________________________________________________________
conv2d_104 (Conv2D)             (None, 8, 8, 64)     36864       re_lu_154[0][0]                  
__________________________________________________________________________________________________
batch_normalization_v1_104 (Bat (None, 8, 8, 64)     256         conv2d_104[0][0]                 
__________________________________________________________________________________________________
re_lu_155 (ReLU)                (None, 8, 8, 64)     0           batch_normalization_v1_104[0][0] 
__________________________________________________________________________________________________
add_51 (Add)                    (None, 8, 8, 64)     0           re_lu_155[0][0]                  
                                                                 re_lu_153[0][0]                  
__________________________________________________________________________________________________
re_lu_156 (ReLU)                (None, 8, 8, 64)     0           add_51[0][0]                     
__________________________________________________________________________________________________
conv2d_105 (Conv2D)             (None, 8, 8, 64)     36864       re_lu_156[0][0]                  
__________________________________________________________________________________________________
batch_normalization_v1_105 (Bat (None, 8, 8, 64)     256         conv2d_105[0][0]                 
__________________________________________________________________________________________________
re_lu_157 (ReLU)                (None, 8, 8, 64)     0           batch_normalization_v1_105[0][0] 
__________________________________________________________________________________________________
conv2d_106 (Conv2D)             (None, 8, 8, 64)     36864       re_lu_157[0][0]                  
__________________________________________________________________________________________________
batch_normalization_v1_106 (Bat (None, 8, 8, 64)     256         conv2d_106[0][0]                 
__________________________________________________________________________________________________
re_lu_158 (ReLU)                (None, 8, 8, 64)     0           batch_normalization_v1_106[0][0] 
__________________________________________________________________________________________________
add_52 (Add)                    (None, 8, 8, 64)     0           re_lu_158[0][0]                  
                                                                 re_lu_156[0][0]                  
__________________________________________________________________________________________________
re_lu_159 (ReLU)                (None, 8, 8, 64)     0           add_52[0][0]                     
__________________________________________________________________________________________________
conv2d_107 (Conv2D)             (None, 8, 8, 64)     36864       re_lu_159[0][0]                  
__________________________________________________________________________________________________
batch_normalization_v1_107 (Bat (None, 8, 8, 64)     256         conv2d_107[0][0]                 
__________________________________________________________________________________________________
re_lu_160 (ReLU)                (None, 8, 8, 64)     0           batch_normalization_v1_107[0][0] 
__________________________________________________________________________________________________
conv2d_108 (Conv2D)             (None, 8, 8, 64)     36864       re_lu_160[0][0]                  
__________________________________________________________________________________________________
batch_normalization_v1_108 (Bat (None, 8, 8, 64)     256         conv2d_108[0][0]                 
__________________________________________________________________________________________________
re_lu_161 (ReLU)                (None, 8, 8, 64)     0           batch_normalization_v1_108[0][0] 
__________________________________________________________________________________________________
add_53 (Add)                    (None, 8, 8, 64)     0           re_lu_161[0][0]                  
                                                                 re_lu_159[0][0]                  
__________________________________________________________________________________________________
re_lu_162 (ReLU)                (None, 8, 8, 64)     0           add_53[0][0]                     
__________________________________________________________________________________________________
global_average_pooling2d (Globa (None, 64)           0           re_lu_162[0][0]                  
__________________________________________________________________________________________________
dense (Dense)                   (None, 10)           650         global_average_pooling2d[0][0]   
==================================================================================================
Total params: 1,736,058
Trainable params: 1,727,962
Non-trainable params: 8,096
__________________________________________________________________________________________________